halfcheetah_medium_v2_vae.pt (torch, 163457 bytes, 12 tensors)

encoder.0.weight f4 [128, 23]
000000 79 3f b0 be a0 86 df be 2f 20 e7 bf 8a 3d c7 be
       -0.34423426 -0.43657398 -1.8056697 -0.38914138
000010 f9 dd 35 bf 81 c1 86 be a3 5b 6f 3e 68 f0 e9 be
       -0.7104183 -0.26319507 0.233748 -0.45691228
000020 0a bb e6 3e 5f aa cd be e3 52 7a bf 30 d7 56 bf
       0.45064574 -0.40169045 -0.97782725 -0.839221
000030 32 e8 16 bf d5 26 6d 3e 47 91 4d 3f d2 3f 02 3f
       -0.5894805 0.23159344 0.802998 0.5087863
000040 f0 4d 4e be cb 9e f0 3e 62 d6 4b be df 07 9b be
       -0.20146918 0.4699615 -0.19906 -0.30279443
000050 8b ab 21 3f 0c f0 93 3e b2 d3 78 be eb d7 fc 3d
       0.6315238 0.2889408 -0.24299505 0.123458706
000060 11 ba a3 bf 5e ab ac 3d bf 0f 9e 3e a6 24 bf 3d
       -1.2791158 0.08431123 0.30871388 0.09333162
000070 12 b0 34 bf d9 77 48 bd 6c 1a a5 be 75 af 35 3f
       -0.7058116 -0.04894242 -0.3224672 0.7097085
000080 50 96 44 3f ff 9b 68 be 35 b6 0e bf 50 35 e4 be
       0.7679186 -0.22715758 -0.55746776 -0.44571924
000090 72 06 21 3e 67 5f 87 3f 01 30 b4 bd 3e 3d 11 3f
       0.15725115 1.057599 -0.087982185 0.56734073
0000a0 f7 e3 8d be f0 16 22 bd 50 c4 68 3f 22 0c b0 be
       -0.27712986 -0.039572656 0.9092455 -0.34384257
0000b0 94 ad 24 3d 8a 11 1f 3f f5 ee 74 be 79 20 88 be
       0.0402046 0.6213614 -0.2391928 -0.26587275
0000c0 8e ce 82 be 21 5c a3 bd 1d 32 84 be da c3 70 be
       -0.25548214 -0.079765566 -0.25819483 -0.23512211
0000d0 31 59 50 3d 93 2d 12 3f 63 86 a8 3e 5a a2 cd bb
       0.05086631 0.5710079 0.3291503 -0.0062754573
0000e0 e0 89 8d be 87 6c 63 3c 26 cf 94 be 1a a7 c3 3e
       -0.27644253 0.013880855 -0.29064292 0.38213426
0000f0 b3 5b 22 be e4 7e a8 3d a1 9a 2f 3e 95 42 94 be
       -0.15855293 0.082273275 0.1714883 -0.28957048
000100 3e 15 95 be 5d e0 c7 3e 7d e1 29 bd 2a 83 ad 3d
       -0.2911777 0.39038363 -0.041474808 0.08472283
000110 20 9b f8 3e 0b e2 82 be 9f 72 f5 be d0 a5 71 be
       0.4855585 -0.25563082 -0.4793901 -0.23598409
000120 ad 15 40 3e 68 d3 b9 be 6e 8f 11 3e bb 45 b2 3c
       0.18758269 -0.36294103 0.1421487 0.021761766
000130 88 11 ff 3e 7e 62 a2 be 72 11 03 3f e6 32 b8 be
       0.49818063 -0.3171577 0.51198494 -0.35976332
000140 58 4b 67 3d 52 db 4b 3e 0b 93 3d bc fe 78 a3 be
       0.056468338 0.19907883 -0.011570702 -0.31928247
000150 e9 4b a8 3e 0c 52 86 3e d9 d3 2b 3e e3 6b 3c bd
       0.32870415 0.26234472 0.16780032 -0.046001326
000160 9f 3a a1 3e 44 4b ce bd b6 c8 8b 3e 93 b8 3d 3d
       0.31490037 -0.100729495 0.27301568 0.0463186
000170 fb 0a 01 3e 45 d0 23 be 13 ad 70 be 91 17 c0 3c
       0.12601845 -0.15997417 -0.23503523 0.023448737
000180 9b 3d 89 be cb cd 0d bf 54 34 32 be 61 f7 21 3e
       -0.26804814 -0.5539214 -0.17402774 0.15817024
000190 f0 95 07 3f 75 d5 99 3d ad 83 6e 3e 5a b4 d5 be
       0.5296316 0.07511417 0.23292418 -0.4173916
0001a0 7e 42 a3 bd 6c e2 19 bc c2 69 70 3e 36 44 60 be
       -0.07971667 -0.009392362 0.23477843 -0.2190102
0001b0 1a 2b a5 3e 90 7a 73 3d 83 4b 50 3f 96 d0 2d 3f
       0.32259446 0.059443057 0.8136522 0.678964
0001c0 f9 4f 66 be 98 e5 44 3f 7e 66 b2 3e 5e 84 f4 be
       -0.22491445 0.7691283 0.3484382 -0.47757238
0001d0 84 08 af be 63 ae 13 bf 6d 6f 08 be 0f ce 0a bf
       -0.34186184 -0.5768797 -0.13323756 -0.5422067
0001e0 c4 de ff 3e 79 4d 6f be fb 6e 30 3e 06 ec 9c be
       0.49974644 -0.23369397 0.17229836 -0.30648822
0001f0 72 b8 2c be c6 44 e9 be 2d da a6 3b 28 3e af be
       -0.16867235 -0.45560282 0.0050919265 -0.3422711
000200 3a d7 b9 3e e3 ab 2a bd 31 79 5d be 6c 48 18 3f
       0.36297017 -0.04166783 -0.21628262 0.59485507
000210 34 08 0c 3f fe 6e 7d 3e cc 96 e3 be cb 4f 18 be
       0.54700017 0.24749371 -0.44450986 -0.14874189
000220 c7 d4 1c be c6 18 67 be 64 de 46 3e 6d fc cf 3d
       -0.15315543 -0.22568044 0.19420773 0.10155568
000230 ff 42 88 3e be 89 ba be bd 2c 98 bd 46 bf a6 be
       0.26613614 -0.36433214 -0.07430408 -0.32567805
000240 5b 21 29 3e 68 59 51 be 99 a8 87 3e 80 aa 77 bd
       0.1651663 -0.20444262 0.26495817 -0.060465336
000250 5e 9d b9 be af 4c a9 be d7 d6 ba 3d 49 af b6 bc
       -0.36252874 -0.33066317 0.09123009 -0.02230038
000260 f2 ab 23 3f 1f 85 99 3e b1 c2 aa 3e bd cb 06 bf
       0.6393424 0.29984376 0.33351663 -0.5265463
000270 ab b1 4b 3d 67 d6 6c 3e e3 87 6c 3d 66 5d fc 3e
       0.049729984 0.23128663 0.05774678 0.49290007
000280 b8 24 72 be ba 77 5a bc 46 5a ec bd 7f 90 1f bf
       -0.2364682 -0.013334209 -0.11540656 -0.6232986
000290 76 e8 d2 3e 6c 1c 90 be 4e 3d df be eb ae b8 3d
       0.4119298 -0.28146684 -0.4360146 0.09017738
0002a0 b9 bf e2 3e d8 7c 96 3e 41 98 2c 3d ce 6a 03 bd
       0.44286898 0.29392123 0.04213739 -0.03208428
0002b0 fd db cd 3e 19 3a b4 bd 63 32 01 be 44 e0 7e bd
       0.402069 -0.08800144 -0.12616877 -0.062225595
0002c0 cf a4 4e be 6b 0e 23 3c c6 28 92 be c4 cc df 3e
       -0.20180057 0.009952168 -0.28546733 0.4371091
0002d0 81 10 5f 3e ff b5 c9 bd e6 7d 02 3f 45 b9 69 be
       0.2178364 -0.09849166 0.50973356 -0.22824581
0002e0 76 9a 04 3f 56 f8 1e bf ff 62 cf bf e1 3b 32 bf
       0.5179819 -0.6209768 -1.6202086 -0.6962262
0002f0 97 76 1a c0 79 72 ef 3e d3 8b 38 3f 38 30 99 3d
       -2.4134881 0.46767023 0.72088355 0.074799
000300 78 73 e8 3e b2 93 f4 be 5b 3d a2 bf 89 8a f2 be
       0.45400596 -0.47768933 -1.2674974 -0.4737132
000310 74 d7 cf be ef 84 0b 3f c8 1d f1 3e 61 c2 74 3f
       -0.40594065 0.54499716 0.47093034 0.956091
000320 05 e5 cb bd 01 14 87 3e f8 ed d3 3e 1a d7 bf 3e
       -0.099557914 0.2638245 0.41392493 0.37468797
000330 57 89 62 3e a0 a9 f4 3c 76 e1 5d bc 86 08 61 3e
       0.22122703 0.02986604 -0.013542524 0.21975908
000340 e6 ff ae be b0 a8 a5 be 27 9a a0 bd e6 11 18 be
       -0.3417961 -0.3235526 -0.07841902 -0.14850578
000350 ba 4a 95 bc f0 08 98 3d f0 81 58 bd ff 85 87 3d
       -0.018224109 0.0742358 -0.052858293 0.066173546
000360 2d 56 b1 bc 48 bf 85 3e 3a d6 b3 bd dd 70 42 be
       -0.021647537 0.261225 -0.08781095 -0.18988366
000370 1e c5 9d 3d a9 29 b0 3e 80 18 7f 3e 88 81 8a 3e
       0.07703613 0.34406784 0.2491169 0.2705195
000380 1f ce 55 be d0 3d 19 bd b4 03 9b 3e 30 5f 69 be
       -0.2087941 -0.037412465 0.30276263 -0.22790217
000390 56 69 9c 3e ac a0 f6 3e 28 77 11 be 0a bb fd bd
       0.30549115 0.48169458 -0.14205611 -0.123891905
0003a0 c1 33 d0 3e 68 b8 37 3d 4c e2 82 3e 7b fe 11 be
       0.40664485 0.044853598 0.25563276 -0.14257233
0003b0 74 38 2c be c1 01 b1 be 22 55 f5 3e 05 c2 94 be
       -0.1681841 -0.3457165 0.47916514 -0.29054275
0003c0 78 41 2c 3d e4 8c 5c bc 18 84 89 3e 1b 25 3f 3d
       0.042054623 -0.013461325 0.26858592 0.046666246
0003d0 7b 3f 24 3e 07 00 dd 3d 2e 14 c5 3e a5 c9 ed be
       0.16039841 0.10791021 0.38491958 -0.46442905
0003e0 37 b5 84 be d3 0a 48 be da 2f 19 be 47 bb e1 3d
       -0.25919506 -0.19535379 -0.1495966 0.110220484
0003f0 9f b4 94 bd 1d 4b 34 3e 75 12 c5 bd 89 4c 95 bc
       -0.07261013 0.17606778 -0.09622661 -0.018224971

encoder.0.bias f4 [128]
000000 17 c7 dc bf fa 2c ce bf 2c fb 9b bf 41 1e fb bf
       -1.7248257 -1.6107476 -1.2186027 -1.9618608
000010 ec b6 e5 bf e5 f5 da bf 8a 99 2f bf f0 8f ed bf
       -1.7946448 -1.7106291 -0.68593657 -1.8559551
000020 46 32 be bf f9 87 80 bf f2 0f 84 bf f2 f5 85 3f
       -1.4859092 -1.0041496 -1.0317366 1.0465682
000030 65 ba 96 be e2 66 d4 bf 2a da ad bd 99 ad 98 bf
       -0.29439083 -1.6593897 -0.08488877 -1.1927978
000040 be c1 9a bf 2c c5 02 c0 7a 75 34 bf 4d 80 b7 bf
       -1.2090375 -2.0432844 -0.70491755 -1.4336029
000050 e1 7e 8c bf 54 8e 6c bf 08 19 b2 3f d6 ae fa bf
       -1.097622 -0.92404675 1.3913889 -1.9584606
000060 ce c6 20 bf fc e1 96 bf 6d 73 c4 bf c9 93 68 bf
       -0.6280335 -1.1787715 -1.5347725 -0.908505
000070 e9 cb 76 bf 9d 82 c3 bf 1e 8b a4 bf 42 54 92 bf
       -0.9640489 -1.5274235 -1.2854955 -1.1431963
000080 cc 9d 72 bf a0 e5 37 bf 6e af 5c be f9 7c 1c bf
       -0.9477203 -0.71834755 -0.21551296 -0.61128193
000090 d7 37 8f bf 1f 36 e7 bf 67 e9 bd bf 0d 78 01 c0
       -1.1188916 -1.8063391 -1.4836854 -2.0229523
0000a0 81 eb 9b bf eb 00 b8 bf e1 41 e4 bf 4d 25 0e c0
       -1.2181245 -1.437528 -1.7832605 -2.2210267
0000b0 b9 19 77 bf c7 9a 45 bf 96 f6 18 bf 3b 98 bf bf
       -0.96523625 -0.77189296 -0.5975126 -1.4968332
0000c0 d2 b4 ef be fa 2a 6b bf 36 75 72 bf a1 f7 07 c0
       -0.46817642 -0.9186245 -0.947101 -2.124489
0000d0 b2 fd a0 3e 5c de a1 bf 57 5a 72 bf 8b 71 bf bf
       0.31443554 -1.2645984 -0.946691 -1.4956526
0000e0 4f 5d 62 bf be c5 80 bf c6 16 0b c0 2e 74 b6 bf
       -0.8842363 -1.0060346 -2.173265 -1.4254205
0000f0 da 10 c0 3d 23 a0 a5 bf 61 e7 e5 bf 5e c7 1b bf
       0.09378214 -1.2939495 -1.7961236 -0.60851085
000100 d2 e4 83 bf 16 74 51 bf 5a 67 9d bf a0 a5 be be
       -1.0304205 -0.8181776 -1.2297165 -0.37235737
000110 cd 1d 68 bf b8 2a 6e be c5 e5 fc bf 82 80 85 bf
       -0.9067047 -0.23258483 -1.975762 -1.0429842
000120 f7 19 3b bf 45 ae b9 be bc 27 90 bf 4d 08 40 3f
       -0.73086494 -0.3626577 -1.1262126 0.75012666
000130 99 cd 16 c0 57 06 c0 bf 80 22 6c bf d6 86 fa bf
       -2.3562987 -1.5001935 -0.9224014 -1.9572399
000140 2b 9a 36 be cd b5 7c bf 1d d0 82 bf fc 36 64 bf
       -0.17832248 -0.98714906 -1.0219761 -0.891464
000150 f0 ab bd bf 93 0c a0 bf 1e 5d 6d bf 75 41 1f bf
       -1.4818096 -1.2503837 -0.9272021 -0.62209255
000160 8f 3a a9 be e1 cb 86 bf c1 89 b3 bf 72 6e 30 bf
       -0.3305249 -1.0530969 -1.4026414 -0.68918526
000170 be 32 e9 bf df 5e 6a bf 9f f7 c9 be 80 e5 c7 bf
       -1.821861 -0.9155101 -0.39446732 -1.5616913
000180 28 9a 55 bf 62 74 9c bf 98 e4 9f bf 09 98 89 bf
       -0.8343835 -1.2223017 -1.2491636 -1.0749522
000190 29 b2 79 bf 84 b2 80 bf f9 5b d7 3d 0d 6c eb bf
       -0.97537476 -1.0054479 0.10515589 -1.839235
0001a0 9b 79 dc bf 10 1a cd bf 7c ce 9b bf 91 4a b8 bf
       -1.7224611 -1.6023579 -1.2172389 -1.4397756
0001b0 3e 9b d8 bf 5b c1 5e 3e e6 bd b6 be c3 bf 03 c0
       -1.6922376 0.21753447 -0.35691756 -2.0585792
0001c0 a9 c9 c0 bf 10 17 8b bf 88 bd bc bf 7d e0 9e bf
       -1.5061542 -1.0866413 -1.474534 -1.2412258
0001d0 ec e3 3a 3f e0 2e ba bf 44 64 ab bf 9c 86 24 c0
       0.7300403 -1.4545555 -1.3389974 -2.570716
0001e0 d2 e8 da bf e8 59 a5 bf 5b d9 80 bf 2f 83 e1 bf
       -1.7102301 -1.2918062 -1.0066332 -1.7618159
0001f0 22 e1 5d bf d5 a4 ab bf 5b ed 93 bf eb 20 cf bf
       -0.8667165 -1.3409678 -1.155681 -1.6181921

encoder.2.weight f4 [128, 128]
000000 e4 12 78 3d b5 ad 12 bd 13 53 9b 3d 50 5b 83 be
       0.06056489 -0.03581019 0.075842045 -0.25655603
000010 da e5 8e be fc 6f 05 3d 39 4b da be b0 07 df bd
       -0.27909738 0.0325775 -0.42635515 -0.10890138
000020 6f 50 a4 ba 4c 9a 50 be 7d 0c 34 bf d5 ff dc 3e
       -0.0012536178 -0.2037136 -0.70331556 0.43163934
000030 11 51 8d be 0d 3c dc bd af e4 ad 3e b5 12 9b be
       -0.2760091 -0.10753641 0.33963534 -0.3028771
000040 6a d3 82 bf df b8 c6 3d 73 ea 4f bd e9 56 61 be
       -1.0220768 0.0970323 -0.050760698 -0.2200581
000050 11 77 1f 3e 17 43 dc be be 55 4c 3e 0b 86 41 be
       0.15572764 -0.43019935 0.19954583 -0.1889879
000060 4c ef 27 bc 31 49 37 bf cd f1 45 be ef c6 c8 bd
       -0.010249924 -0.71596056 -0.19330521 -0.098035686
000070 53 ff cc 3d 13 29 80 be 33 e3 48 bf 97 7e 0c 3e
       0.10009637 -0.25031337 -0.7847168 0.13720165
000080 f7 1e f8 bd 70 97 94 be da 16 0f bd 64 a9 95 3e
       -0.12115281 -0.29021788 -0.034933902 0.29230797
000090 8f a7 42 be dd ef 83 bf 62 c9 7f bf 31 57 1d 3e
       -0.19009231 -1.0307575 -0.9991666 0.15365292
0000a0 d8 c5 00 3d 70 70 5d bd 8c 9a 8a bd 49 50 4b bf
       0.03143868 -0.054062307 -0.06767759 -0.7941938
0000b0 86 40 2d be af 13 c3 3d c0 05 70 bd 7b 6b 0f be
       -0.16919145 0.09525239 -0.058599234 -0.14005844
0000c0 03 2a 82 be 0e 69 b1 bc f5 12 92 3d f5 93 38 be
       -0.25422677 -0.02165654 0.07132522 -0.18025191
0000d0 f1 59 9d 3e b0 29 ec 3b 38 d7 94 be fd 79 85 bf
       0.30732682 0.007207118 -0.2907045 -1.0427853
0000e0 7a 53 7a be e0 0f e3 3e 45 b6 e6 bd 22 4d c3 3e
       -0.24445906 0.4434805 -0.11265234 0.38144785
0000f0 6d 07 11 3d aa 25 41 bf c3 2d 01 3e 6b 00 0a bf
       0.035407472 -0.75448096 0.12615113 -0.5390689
000100 99 d7 bd be 19 f7 93 bd ee 70 9b bd a0 6e 77 bf
       -0.3707855 -0.072248645 -0.07589899 -0.96653175
000110 c5 cb a0 bd 94 a1 52 3e 57 e6 9a bd 09 6c ab 3e
       -0.07851366 0.2056945 -0.07563465 0.33480862
000120 00 3e ef 3b 1b f6 3c 3e ac 02 9f bd 39 98 91 3d
       0.007301092 0.18453257 -0.077641815 0.07109112
000130 2a 4a 9b bf 7b 3d ef bf 8b ec 9d 3d 9a 3a d9 3d
       -1.2132008 -1.8690637 0.077111326 0.106068805
000140 0c 35 10 3e 79 b6 11 3e 59 0c a7 3d e9 e8 80 be
       0.14082736 0.14229764 0.08156652 -0.25177696
000150 7d 11 14 be 8b 63 4b bd f4 d8 8c be 82 f4 39 3c
       -0.14459796 -0.04965548 -0.27509272 0.011349799
000160 ae 6b 61 be b2 ae 1e bf 47 ac de 3d ab b0 57 3e
       -0.22013733 -0.61985314 0.10872703 0.21063487
000170 88 62 4e c0 64 b9 8e 3e 96 2b f1 bd 15 37 e4 be
       -3.2247639 0.27875817 -0.117758915 -0.44573274
000180 da c0 c0 be 5d 8f 09 3e 79 84 0b be 38 b0 7d be
       -0.37647134 0.13433595 -0.13624753 -0.24774253
000190 c1 bd 60 bf 9c 2a 81 be d0 14 72 be aa b7 de bf
       -0.8778954 -0.2522782 -0.23640752 -1.73998
0001a0 a1 24 ee 3d 71 4e 93 bf 00 51 51 3e e0 8c 5f bf
       0.1162808 -1.1508313 0.20441055 -0.87324333
0001b0 b8 4e b5 3d c2 30 c6 3e a5 58 af be 87 f9 67 3e
       0.08852905 0.38709074 -0.34247318 0.22653781
0001c0 8c 4f 5d 3e 78 ee 0c 3e 09 f8 58 be d4 c2 a5 be
       0.21612376 0.13762844 -0.21188368 -0.32375205
0001d0 d0 4d 07 3e cb 56 06 3d f1 0d c8 bc ef ce 1c be
       0.13213277 0.032797616 -0.02442071 -0.15313314
0001e0 eb e7 2a be a5 a7 06 be 40 a4 19 be 26 08 37 be
       -0.16690032 -0.13149889 -0.15004063 -0.17874202
0001f0 2c e8 57 bf 42 12 d9 bc bb ac b8 be 69 8d 17 3e
       -0.8433864 -0.026497964 -0.36069283 0.14800037
000200 9b e0 e7 bc 83 90 33 bf 66 c2 05 be 6c 76 42 be
       -0.028305342 -0.7014238 -0.13062438 -0.18990487
000210 f3 e9 85 be d2 82 23 bf 4c b1 22 bf 48 4d c6 be
       -0.26155052 -0.6387149 -0.63551784 -0.38730836
000220 73 f9 4d 3e 97 ec 0a bf fc 5a 8e bd ef 85 da 3e
       0.20114689 -0.5426726 -0.06950948 0.42680308
000230 0a 65 e4 be 87 f8 86 bf 77 65 40 3e 56 cd 15 3d
       -0.44608337 -1.0544595 0.18788706 0.036572777
000240 22 75 88 be 1b a1 97 3b 97 9b 1e be d7 92 6b bf
       -0.26651865 0.0046273596 -0.1548904 -0.92020935
000250 1f 80 27 be d9 16 df 3d 44 1c da be 61 a3 bc bf
       -0.16357468 0.1089303 -0.4259969 -1.4737359
000260 94 75 7e be 39 eb 59 be 0c e0 65 be 22 52 8a 3e
       -0.2484954 -0.21281137 -0.22448748 0.27015787
000270 a0 fb 7f bf 75 e5 75 be e8 6e 38 be 4d 3e c0 bf
       -0.99993324 -0.24013312 -0.18011057 -1.5019013
000280 4e 5b a8 bd 9c 89 69 bd 63 9c 1b be 9b b5 8a be
       -0.0822054 -0.057016 -0.15196376 -0.2709168
000290 1f 0b be be c1 28 07 bf c0 5e 47 be c8 7e 62 3e
       -0.3711786 -0.5279656 -0.19469738 0.22118676
0002a0 00 5b 5d be f7 f5 1d 3e 7c 5f 9d 3c 41 6e 55 c0
       -0.21616745 0.1542586 0.01921057 -3.3348544
0002b0 55 71 3d bc b0 9e 5a be ad a3 a7 3d b6 97 c8 be
       -0.011562665 -0.21349597 0.081855156 -0.39178246
0002c0 88 33 16 bf ae 3b f3 3e 65 63 a9 3e 7c 25 ad bf
       -0.5867238 0.4750647 0.33083645 -1.3527064
0002d0 f4 ca 8d be 34 7a 12 be 28 b1 ac 3e 10 6a b2 3e
       -0.27693903 -0.1430443 0.3372891 0.34846544
0002e0 c6 be fc bf be c1 62 bf 63 c8 55 be 86 02 8a 3e
       -1.974572 -0.8857688 -0.20877223 0.2695505
0002f0 e5 82 dd 3d 81 09 da 3d f1 98 b5 3d c6 08 c5 bc
       0.10815982 0.10646344 0.08867062 -0.024052035
000300 da 56 13 3e cf ef 49 3e 8b fb 04 c0 4a bf bd 3d
       0.143886 0.19720386 -2.077853 0.09265001
000310 3d 0d 29 be c9 72 37 bd 08 12 38 be f3 cb 95 3e
       -0.16508956 -0.044787202 -0.17975628 0.29257163
000320 fa b7 f5 be a5 ed d0 be dc aa 95 3d ba b3 21 be
       -0.47991925 -0.40806308 0.073079795 -0.15791216
000330 da 9c 9b be e0 99 c8 be 06 b6 3e bd 50 c3 18 bf
       -0.30393106 -0.39179897 -0.04656031 -0.59673023
000340 45 ab 3f 3f ff 80 17 3c 65 93 98 3d e1 28 a0 be
       0.7487071 0.009247064 0.07449988 -0.31281188
000350 f4 06 d7 3d 39 8c 6d be 43 c6 52 3e 3f e6 ec be
       0.10499373 -0.23198022 0.20583443 -0.46269414
000360 f2 52 b7 be 90 d8 39 bf 41 a8 84 be 58 25 10 3e
       -0.3580547 -0.72596073 -0.25909618 0.14076746
000370 bc 5c 21 3e 0b fa cd be 93 16 e6 3d 79 11 2b bf
       0.15758032 -0.4022983 0.112347744 -0.66823536
000380 fd ab 5b be 5d e5 87 3f 4c 79 ea 3e ea 98 36 bf
       -0.21452327 1.0616871 0.45795667 -0.7132708
000390 19 a6 e4 3d cb f0 c9 be ee 38 1a be 1f c7 9d 3d
       0.11164493 -0.39441523 -0.1506078 0.07703995
0003a0 d7 de 29 3e 83 74 3d bf ed 88 37 3f 99 4d 94 bf
       0.16588913 -0.7400591 0.7169331 -1.1586181
0003b0 d6 1c 6c 3c c0 ba 71 3e bf 0c b7 be b1 15 c6 3d
       0.014411172 0.23606396 -0.35751912 0.09672106
0003c0 54 0c 8a bf e0 95 6f 3e d6 02 07 3e 9d 14 cb 3e
       -1.0785012 0.23397017 0.13184676 0.39664164
0003d0 98 5e ad 3e ff 12 a1 be f1 e5 86 be 15 39 9c bf
       0.33861232 -0.31459805 -0.26347306 -1.220492
0003e0 db b8 21 bd cf 0b 21 bd 57 b3 42 bd ea c3 20 bf
       -0.039482933 -0.039317902 -0.047534313 -0.6279894
0003f0 33 07 cd be ee 61 11 bf 2c 2f fc be 98 2b 8d bf
       -0.40044555 -0.56790054 -0.4925474 -1.1028929

encoder.2.bias f4 [128]
000000 18 24 26 3f b8 5c 82 3e 75 a8 95 bc 44 f7 8e be
       0.64898825 0.25461364 -0.018268803 -0.27923024
000010 83 23 37 be 07 93 0d be 30 23 de 3b 4f ad f6 bd
       -0.1788464 -0.13825618 0.006779097 -0.12044775
000020 b3 9c a9 3b 7f ec 66 3f 28 69 48 3e 26 da d0 bd
       0.0051761507 0.90204614 0.19571364 -0.101978585
000030 df 26 22 bd a6 f3 91 3f 35 86 00 3f 13 fa a7 be
       -0.03958785 1.1402481 0.50204784 -0.3280798
000040 8e 6c a6 3f fd 0d a8 bb d8 9e 74 3d 5a 89 84 3e
       1.3001878 -0.0051286207 0.059721798 0.2588604
000050 ad 24 01 bd b0 18 00 be 9a 5e 56 be b1 86 f4 bd
       -0.031529117 -0.12509418 -0.20934525 -0.11939753
000060 51 c1 0c 3e b3 b5 a0 3c 6d 4f 24 3f d6 0b 74 be
       0.1374562 0.019617891 0.64183694 -0.2383264
000070 65 40 8d 3f 98 88 28 3e 8a 9c 05 3e 66 46 85 3f
       1.1035277 0.16458356 0.13047996 1.0412109
000080 67 11 1c be bb cc 23 3e 3d ad ef 3e 78 c2 6c bd
       -0.15241013 0.15996067 0.46811858 -0.057802647
000090 e7 c7 78 be ea 3b 12 3f ec 02 28 be 9d 19 63 3f
       -0.24295007 0.5712267 -0.16407365 0.8871096
0000a0 89 f5 93 3e 33 21 b8 3d 34 d6 01 3c 49 16 b2 3e
       0.28898266 0.08990707 0.007924605 0.34782627
0000b0 b4 d8 92 3f 0b 83 6f 3d 1f 06 5f 3d c2 e2 e2 3e
       1.1472383 0.05847458 0.054449197 0.44313627
0000c0 48 6f 80 3f a1 12 f2 bd 13 b6 7b 3f 46 83 85 3f
       1.003396 -0.118199594 0.983247 1.0430686
0000d0 da 48 9d 3e dd b2 a0 be 64 9f 98 3d 1a bc 90 3e
       0.30719644 -0.31386462 0.07452276 0.2826851
0000e0 cd ef 40 3f ac 0d 36 3f 63 33 36 3f a3 e9 ad 3e
       0.75365907 0.7111461 0.7117216 0.33967313
0000f0 c6 cc bb bd ac 6e af bd 44 44 87 bb 3e c3 8d 3d
       -0.09169917 -0.08566031 -0.004128011 0.06922005
000100 26 40 bd 3b a8 79 63 3d ab 96 62 bc 34 4d 9c 3d
       0.0057754694 0.055535942 -0.013829867 0.07631913
000110 b1 60 a6 3e 1f c4 21 be 5c 1f 80 3f 83 a3 24 3d
       0.32495645 -0.1579747 1.000957 0.040195
000120 c9 bf 47 3f 88 db d3 bd ec 3b 6e bc b8 7a aa 3c
       0.78027016 -0.10344607 -0.014540654 0.02081047
000130 82 c8 93 3e 44 51 e6 3d ae 36 b5 3d 3d f7 e8 be
       0.28863913 0.11245969 0.0884832 -0.45501128
000140 01 8c 22 bb 66 df d4 bd 63 e6 6c 3f 1d e0 6c bc
       -0.0024802687 -0.10394172 0.9253904 -0.01445773
000150 06 6b e7 be e0 42 75 3e d4 14 a4 3c bc ad 20 bb
       -0.4519884 0.23951292 0.020029463 -0.0024517616
000160 3b 48 b5 bd 35 88 24 3f f6 04 9e 3f ea e6 6f bc
       -0.088516675 0.64270335 1.2345264 -0.014642457
000170 72 8b ca 3d f0 16 de bb 21 22 96 3f 4c 13 b0 bd
       0.09889878 -0.0067776367 1.1729165 -0.085974306
000180 1c 81 3f 3f 0f ac 48 be c6 06 7e be 3f 84 03 3f
       0.7480638 -0.19596885 -0.24807271 0.51373667
000190 73 27 49 be d7 85 6b 3f e9 b7 84 be f3 e4 8d 3f
       -0.19643955 0.920011 -0.25921562 1.1085495
0001a0 58 76 cf 3e b8 06 9b 3c d1 27 37 bd d1 e4 95 38
       0.40519977 0.018924102 -0.044715706 7.147494e-05
0001b0 38 10 d1 3e d6 4b 84 3c 0d cd d7 3c e7 86 00 3f
       0.40832686 0.016149443 0.026342893 0.50205845
0001c0 78 89 72 3d 5d 18 3c be b6 21 0b bd 2b 84 eb 3d
       0.05921313 -0.18368669 -0.033967696 0.114998184
0001d0 98 a8 6d 3e 46 0e b5 bd fe 28 5b 3e d4 ac d7 bd
       0.23208845 -0.08840613 0.21402356 -0.10531011
0001e0 4f e7 8a bd 6c 54 f3 bc 24 bd c6 bc ab 90 27 be
       -0.067824 -0.029703341 -0.024260111 -0.1636378
0001f0 38 e6 ac 3e 03 ac d6 bd 92 14 11 bd 6f 6c 8a 3f
       0.33769393 -0.104820274 -0.035420008 1.0814341

encoder.4.weight f4 [4, 128]
000000 d5 a6 96 3d d3 de e1 3b 82 85 f8 bc d8 a3 40 bf
       0.073560394 0.006893018 -0.030337099 -0.75250006
000010 10 17 94 3c fa 91 01 be 29 92 28 bb ba c8 56 bd
       0.018077403 -0.12653342 -0.0025721884 -0.05243752
000020 ff 44 27 3d b2 9e 68 3d a7 75 f2 3d 0f 03 3e bd
       0.040837284 0.05679197 0.11838847 -0.046389636
000030 08 62 92 3e 8f 8f 16 be 20 ee 4e 3d bb ed 9b 3e
       0.28590417 -0.14703201 0.050520062 0.3045481
000040 a1 37 b4 bd ca b4 d2 bd ed 5f 81 3d 8c f6 e1 bc
       -0.08799673 -0.10288389 0.063171245 -0.027583383
000050 7f c3 c5 39 08 f4 0e 3d 9c 18 15 be c6 b1 4a be
       0.00037720424 0.034900695 -0.14560169 -0.19794378
000060 92 b6 72 bd 44 e0 41 3f d9 dc 31 3e e8 19 08 bb
       -0.059256144 0.7573283 0.17369403 -0.0020767394
000070 6a 5c a5 3c a5 63 da 3b 63 2d 10 3d 2e 35 34 3c
       0.020185668 0.0066647106 0.035199534 0.010999007
000080 0c 5d a2 3c d4 cc 4f bc b4 e6 9b bb a4 01 db bb
       0.019819759 -0.012683112 -0.0047577266 -0.006683545
000090 8d 0a 81 3e 08 a2 a1 3c 20 8e a0 bc e0 a5 87 3d
       0.25203362 0.019730583 -0.01959902 0.06623435
0000a0 89 9a b0 bb fa d2 f2 bd 53 5f 22 3d 87 df e8 bd
       -0.005389516 -0.11856647 0.03964169 -0.113707595
0000b0 48 70 08 bd 2c aa a5 3d c8 f4 b9 3b 8d c6 75 bc
       -0.033310205 0.08089098 0.005674932 -0.0150009515
0000c0 95 5c a2 b9 74 63 34 3d c1 27 e3 bd 3b ec f2 3c
       -0.00030968027 0.04404016 -0.11091567 0.02965366
0000d0 ef 0a 54 ba d4 e9 9f bb 2d 3a 2c bb 21 05 a1 3d
       -0.00080887874 -0.0048801694 -0.0026279793 0.078623064
0000e0 e0 f1 d7 bb 7c 94 0b 3e 76 91 09 3d be 97 21 3d
       -0.006590113 0.13630861 0.033585988 0.039451353
0000f0 6a 04 16 bd 61 b2 ee 3b ad 67 df 3c dd e5 79 3b
       -0.036625303 0.007284448 0.027271116 0.0038131394
000100 c9 01 80 3c 0c 23 05 3d 64 1b 2a bd 50 d4 59 be
       0.015625851 0.032504126 -0.041530028 -0.21272397
000110 c1 d8 cb 3d 88 a9 1a 3c 49 17 1e be 20 fe 72 3d
       0.09953452 0.009439833 -0.1543857 0.059324384
000120 5d 91 cc 3d 85 1d 7a be 41 a5 1b 3d a4 5f 0a 3d
       0.09988663 -0.24425323 0.037999395 0.033782616
000130 e3 1a 6e be 0e e0 a5 bd 10 f8 31 3d 52 41 9f bc
       -0.23252444 -0.08099376 0.04344946 -0.019440327
000140 58 34 2b be 58 39 cb 3c 40 37 fe bd 20 b7 d1 3c
       -0.16719186 0.024807617 -0.12412882 0.025600016
000150 50 07 c0 3e 62 30 fa 3c b1 c5 55 3d cc 25 cb 3e
       0.3750558 0.030540649 0.052190486 0.39677274
000160 07 d1 8b 3d 2f 3e 19 3c bd f4 57 be e2 7a 2d 3d
       0.06826978 0.009353205 -0.21089454 0.04235352
000170 8e 87 7e 3e af b6 ad bc d3 5b dc bd 91 7f d5 3c
       0.24856398 -0.021205274 -0.107597016 0.026061805
000180 2f 4c dc bd 8e 0a 23 3d 9e b8 ff 3c 7c f7 fd 3d
       -0.10756718 0.039804988 0.031215962 0.124007195
000190 be 7c 39 be 06 80 72 be fe fd e0 bc 25 52 98 bd
       -0.18113992 -0.2368165 -0.027464863 -0.07437543
0001a0 56 4a 5d 3d bc 17 69 bc 41 3a 89 3d f6 0a 2a bd
       0.05402597 -0.01422685 0.06700564 -0.04151436
0001b0 a6 1b 9c 3c ed ed 35 3d 29 2a 0c bd f3 ff 2e 3d
       0.019056153 0.044416357 -0.034219895 0.04272456
0001c0 90 52 87 be f1 e3 11 3d 5c b8 67 bd 7f ce f9 ba
       -0.26430178 0.035617772 -0.056572303 -0.0019058733
0001d0 16 f2 1a be cc de 80 bd 19 b3 68 bc d6 a8 f7 3d
       -0.15131411 -0.06292495 -0.014202856 0.1209275
0001e0 06 df 18 bc 88 44 58 3d aa 24 db 3d a5 09 58 3d
       -0.009330517 0.05279973 0.107003525 0.052743573
0001f0 55 ce 7d bc cd d7 b8 3c 5b d4 a5 3d 0b 8f 89 bd
       -0.015491088 0.02256384 0.08097144 -0.067167364
000200 27 5e a7 3c 0b 42 d5 3d 21 4d b4 3c d2 32 03 3f
       0.020430638 0.10412987 0.022009434 0.5124942
000210 4a b1 9d bc ac 7a 89 bd e1 bb 01 bc bc 64 a2 3b
       -0.019249577 -0.06712851 -0.007918329 0.004955856
000220 55 54 1c 3e 37 8e 0e 3d 5d d3 25 be 35 e6 37 bd
       0.15266545 0.034803595 -0.1619391 -0.044897277
000230 3f f1 32 be 03 5c e0 bd 4a f1 1b 3e 7b ad 04 be
       -0.1747484 -0.1095505 0.15228763 -0.12956803
000240 79 4e 30 3d 05 15 c1 bd fc b2 a7 bc 4e 76 9f 3c
       0.043043587 -0.09427837 -0.020471089 0.019465592
000250 b6 77 01 3d 57 af 28 3d 2a 4f 99 3d 7c 59 90 3d
       0.031608306 0.041182842 0.074858025 0.07048318
000260 53 ee 62 be 53 3a f7 be 3b f4 fd bc dc 6e 0c be
       -0.22161226 -0.48286685 -0.031000247 -0.13714164
000270 e8 b2 91 bd 78 f8 09 bd ed 36 78 3d ee e7 bb bd
       -0.07114202 -0.033684224 0.060599256 -0.091750965
000280 fa f4 14 3b 38 8a 05 bc 28 8e e0 3c bf b7 fd bd
       0.0022729025 -0.00815063 0.027411535 -0.123885624
000290 7e 4c 57 3e 9a a1 3e 3d f1 b3 20 3e 5a 51 5f bc
       0.21025273 0.046540834 0.15693642 -0.013630236
0002a0 d7 74 70 3b bc 73 96 bd 42 b3 63 bd 62 63 c1 3d
       0.0036690736 -0.07346293 -0.055590875 0.09442784
0002b0 46 cf 8d 3d 3d c5 04 bf 6e 61 8b 3d e7 b0 7f bd
       0.069243 -0.5186346 0.068056926 -0.062424567
0002c0 71 8d 91 bb e9 4d c1 bb 9d 70 9c 3b 4b a0 74 bd
       -0.00444191 -0.00589918 0.0047741667 -0.05972318
0002d0 f4 ec b5 3c 9c 21 91 3c 59 f6 4b bc f5 53 6b bd
       0.022207715 0.017716222 -0.012448871 -0.057453115
0002e0 bf c9 50 bc 4a e3 85 bd 95 64 15 be 39 94 8c 3d
       -0.0127434125 -0.065374926 -0.1458915 0.06864209
0002f0 43 b3 e5 bb 24 15 8d 3c 50 3c ab bd 19 d5 b5 bb
       -0.007009895 0.017221995 -0.08361113 -0.005549085
000300 76 9f c2 bc c5 44 29 bd cc 14 b9 3c 08 34 28 3e
       -0.023757678 -0.04132535 0.022592925 0.16426098
000310 8d 4d 87 bb bb ad 94 bc 7a 60 8b be 9d df 92 bc
       -0.004129118 -0.018149247 -0.27222043 -0.017928893
000320 ef e1 53 3c 6c 69 a7 bb 39 84 26 bd a8 73 42 3b
       0.012932285 -0.005109003 -0.04065344 0.0029670987
000330 6f 09 9d 3e 3c 56 0f 3d b4 12 fa bc 29 2a 08 3d
       0.3067126 0.03499435 -0.030526496 0.033243332
000340 b6 41 6c 3e 51 eb 23 be 86 67 b0 3d 0b a0 2d 3d
       0.23071942 -0.16007735 0.086134955 0.042388957
000350 cb 9e d6 bd 9a 75 03 bc d3 b5 1d bd a2 c6 93 3c
       -0.10479506 -0.008023644 -0.03850348 0.018039051
000360 43 5b a1 3d a1 f1 57 3d e2 db 8e bd 14 94 4e 3c
       0.07878735 0.05272067 -0.06975533 0.012608547
000370 ea 39 47 be a1 a9 81 3d df 4e 25 be 01 e7 70 3c
       -0.19455686 0.06331182 -0.16143368 0.014703513
000380 1c 8b e0 3d 4c 71 12 bd 59 26 8f bb 55 13 a1 be
       0.10964033 -0.03575258 -0.004368585 -0.31460062
000390 06 59 49 be 09 77 64 3d d4 d1 a0 3c a8 2e 2d 3d
       -0.19662866 0.055777583 0.019631304 0.042280823
0003a0 63 2a a0 bc e5 f3 27 be 24 1c a8 3e 79 7e 53 3e
       -0.019551462 -0.16401632 0.3283397 0.20653714
0003b0 31 47 1d be cf 35 13 bd 7c 71 9b 3c 74 f8 aa bd
       -0.15359189 -0.035939988 0.018975012 -0.0834817
0003c0 c4 b7 09 be 2c a7 9e 3d 6f 01 0c 3e 11 8c 84 3c
       -0.13449007 0.07746729 0.13672422 0.01618007
0003d0 57 7d df 3c b3 25 dd bc 6a 32 89 bc e9 f9 15 3e
       0.027281446 -0.026995515 -0.016747672 0.14646114
0003e0 8b b2 6f 3b 32 a9 88 bc b3 26 0b bd 3a 0b ad 3a
       0.0036574926 -0.016682241 -0.033972453 0.0013202198
0003f0 2a 68 3e bd 72 5d 68 be 7f ba 3d 3e a1 ef 1d bd
       -0.046486057 -0.22691897 0.18528174 -0.038558606

encoder.4.bias f4 [4]
000000 37 65 b8 bd c4 ec 13 3e 03 b4 55 c0 ca 01 41 c0
       -0.0900368 0.14445788 -3.339112 -3.0157342

decoder.0.weight f4 [128, 2]
000000 35 19 34 bf 92 63 51 3e de cc e1 3d aa d4 ad bd
       -0.7035096 0.2044814 0.110254034 -0.08487828
000010 5b 8e 49 3e 74 f5 a4 3c 9a f8 8b bd 74 50 3d be
       0.1968321 0.020136572 -0.06834526 -0.18487722
000020 c4 6f a1 3e 2e f1 8e 3e 74 34 7a bf 69 03 c5 be
       0.31530583 0.2791838 -0.9773629 -0.38479164
000030 6d 98 9f 3e 66 2f 3e 3f 93 75 88 bb b0 6b ea bd
       0.3117098 0.74291074 -0.0041644066 -0.11446321
000040 dd da a6 3e d0 b9 c9 be 71 5a 8a 3c 1c 15 fd bc
       0.32588854 -0.39399576 0.016888829 -0.030893855
000050 78 68 87 bb f8 08 de 3c f7 d1 85 3f c7 c8 54 3e
       -0.0041323267 0.027103886 1.0454701 0.20779715
000060 a0 b0 5d bd 8c bf 9c bb 99 30 a9 3d 43 23 de 3e
       -0.05412352 -0.0047835764 0.082612224 0.43386278
000070 84 95 4e 3f c2 dc 6d bf 53 5c 10 3c 93 bf 94 3d
       0.8069689 -0.92914975 0.008811074 0.072631024
000080 d7 fe bc 3b bd 5b ef 3b 14 17 a6 3d 28 bc 72 bf
       0.005767684 0.007304637 0.081098706 -0.94818354
000090 24 fa b9 b9 9c 20 53 3d fe 8f 63 3e f4 e1 99 3e
       -0.0003547232 0.05154477 0.22222897 0.300552
0000a0 ce f9 1a 3c eb 41 cd b8 07 23 1c 3e 37 38 10 3f
       0.009458972 -9.78744e-05 0.15247737 0.5633578
0000b0 b9 ea f0 ba b9 02 51 bb 4c 9b ad bc ed e7 d4 3b
       -0.00183805 -0.0031892492 -0.021192215 0.0064973743
0000c0 59 be 18 bf 2f 19 32 bd c4 44 d8 be 6c 8d 1f 3f
       -0.5966545 -0.04348105 -0.42239964 0.6232517
0000d0 63 16 6a bf 41 6c 17 be ee 43 dc 3d 61 4b 08 bf
       -0.9144041 -0.1478739 0.10755144 -0.5324002
0000e0 5a 98 4a 3b fd 47 10 bc ac 6a 51 3d cb ee 85 be
       0.0030913563 -0.008806226 0.05112712 -0.26158747
0000f0 e1 ee 14 bf 79 20 21 bf fb 90 67 3e f6 c8 67 3e
       -0.58177 -0.62940174 0.226139 0.22635254
000100 6c d1 2c 3f f3 74 9f 3d 4a cf 6f bd 3b d5 c2 3b
       0.6750705 0.07785978 -0.058547296 0.005945829
000110 f8 c0 0f bf 27 48 87 3e 4c 78 03 3e 63 74 c0 bc
       -0.5615382 0.26422235 0.12838858 -0.023492998
000120 a8 d5 80 3c 8d ac ac 3e 12 c7 54 3c df c0 24 bd
       0.01572688 0.33725396 0.012986915 -0.040223
000130 11 28 34 be 03 6a eb be 26 a1 50 3f 1f 45 0f 3f
       -0.17593409 -0.45979318 0.81495893 0.55964845
000140 7c e4 ef 3b 5a b5 25 3a 92 d3 eb 38 16 d5 87 3c
       0.0073209386 0.0006321274 0.00011245081 0.0165811
000150 d1 15 1b bf d0 7e 16 3f 18 2c a1 3a dd 77 8e 3b
       -0.60580164 0.5878725 0.0012296466 0.004347785
000160 8b 70 30 3d d2 1d 15 bf 15 39 d8 3e c2 89 e6 3e
       0.04307608 -0.5824863 0.4223105 0.45026976
000170 f4 ad f4 3e fe ed 06 3f 30 d1 67 bb 24 14 5e b9
       0.47788966 0.527069 -0.0035372488 -0.00021179073
000180 ee 47 00 3f 1e 68 71 3f 7e 38 09 bd b0 be db 3c
       0.50109756 0.94299495 -0.03350114 0.026824325
000190 f0 4f b1 3e c7 ed 22 be bf b1 f2 be 5e 1d 9b 3f
       0.346313 -0.15911017 -0.47401235 1.2118337
0001a0 f4 69 2e 3f 15 32 2e be f8 fa 2f bd b1 e0 c3 bc
       0.6813042 -0.17011292 -0.04296395 -0.023910852
0001b0 e7 f9 62 bd cc 1b fb 3e 5e ff f7 3b b7 55 8a 3c
       -0.055414107 0.49044645 0.007568284 0.016886575
0001c0 00 db 40 3d 55 01 5f 3d 52 93 84 bf 99 31 8d 3e
       0.047083855 0.05444463 -1.0357459 0.27576903
0001d0 43 2c 90 3b 7f 85 7d bc 1e a1 f7 3b 65 0f 03 3c
       0.0043998077 -0.0154737225 0.0075570485 0.007999276
0001e0 e9 ae 85 be d3 d6 66 bd 5a 72 66 3f f6 19 7f 3f
       -0.26110008 -0.056357216 0.90018237 0.9964899
0001f0 c7 e7 4b 3c 0c 95 f0 3a c9 f2 ef 3e 2b 3b 82 be
       0.012445397 0.0018354966 0.46864918 -0.25435767
000200 07 8d 2c bb 79 b9 58 bc 2f ff 22 bf 7b a4 09 3f
       -0.0026329176 -0.013227814 -0.6367063 0.537666
000210 f5 1a 20 3f 89 65 a5 3e d4 76 5a 3a 9d 94 37 bc
       0.62541133 0.32304028 0.0008333747 -0.011204866
000220 4e fc 30 bf 74 a2 4f 3e 47 c1 0a bf 22 58 47 3f
       -0.69134986 0.20276815 -0.5420117 0.77868855
000230 9e 4b 24 be 84 c3 2f 3f b0 56 4d bf d4 54 f8 be
       -0.1604447 0.6865771 -0.802104 -0.4850222
000240 42 35 21 3d 47 96 8c 3b a1 3f ae 3e 15 da d3 3e
       0.03935743 0.0042903754 0.3403292 0.4137732
000250 c8 e4 47 be 07 0e 12 3f a7 ad ae 3d 07 29 a6 be
       -0.19520867 0.57052654 0.08529215 -0.32453176
000260 46 ec 81 3f d9 20 0a be 7c 5e 48 3f 56 04 98 be
       1.015023 -0.13489093 0.7826917 -0.29690808
000270 b6 6c 0f bf 3e 32 2b 3f 93 14 0b 3e 30 b3 b7 bc
       -0.56025255 0.6687354 0.13582067 -0.02242431
000280 c5 ef 4e 3e f8 ce 06 bf 82 3a 19 3e 9e 69 e3 3c
       0.20208652 -0.5265956 0.14963725 0.027760323
000290 f4 f8 e6 3d 91 ca 5c bd 66 4b 37 3e f9 0b 90 3f
       0.11277953 -0.05390412 0.17899856 1.1253654
0002a0 fe 25 6e 3e 3a bb c8 3e 86 95 8e 3f 70 5b 80 3d
       0.2325668 0.39205343 1.1139381 0.0626744
0002b0 e6 32 90 be 44 ad 26 bb 88 a4 e2 bd f9 1f 05 be
       -0.28163832 -0.0025432864 -0.11066538 -0.13000478
0002c0 14 68 85 3d d0 d9 0a 3f 92 4b d7 3d c4 92 b7 be
       0.06513992 0.54238605 0.10512461 -0.3585416
0002d0 7b 94 51 bc ee 02 18 3f 16 49 19 3f ca 13 7c bf
       -0.012791748 0.5937947 0.59877145 -0.98467696
0002e0 e9 e7 52 3d ba 43 1a 3c 61 56 87 38 28 3e 96 bb
       0.051490698 0.009415561 6.453391e-05 -0.0045850463
0002f0 4b 84 9f be 39 b6 3c 3d ef 8d a2 bc 6b ca e8 bd
       -0.3115562 0.04607222 -0.01984307 -0.11366733
000300 fd 24 bf 3e 21 15 55 bb 6d 7f 4b bf 0c c7 6f 3d
       0.37332907 -0.0032513815 -0.7949131 0.058539435
000310 51 41 27 3f 5c 18 29 be 31 f0 0d bf 29 db 61 be
       0.6533404 -0.16513199 -0.5544463 -0.22056259
000320 a8 a9 1b 3f 4d 05 fc 3e 7a 09 0d 3f ea 35 ae bd
       0.6080575 0.49222794 0.55092585 -0.08506377
000330 3d b1 5a 3f cf 65 89 3e 0e 5e f1 3c 4b 54 20 3c
       0.85426694 0.26835486 0.029463794 0.009785722
000340 39 be 19 37 b2 68 f6 bb 20 26 a0 bd 67 15 0c bd
       9.1638e-06 -0.007519805 -0.07819772 -0.0342001
000350 1e a4 2d 3f 92 d5 8f 3e b0 15 cf bc 71 74 bb 3f
       0.6782855 0.2809263 -0.025278896 1.464491
000360 b8 81 d8 3d 94 61 a3 3f 36 0e eb 3c e7 ff a0 be
       0.10571617 1.2764153 0.0286933 -0.31445238
000370 2a 34 2b 3f 44 d1 b1 3f 03 8c 8c 3b 8a a3 b2 3b
       0.6687647 1.3891988 0.0042891516 0.0054516243
000380 73 80 91 3e 1d 40 7d bf 3a ec 48 3f 96 c4 03 3f
       0.2841831 -0.98925954 0.78485453 0.5147184
000390 ef 24 06 3d 9c 11 0f bb 68 9e 89 3d 48 7b 9d bd
       0.032750066 -0.0021830564 0.06719667 -0.0768953
0003a0 cb 34 55 3e 4a 35 c6 bd b0 61 b2 3e d1 5e d4 bd
       0.2082092 -0.09678133 0.34840155 -0.10369647
0003b0 3e 53 a7 ba 9d 66 ea bb 8b 15 de 3b e0 27 85 3c
       -0.0012765897 -0.0071533457 0.0067774705 0.016254365
0003c0 d9 70 2d bf 1b ed ea be 22 61 04 3e b6 1d 83 be
       -0.67750317 -0.45884022 0.12927678 -0.25608605
0003d0 fe b1 4a bf d8 30 a7 be 6f ba f0 3c 45 a4 47 3d
       -0.79177845 -0.32654452 0.029385773 0.048740644
0003e0 bb c3 be 3d a6 97 00 3e 24 ff 09 bf 85 f2 3e bf
       0.093146764 0.1255785 -0.5390494 -0.74588805
0003f0 f2 af f4 bd 52 52 28 bf 43 3f 9a be b8 40 4e 3e
       -0.119476214 -0.6575061 -0.3012639 0.20141876

decoder.0.bias f4 [128]
000000 ad 66 c3 be a8 7f c5 bd ff 02 25 3e e9 b1 e9 3d
       -0.38164273 -0.09643489 0.16114424 0.11410887
000010 fd 00 02 3e 5b 9e 97 bd 0b bb 74 be a2 72 1f 3e
       0.1269569 -0.07403251 -0.23899476 0.15571073
000020 07 46 1a be 75 b8 06 be 6a d9 94 bd 09 39 ea be
       -0.15065776 -0.13156302 -0.07268031 -0.4574664
000030 f0 5e 20 be 75 0e c2 3d 7a 79 1e bf c0 2d 12 bd
       -0.15661216 0.09475414 -0.6190411 -0.03568816
000040 91 a7 31 bd ac 5b a0 bf 0d a1 5b bc 9a 12 c2 3e
       -0.043372694 -1.2527976 -0.013405097 0.37904817
000050 4e 56 03 bd 1f 1d bc 3d 08 06 b7 bc 0a 04 ea bd
       -0.03206473 0.09185242 -0.022341743 -0.11426552
000060 fd 67 0b 3d 30 58 1b bc c5 1e 89 bf e2 8a b5 be
       0.034034718 -0.009481475 -1.0712515 -0.35457522
000070 44 8e 1c bd 17 d1 d8 bc 5c 9d f5 be ef 57 22 3d
       -0.038221613 -0.02646689 -0.47971618 0.03963464
000080 ad cb e8 3d 4d f7 c7 3c 3d 4b f3 3c 31 a8 0c be
       0.11366973 0.024409914 0.029698962 -0.13736035
000090 9f d7 e3 3d f6 a7 55 bd ba c9 69 be ca a1 8c be
       0.11125111 -0.052162133 -0.22830859 -0.27467185
0000a0 8f 56 2e bd 7a d5 a3 bd 2b 78 94 3c b7 20 19 bd
       -0.042563017 -0.07999702 0.018123707 -0.037384715
0000b0 c1 cd 71 bd 28 1f 57 bd 61 0e 28 be 1d d8 52 bd
       -0.059034113 -0.052519947 -0.16411735 -0.051475633
0000c0 27 d8 20 be 5b b1 4e bd 11 c6 76 3b a8 d9 64 be
       -0.15707456 -0.050462108 0.0037654678 -0.22348654
0000d0 43 cb d5 bf 40 90 98 3d ef 78 4b 3e c1 53 3a bd
       -1.6702656 0.074493885 0.19870351 -0.04549003
0000e0 37 49 17 3d 0f 58 9f bf 31 83 8e bd c6 8b b6 bd
       0.036935057 -1.2448748 -0.069586165 -0.089133784
0000f0 3e ac ab bd c0 bf 28 bf 9d f5 1e bd 1d e2 63 3d
       -0.08382462 -0.6591759 -0.038808454 0.05563556
000100 9c 24 89 bd f6 59 15 be f1 62 e7 3c 4e 23 37 bd
       -0.06696436 -0.14585099 0.028245421 -0.044711404
000110 f9 44 05 be 51 1a 31 be 42 67 66 be 88 17 a9 bf
       -0.13014592 -0.17295195 -0.22500327 -1.3210306
000120 a0 d6 33 bd 2a a3 76 3d 5b bf 55 bb 14 5a 59 3d
       -0.043905854 0.0602142 -0.0032615277 0.05306442
000130 47 5a 32 bf 39 7c 87 be ae e9 08 bf ec 73 82 bd
       -0.69669 -0.26461962 -0.53481567 -0.063697666
000140 c0 27 38 bd 47 6e 0d 3e 14 13 b9 3d 86 ea 1a be
       -0.044959784 0.13811599 0.09036842 -0.15128526
000150 99 40 71 3d 5c 4e 97 bf c4 ca 8a 3c 4f 2e 33 bd
       0.058899496 -1.1820788 0.01694239 -0.043745335
000160 8a 7e 12 3e 40 8d a4 3d 3a 38 e3 3c d8 d4 6e bf
       0.14306083 0.08034754 0.027736772 -0.93293524
000170 38 f7 1a be d8 f4 20 bd 46 3c ff bd e4 4a 17 3e
       -0.15133369 -0.039296 -0.12462668 0.14774662
000180 93 dd 05 3d 2f 9a cc bd e7 00 98 3d c2 ec dc be
       0.032682013 -0.09990346 0.07422047 -0.43149382
000190 3e 8d f5 bc 61 32 bf bd e2 09 c9 bd 93 52 03 bd
       -0.029974576 -0.09335781 -0.09816338 -0.03206117
0001a0 b3 88 08 bd ae bd 9b bd 44 5b 65 bf 6b 75 47 be
       -0.03333349 -0.07604538 -0.89592385 -0.19478385
0001b0 06 fb 8d bf 13 d7 05 bd 8b c9 6c bf 96 71 54 bd
       -1.1092231 -0.032675814 -0.9249503 -0.051866136
0001c0 09 b2 88 bf 34 ac 8f bd fc f4 d8 bc ee 92 2f 3d
       -1.0679332 -0.07015267 -0.026484005 0.042864732
0001d0 3e d5 e5 3d e0 ec 7a bc 68 52 4f bd 22 bf 28 bd
       0.11222313 -0.015315264 -0.050615698 -0.041197903
0001e0 4a 18 3f bf 1a a7 4d 3d d9 c5 ec bf d7 e4 35 bd
       -0.7464644 0.05020819 -1.8497878 -0.04440769
0001f0 ed 9c 8b 3d 4e 29 c3 bf 2b 42 16 bf f9 25 3a 3b
       0.068170406 -1.524698 -0.58694714 0.002840398

decoder.2.weight f4 [128, 128]
000000 9d 1d 3c be a0 53 29 be 9e 66 35 3d ed 04 b6 3d
       -0.18370672 -0.16535807 0.044287317 0.08887658
000010 b6 20 2a 3c 88 f0 4d 3e ac 01 de be aa ef 6d 3e
       0.010383775 0.20111287 -0.4336065 0.23235956
000020 d7 bb 54 3e 28 be 00 3e 89 81 0d be 3d 20 83 3d
       0.2077478 0.12572539 -0.13818945 0.06402633
000030 89 e8 b3 3d b8 47 33 be ff a4 13 bf b2 e2 56 be
       0.08784587 -0.17507827 -0.5767364 -0.20984915
000040 27 b5 ab bc 10 f1 8e c0 42 0c 4a 3b 34 c0 be bd
       -0.020960404 -4.4669266 0.003083006 -0.093140036
000050 c9 86 5a bd 69 93 64 bd 2f 9e 6c ba b5 46 f2 bc
       -0.053351197 -0.055804644 -0.0009026257 -0.029574731
000060 5e 11 07 3e 0f 45 4d be 0a de 18 bd 4c 94 88 bf
       0.13190219 -0.20045875 -0.037321128 -1.0670257
000070 12 3e 0f be 18 d2 c7 bf 20 28 7a be 56 d1 20 3d
       -0.13988522 -1.561099 -0.24429369 0.03926214
000080 b2 32 0f 3d 76 10 06 3e b4 4a 17 bb 00 6f 84 3c
       0.034960456 0.13092217 -0.0023085298 0.01616621
000090 fd 53 68 be 87 01 5a 3d d9 51 a6 be 2d cb 3b 3d
       -0.22688289 0.053224113 -0.3248432 0.04584806
0000a0 2f b7 88 bc 51 52 77 bb 33 b8 0e 3d 3b 28 9e 3d
       -0.016688911 -0.0037738273 0.034843635 0.07722517
0000b0 3a 37 04 c0 e3 be 56 bc 07 e4 fb bd 1f 50 bb 3c
       -2.0658708 -0.013107034 -0.12299352 0.022865353
0000c0 b2 02 62 be 95 e5 c2 3d 23 56 75 bd 7a 0b ce be
       -0.2207134 0.095164455 -0.0598966 -0.4024313
0000d0 65 29 fb 3f 79 ef d2 3d 7c b0 31 be 50 ab 49 3d
       1.9622008 0.10299582 -0.1735248 0.049235642
0000e0 ba e2 d1 bc 33 a3 34 bf b4 e0 17 be b3 5c 13 3e
       -0.025620807 -0.7056152 -0.14831811 0.1439083
0000f0 8a d4 51 3e 58 e7 87 3c 3a 30 11 3c 49 a7 1d bd
       0.20491233 0.016589805 0.008861596 -0.038489614
000100 b5 9b 1d be 63 46 4e be 72 02 2d 3d ff d1 a6 3c
       -0.15391429 -0.20144038 0.04223866 0.020363806
000110 0c e2 07 3e 3f 15 a4 be b1 83 ad be ca bf ec be
       0.13269824 -0.3204746 -0.33889535 -0.46240073
000120 37 f5 77 bd 2b 2f 02 3e f7 99 6d be 90 cb 91 3e
       -0.06053659 0.12713306 -0.23203264 0.28475618
000130 e4 c5 08 be 82 85 a2 3e 63 53 e6 be 4f 97 0b bc
       -0.1335674 0.31742483 -0.44985494 -0.0085199615
000140 dc 4d b0 be cf e8 16 3e 81 6b bb bd a6 db 14 bf
       -0.34434402 0.14737247 -0.09151364 -0.58147657
000150 fd 6d 9e bc 66 7a 9a 3f cf bd 0c 3d df 8c 83 3e
       -0.019339556 1.2068603 0.034360703 0.25693414
000160 19 26 6b be fc 0e 13 3e 5f eb 6b bf f3 50 b7 3d
       -0.22963752 0.14361185 -0.9215602 0.08950987
000170 82 61 01 be af 39 3d 3d 4c 3f ad 3b 29 69 fe 3c
       -0.12634853 0.04619759 0.0052870866 0.031056004
000180 0b e2 09 3e c9 3a dc 3d a6 10 c8 3d 4c 88 76 bd
       0.13465135 0.107534 0.097688004 -0.060188577
000190 ce 94 8a 3d 81 f4 b0 3d dc 9e 27 3d f5 a3 7d 3c
       0.067666635 0.086403854 0.040922984 0.015480985
0001a0 86 a8 d2 3d 27 68 79 3d c0 31 0c be 80 e4 8f be
       0.102860495 0.060890343 -0.13690853 -0.2810402
0001b0 4b d7 4d be dd c2 c8 bf f0 11 f5 bd c0 d4 af bc
       -0.20101659 -1.5684468 -0.11966312 -0.021463752
0001c0 fe 94 51 c0 50 d4 04 3e ce 5c ec 3b ef c5 86 3e
       -3.2747188 0.12971616 0.0072132116 0.26322886
0001d0 54 e5 2e 3d 10 0a 2c 3a 2e 2a 15 bb 9e 2c d6 3c
       0.042699173 0.0006562779 -0.0022760737 0.026144322
0001e0 31 3b 64 be e7 15 c5 bc 03 dd 53 3e 8a 5f 50 be
       -0.22288205 -0.024058295 0.20689778 -0.20348945
0001f0 22 8d fd ba d0 96 aa 3e b6 d3 ef 3e 5c b6 97 3d
       -0.0019344429 0.33318186 0.4684121 0.07407829
000200 62 cb 04 3e c6 83 87 be 64 df e4 bd 83 a8 67 be
       0.1296821 -0.26467723 -0.11175421 -0.22622876
000210 de 2b fd 3c 63 a0 9e bd 51 c5 30 3d 51 bd cc bd
       0.030904707 -0.07745435 0.043156926 -0.09997047
000220 cc 5b b6 be f4 93 59 be 35 b6 26 be db 2c 4e be
       -0.3561691 -0.21247846 -0.16280444 -0.20134299
000230 e5 b2 0b be 0f 7d a2 bd 45 98 e4 be 32 0b d1 bb
       -0.13642462 -0.07934009 -0.44647422 -0.0063795084
000240 fe cd 27 be 4a 31 f3 3d 85 2e 97 be fa 44 99 3d
       -0.16387174 0.118746355 -0.2952768 0.07483859
000250 73 b8 65 be 48 e7 d8 3c a3 2c f0 bd 67 b2 90 be
       -0.22433643 0.026477471 -0.11727264 -0.2826111
000260 cd e0 83 be d9 5d cf bf e6 af a4 3d fa 1a 25 bd
       -0.25757447 -1.6200515 0.080413625 -0.04030893
000270 70 87 d0 bd 8c 33 d1 bd 88 fa 5d 3d 7c 80 aa 3d
       -0.10182083 -0.1021491 0.054194003 0.08325288
000280 e7 58 67 bd d6 67 1e be 0b 52 50 be bf 4f a6 be
       -0.05648127 -0.15469298 -0.20343797 -0.32482716
000290 14 60 4c bd 87 75 7f be 80 b1 99 3d 9a 77 d2 bd
       -0.049896315 -0.24947177 0.075045586 -0.102767184
0002a0 c1 c7 cc bd 99 a6 bb bd ef 3b 97 bf 1b 60 93 be
       -0.099990375 -0.09162635 -1.1815165 -0.2878426
0002b0 74 03 ee bd 6e 39 24 be f3 e3 8e bd 27 cd 8f be
       -0.116217524 -0.16037533 -0.069770716 -0.28086206
0002c0 aa 54 8e bd 6b 31 03 be 29 f4 81 be 82 be 8f bf
       -0.06949742 -0.1281182 -0.25381592 -1.1230013
0002d0 73 a6 6c 3e 81 dc 83 be 25 79 55 3d bc f1 d5 be
       0.2311037 -0.2575417 0.052117486 -0.4178599
0002e0 f8 05 ca 3c ca f7 9d be 36 15 08 be 98 e7 90 3b
       0.02466105 -0.3085311 -0.13289341 0.0044221394
0002f0 7b 2b 18 bd 72 42 c8 be d7 b7 03 3e 26 17 b3 be
       -0.03715084 -0.39113194 0.12863098 -0.34978598
000300 6d 5a a7 bd 07 39 a9 bf 09 02 df 3c 81 82 2e be
       -0.08171544 -1.3220528 0.02722265 -0.17041971
000310 98 9d c0 3c 59 83 c7 bf 22 6b a3 be 78 1d 0b 3e
       0.023512647 -1.5586959 -0.31917673 0.1358546
000320 2a fa af 3c f8 91 21 bd 0f 28 34 bf 70 5b 1a be
       0.021481592 -0.039445847 -0.70373625 -0.15073943
000330 52 7a f2 3c 4b 27 d7 bd f1 41 82 bf b4 3e a1 bd
       0.029599342 -0.105055414 -1.0176374 -0.07873288
000340 11 70 6f be e5 af 62 3d e3 d4 09 be 2d 94 07 3e
       -0.23382594 0.055343527 -0.13460116 0.13240118
000350 1c 4b ad bd 89 e0 0c bd 40 4e 41 be a7 e9 ac bd
       -0.084615916 -0.03439382 -0.18877506 -0.08443003
000360 cb 85 2a 3d 14 85 43 be 77 c3 1c 3e 43 3f 37 bf
       0.0416315 -0.19093734 0.15308939 -0.71580905
000370 d0 fb fc bd b0 ec f9 bd c2 2b 64 bc 5e f4 24 be
       -0.12352717 -0.12203348 -0.013926448 -0.16108844
000380 d3 59 a3 bd 5c a9 ba bd 85 29 80 bd 95 d3 9d 3d
       -0.07976117 -0.09114334 -0.06257919 0.07706372
000390 30 0a 2a be fc d3 6f be 85 81 f3 bd 3b 82 36 be
       -0.16605449 -0.2342071 -0.11889938 -0.17823116
0003a0 4a da 31 be 7a 61 59 be 79 ae a3 3d 04 00 bb 3e
       -0.17368427 -0.2122859 0.079922624 0.3652345
0003b0 00 4c 25 bf 94 53 90 bd 9c b3 d7 be 6c 3a 07 3e
       -0.6456909 -0.07047191 -0.4212922 0.1320588
0003c0 bc 13 01 bf b6 47 8e bd a9 6b 99 bd 66 88 23 be
       -0.5042074 -0.069472715 -0.07491238 -0.1597
0003d0 12 3c bc be f2 1e 80 bd 6a 0e 88 be 94 f2 04 be
       -0.3676458 -0.06255902 -0.26573497 -0.12983161
0003e0 3e ce 0d 3e 68 a8 19 be c6 8b a8 3f bd c7 ad bd
       0.13848206 -0.15005648 1.3167655 -0.08485363
0003f0 cc e9 8a bd a2 10 19 3e 32 c9 5c 3d 7a 49 0e bf
       -0.067828745 0.14947751 0.053902812 -0.55580866

decoder.2.bias f4 [128]
000000 a1 f4 79 3e fc 6b 7d be 26 0d aa be 2f a6 91 be
       0.24409725 -0.24748224 -0.33213156 -0.284471
000010 20 f2 98 be ad e9 85 3d 78 5a 4a be 71 85 c4 bb
       -0.29872227 0.06538711 -0.19761074 -0.005997353
000020 68 ff a1 be 3b 16 33 bd a4 2f d8 3c 0a b5 9d be
       -0.31640172 -0.043722373 0.026389904 -0.30802184
000030 ef 1c 82 3e 78 2f b9 bb 41 3e 8f be cb d1 5a be
       0.254127 -0.0056514107 -0.27977183 -0.21369092
000040 cc 5c a6 be e9 48 3e 3e 52 4a 7b 3e d8 b4 0e be
       -0.32492673 0.185825 0.2454007 -0.13936174
000050 b7 bc df be 9f cd d2 bd 13 6c 98 be 8d b7 d7 be
       -0.43698665 -0.10293125 -0.29769954 -0.42132226
000060 59 e9 c0 bc 49 22 27 be c5 a2 be 3e 12 c3 c7 be
       -0.023548769 -0.16321672 0.37233558 -0.39016014
000070 f3 0b 39 3d 69 a4 9c 3e d6 a1 af be 2d 69 d9 bd
       0.04517741 0.30594185 -0.3430316 -0.10615764
000080 6e 1f bc be 6a b0 ad be ad 9b cf be 1d 33 a5 bd
       -0.3674273 -0.33923656 -0.4054846 -0.0806639
000090 1e 11 ea 3d 39 50 61 3d 6f 30 c7 bd da 2d 6e be
       0.11429046 0.055008147 -0.09726035 -0.23259678
0000a0 35 36 33 3e 89 5f bd 3e c6 6e 93 3e 3f 03 0c be
       0.17501147 0.3698695 0.2879545 -0.13673113
0000b0 6c c3 93 3e 64 c4 20 be f9 3b c3 bd 89 52 70 be
       0.28860033 -0.15699917 -0.09532923 -0.23468985
0000c0 ac 67 8f bd 75 1d 75 3e 4b 27 81 be d2 b3 2d 3e
       -0.07002196 0.23937018 -0.2522529 0.16963127
0000d0 dc 35 75 be f0 c3 5c 3e 75 e8 c8 bb 7c 49 d1 ba
       -0.23946327 0.21559119 -0.0061312267 -0.0015967335
0000e0 e2 ff e2 3d e5 d7 04 be 3e 4a 3a 3d 1a 82 1a 3e
       0.11083962 -0.12972982 0.04548096 0.15088692
0000f0 e9 3e 45 be c2 c0 b6 3e 88 0e 4e 3c a0 b0 fc bc
       -0.1926228 0.35693938 0.012576707 -0.03084594
000100 46 92 0a bd 17 11 a1 be d4 c2 f4 3e 87 44 21 be
       -0.033830903 -0.3145835 0.47804892 -0.15748797
000110 ed b9 c9 3d 64 5b 8f bd 88 2d 6f be 3a 7d 30 bc
       0.09849916 -0.06999853 -0.23357213 -0.010772044
000120 9c c5 af bd bd 82 e0 3e 84 1b 56 be 47 2d 02 3f
       -0.08582613 0.43849745 -0.20908934 0.5085034
000130 46 48 68 3e 13 8f 5c 3d 83 37 c4 be 52 9e d4 be
       0.2268382 0.053847384 -0.38323602 -0.4152704
000140 cb ef 8b bc 3a 31 b7 3e e5 9c 3d 3e 6a 7d 9b bd
       -0.017082116 0.35779744 0.18516882 -0.0759228
000150 27 c3 dd 3e 8a ae 6f 3e 03 30 b5 be b9 bd 35 bf
       0.43312952 0.23406425 -0.35388193 -0.7099262
000160 e8 1f 0b 3f 7e 01 ae bd 60 07 b5 be 95 bf f5 3c
       0.5434556 -0.08496378 -0.3535719 0.02999858
000170 26 7b 11 be 86 df 8f 3e 15 58 a8 bd 05 22 dd be
       -0.14207134 0.28100222 -0.08219925 -0.43190017
000180 c3 01 a2 be 0f 64 42 be ba 12 5a be 68 d8 95 be
       -0.3164197 -0.18983482 -0.21296206 -0.29266667
000190 8b 48 92 3e 99 fd 56 3d cd d0 95 be 52 04 60 3d
       0.2857097 0.052487943 -0.29260865 0.05469162
0001a0 a2 12 18 be ad d0 f9 be 1c d4 0a be 48 7c a8 bd
       -0.14850858 -0.4879202 -0.13557476 -0.0822683
0001b0 94 be 9a be ca 9b 78 bd 18 f2 71 3e ff 54 e4 be
       -0.30223525 -0.060695447 0.23627508 -0.44596097
0001c0 44 d2 ab be bd c5 9d 3c ac cc 83 3e c3 32 79 be
       -0.33558857 0.019259328 0.2574209 -0.2433577
0001d0 72 29 59 bd 2e 92 ca 3e 3f ef e2 be 0f e6 99 be
       -0.05301804 0.3956465 -0.44323155 -0.30058333
0001e0 ac 51 13 3e 0c b7 24 3f eb 54 d2 3e 87 77 01 3f
       0.14386624 0.6434181 0.41080412 0.5057301
0001f0 8e 13 7d be 43 a7 57 bf f9 05 22 3e 6e ff 65 be
       -0.24714491 -0.84239596 0.15822591 -0.2246072
