data/VesselSimulator/lstm_model.pth (torch, 851440 bytes, 10 tensors)

lstm.weight_ih_l0 f4 [512, 22]
-0.079210065 0.05831338 0.035959195 -0.049972832 0.005682808 -0.041543107 2.578753e-05 -0.035283443
0.05942287 0.025703533 -0.040471207 -0.06675394 -0.07393901 -0.017308882 0.08257258 0.07286165
0.055327788 -0.04821915 0.056315698 0.077950746 -0.0039022905 0.08926494 0.05938431 -0.055325452
-0.060709104 0.05843559 0.0071986923 0.015414359 0.028303465 0.009317352 0.0968006 0.07751692
-0.049238816 0.07795381 0.04344709 -0.04463569 -0.014753209 -0.026289158 0.0033743912 0.09429991
0.06465944 -0.019133817 -0.064287305 -0.049625963 -0.04476474 0.07680476 0.06947407 0.08480277
-0.026758762 0.04130519 -0.060711388 -0.00940124 -0.06745296 -0.053532615 -0.057710633 0.011057387
0.09011492 -0.0602338 0.0011708188 0.03450933 0.05237576 -0.0051730713 -0.085855216 0.06534643
0.07629561 0.05000658 0.049563766 -0.010477632 0.07470294 0.022073213 0.0024828585 0.056876116
0.090631224 -0.025702316 0.034173224 -0.0333211 -0.07722347 -0.032589264 0.07403544 -0.036736604
0.027334394 -0.060656916 -0.042328093 0.072475515 0.053574357 -0.08152426 -0.057445515 0.051761493
-0.0163242 -0.073424615 0.094854735 0.0847029 0.08231834 0.00045367476 -0.07384544 0.08417245
0.014571255 -0.001026874 -0.06249298 0.071349844 0.0021985334 -0.026884349 0.054547608 0.005751515
-0.07507696 -0.041524563 -0.049928803 0.06192909 0.02833781 -0.05026122 0.08270801 0.011988423
0.08211723 0.015241093 -0.048862986 -0.049035788 0.026288211 -0.02435325 -0.056453582 -0.006006355
-0.0545567 0.0828461 0.053724084 -0.027308565 -0.030339466 0.08945242 0.020472046 0.04547361
0.0074633467 -0.07333904 0.0758484 -0.002941614 -0.02281911 -0.03160408 -0.04225542 0.0925121
-0.048733927 -0.03573823 -0.040076144 -0.03698624 0.07914789 -0.036029633 -0.023158804 0.025196942
0.054867513 -0.078142755 0.07455301 -0.025134625 -0.037449334 -0.060611792 -0.04757575 0.07939937
-0.07103667 -0.046680797 0.0036216148 -0.0071194624 -0.056715082 0.04918511 -0.03443124 -0.010638951
0.052992627 0.07150105 0.005356448 -0.010666563 0.07078172 -7.3674775e-05 -0.023756042 0.055383515
0.089232385 0.012435019 -0.008892083 0.07084384 0.0057525914 -0.08048459 -0.046809673 -0.06665379
0.009158543 0.04984461 -0.07135873 -0.04154083 0.08056428 0.058205195 -0.069971606 -0.028008645
0.069415525 0.0027476295 -0.05029964 0.01330522 0.034867305 -0.061830234 0.025855351 0.037184153
-0.07357237 -0.08297366 -0.07576706 0.05439157 0.01567795 0.03425013 0.00013897535 0.066651076
0.0017930666 0.09181708 -0.049346913 0.048853874 -0.060940985 0.023284184 0.058599778 0.0933695
0.085565105 -0.015777776 -0.065276764 0.089737445 -0.06156237 0.061433315 0.079702355 -0.042113714
0.022087172 -0.06631875 0.004632936 0.024591504 0.04402294 -0.06708227 -0.003576734 0.055603065
-0.012220952 0.05104209 0.015334272 -0.06486543 0.004891681 -0.010263508 0.009816375 0.04612441
-0.07289273 0.05272508 -0.034271434 0.060990058 -0.0040969574 -0.001619761 0.004855931 -0.05373959
-0.060640696 -0.086245656 0.09252616 -0.009820539 -0.005322231 0.040445197 0.03841838 -0.059188496
0.09276837 0.032774232 0.06754863 0.03279212 0.044081785 -0.07273913 -0.051899698 -0.011240957
00000000: e338 a2bd 03da 6e3d f349 133d 50b0 4cbd
00000010: d936 ba3b 1b29 2abd 4d52 d837 5f85 10bd
00000020: 6565 733d 3790 d23c 23c5 25bd 4ab6 88bd
00000030: 566d 97bd 5bcb 8dbc d01b a93d 7d38 953d
00000040: 649f 623d 7281 45bd 4aab 663d a4a4 9f3d
00000050: 92bd 7fbb 89d0 b63d f63c 733d f19c 62bd
00000060: 1caa 78bd 285a 6f3d 02e3 eb3b 828c 7c3c
00000070: abdc e73c cfa7 183c 653f c63d 31c1 9e3d
00000080: a4ae 49bd 3fa6 9f3d 93f5 313d ead3 36bd
00000090: 72b7 71bc 5c5c d7bc e424 5d3b 5020 c13d
000000a0: 2b6c 843d 86be 9cbc 10a9 83bd 9844 4bbd
000000b0: 3b5b 37bd d04b 9d3d 6c48 8e3d 13ad ad3d
000000c0: 3135 dbbc a22f 293d 81ac 78bd a907 1abc
000000d0: c724 8abd 0445 5bbd fc61 6cbd 0b2a 353c
000000e0: 2c8e b83d b8b7 76bd 2976 993a a859 0d3d
000000f0: f787 563d de82 a9bb dcd4 afbd 59d4 853d
00000100: df40 9c3d b3d3 4c3d 6003 4b3d 60aa 2bbc
00000110: dbfd 983d e2d2 b43c 74b7 223b eef6 683d
00000120: dd9c b93d aa8d d2bc 39f9 0b3d b57b 08bd
00000130: 5727 9ebd 527c 05bd e59f 973d 1f79 16bd
00000140: 61ec df3c 6373 78bd 3960 2dbd 0b6e 943d
00000150: c970 5b3d 31f6 a6bd fd4b 6bbd dc03 543d
00000160: 54ba 85bc a55f 96bd 3343 c23d b778 ad3d
00000170: 8596 a83d 32db ed39 473c 97bd 9b62 ac3d
00000180: 46bc 6e3c 2c98 86ba a4f8 7fbd de1f 923d
00000190: 4515 103b 913c dcbc 506d 5f3d 3477 bc3b
000001a0: f3c1 99bd a915 2abd 2582 4cbd 5ca9 7d3d
000001b0: b224 e83c b6de 4dbd d162 a93d 176b 443c
000001c0: 142d a83d c7b5 793c 8e24 48bd c0d9 48bd
000001d0: 605a d73c 7880 c7bc df3b 67bd f5d0 c4bb
000001e0: d976 5fbd 37ab a93d c90d 5c3d 36b6 dfbc
000001f0: 798a f8bc d532 b73d feb4 a73c 8942 3a3d
00000200: 178f f43b c732 96bd 6856 9b3d 18c8 40bb
00000210: 24ef babc 4873 01bd 0514 2dbd fc76 bd3d
00000220: 3a9d 47bd 4062 12bd e226 24bd e27e 17bd
00000230: 4a18 a23d cf93 13bd 88b7 bdbc d169 ce3c
00000240: c2bc 603d 4f09 a0bd 40af 983d 21e7 cdbc
00000250: 7964 19bd 1244 78bd cade 42bd 239c a23d
00000260: ac7b 91bd 5d34 3fbd 9d58 6d3b 614a e9bb
00000270: 134e 68bd 5376 493d c607 0dbd ff4e 2ebc
00000280: cc0e 593d 246f 923d 2485 af3b cfc2 2ebc
00000290: 02f6 903d d881 9ab8 089c c2bc d3d9 623d
000002a0: 78bf b63d 40bc 4b3c 19b0 11bc 9316 913d
000002b0: 3c80 bc3b 1bd5 a4bd 80bb 3fbd c881 88bd
000002c0: b70d 163c dd29 4c3d 8724 92bd b826 2abd
000002d0: e3fe a43d 9268 6e3d 464d 8fbd 6372 e5bc
000002e0: ba29 8e3d 9311 343b ff06 4ebd 23fe 593c
000002f0: 05d1 0e3d b341 7dbd 9ace d33c 694e 183d
00000300: 1cad 96bd 18ee a9bd c32b 9bbd b2c9 5e3d
00000310: 0b6f 803c dd49 0c3d e9b9 1139 5c80 883d
00000320: 5505 eb3a 980a bc3d fd1f 4abd 001b 483d
00000330: 419d 79bd 79be be3c 5206 703d 8238 bf3d
00000340: c23c af3d 6540 81bc d3af 85bd 44c8 b73d
00000350: d328 7cbd 80a1 7b3d fd3a a33d 6e7f 2cbd
00000360: 28f0 b43c 20d2 87bd e2cf 973b 1f74 c93c
00000370: 6651 343d 6e62 89bd a467 6abb 0ac0 633d
00000380: 633a 48bc 8311 513d 993c 7b3c 2bd8 84bd
00000390: 654a a03b 4628 28bc dcd4 203c f3ec 3c3d
000003a0: c948 95bd 41f6 573d 3460 0cbd b6d0 793d
000003b0: c53f 86bb 294e d4ba 801e 9f3b 0b1e 5cbd
000003c0: 6162 78bd 90a1 b0bd 5b7e bd3d 53e6 20bc
000003d0: 1c66 aebb dda9 253d 975c 1d3d a36f 72bd
000003e0: 58fd bd3d 463e 063d f056 8a3d 0851 063d
000003f0: 1a8f 343d 41f8 94bd c794 54bd fe2b 38bc

lstm.weight_hh_l0 f4 [512, 128]
0.008304984 -0.07657676 -0.05080688 0.048391096 -0.049787156 0.067656755 0.032795288 0.028926577
-0.0046247244 0.068307765 0.08264371 0.01149733 0.018312521 0.010369384 0.019483175 0.084435135
0.016997414 0.00722844 0.027002567 0.020868134 0.07314774 -0.07130532 -0.05742272 0.07375236
0.08772011 0.08593639 -0.027475266 -0.07824385 -0.0067121126 0.016447488 0.0050393487 -0.0424871
-0.030809354 -0.045436483 -0.07783646 -0.018361788 -0.04770304 0.046952803 -0.07400647 0.04662329
0.033844568 -0.021900475 0.020316541 -0.011414153 -0.08551235 0.029533863 0.015223721 0.022869773
0.026273062 -0.043824688 0.009297739 0.022447681 0.062110785 0.057423804 0.056205887 0.0526773
-0.02060004 0.03597742 -0.058687355 0.086197056 -0.038979642 0.05700046 -0.06295834 -0.07969602
0.008766325 -0.002724656 0.042037256 0.028144272 -0.0062832967 0.008254654 0.028318161 -0.0032653937
0.06505377 -0.06991136 0.053105716 0.07022675 0.045682244 -0.024335874 0.067110114 0.073813386
0.02629291 -0.0056179985 -0.049251776 -0.07918999 -0.03240777 -0.0060271393 -0.050511543 -0.021431778
-0.062055457 -0.08142069 0.08077351 -0.07652101 0.045455556 0.061926823 0.02699202 -0.04690896
-0.059117176 -0.067940064 -0.02517185 0.07768242 0.045668352 0.061526004 -0.00500173 -0.02599516
-0.07742821 -0.014314329 0.05050875 -0.0052762832 -0.006262878 -0.049212873 -0.022571629 0.06729228
-0.044249967 -0.049125828 0.06368674 -0.07025105 -0.032742184 0.0021133802 -0.07437884 0.03914746
-0.047504812 -0.05274007 0.019625967 0.031360876 -0.019830812 0.07198685 0.029997746 0.026022838
-0.022652162 0.07838966 -0.06136488 0.06567375 0.026939645 0.033873674 0.008041073 -0.082151994
-0.08099325 -0.029269915 0.011024815 0.053066403 0.056891486 -0.021024581 0.007733468 -0.0067742504
0.06293694 0.08186067 0.008513629 0.038301602 -0.030074086 -0.08138888 0.04437475 0.081839345
0.006732374 0.06856054 -0.061475556 0.07955843 0.011354095 0.048535682 0.022919001 0.0325366
0.0030333246 0.060460538 -0.024473323 0.04606976 -0.052418754 0.016635578 0.046257686 0.037784234
0.023573484 -0.047156967 0.082083516 -0.046319686 -0.07294129 -0.06449318 0.087240785 0.06375434
-0.05669642 -0.027866878 -0.06937502 -0.025090313 0.05701213 0.029020814 0.08834311 -0.07961725
-0.07634168 0.0063070026 -0.05396783 0.01824197 -0.010504565 0.054650944 -0.07121199 0.029676782
0.044642925 -0.08371561 0.030756263 0.004648288 0.008785009 0.08606419 0.075421296 -0.057962444
0.033860322 -0.03207812 0.004366442 -0.06759289 -0.07791159 0.07566093 -0.08515293 -0.050733045
0.014550243 -0.028564902 -0.08275524 0.05302058 0.021819886 0.063276246 -0.034094922 -0.061960902
0.051655114 0.006478053 -0.009135668 -0.07601383 -0.046125583 -0.08575507 -0.08247738 0.018470153
-0.07142497 -0.04951603 -0.0010311689 0.0064566564 0.015746288 0.0010706414 0.07186364 -0.026857493
0.016313901 0.04918095 0.0031616993 0.05923211 -0.007209479 -0.02221231 0.055112798 -0.014831646
0.03362055 0.0099230595 -0.051516507 -0.030574951 -0.0015332565 -0.020385008 0.04667 0.014716069
0.060971137 0.006370257 -0.04017136 -0.02636339 0.059401955 -0.043108046 0.081128694 0.003303792
00000000: a111 083c 47d4 9cbd e01a 50bd be35 463d
00000010: 9eed 4bbd a08f 8a3d 5a54 063d 6ef7 ec3c
00000020: 008b 97bb f1e4 8b3d 1b41 a93d 4c5f 3c3c
00000030: 2404 963c 59e4 293c 2e9b 9f3c 54ec ac3d
00000040: 293e 8b3c 8ddc ec3b 7d34 dd3c a6f3 aa3c
00000050: 7bce 953d 8608 92bd 1634 6bbd 7a0b 973d
00000060: 9aa6 b33d 6bff af3d cf13 e1bc 503e a0bd
00000070: 48f1 dbbb e2bc 863c 1f21 a53b f406 2ebd
00000080: e663 fcbc 9b1b 3abd b968 9fbd 766b 96bc
00000090: 4364 43bd 9551 403d b490 97bd 10f8 3e3d
000000a0: 9aa0 0a3d a068 b3bc e06e a63c 6d02 3bbc
000000b0: 1921 afbd 00f1 f13c ea6c 793c 6459 bb3c
000000c0: 9b3a d73c 8481 33bd 8b55 183c 33e4 b73c
000000d0: e167 7e3d 3935 6b3d 2538 663d 27c4 573d
000000e0: 6ac1 a8bc 0f5d 133d 2762 70bd 1588 b03d
000000f0: 1ea9 1fbd 5079 693d 4df0 80bd ab37 a3bd
00000100: a2a0 0f3c 2490 32bb 422f 2c3d d18e e63c
00000110: 1de4 cdbb 873e 073c 7dfb e73c 3700 56bb
00000120: e93a 853d b02d 8fbd 6185 593d 0bd3 8f3d
00000130: 4e1d 3b3d 075c c7bc 0771 893d 792b 973d
00000140: 3b64 d73c 3017 b8bb 3bbc 49bd 5d2e a2bd
00000150: 03be 04bd 4f7f c5bb 31e5 4ebd b291 afbc
00000160: dd2d 7ebd e4bf a6bd 956c a53d 0cb7 9cbd
00000170: 9b2f 3a3d fba6 7d3d 5e1e dd3c 9c23 40bd
00000180: da24 72bd 2924 8bbd 3235 cebc f617 9f3d
00000190: bd0e 3b3d b102 7c3d 8de5 a3bb cdf3 d4bc
000001a0: ae92 9ebd a686 6abc 43e2 4e3d ace4 acbb
000001b0: d438 cdbb 7093 49bd 23e8 b8bc 89d0 893d
000001c0: 743f 35bd 2a38 49bd 326e 823d c8df 8fbd
000001d0: ab1c 06bd a380 0a3b ef53 98bd 1659 203d
000001e0: 6894 42bd f905 58bd a3c6 a03c 4374 003d
000001f0: 3a74 a2bc d76d 933d d5bd f53c d92d d53c
00000200: 0791 b9bc c28a a03d be59 7bbd f67f 863d
00000210: 88b0 dc3c 1fbf 0a3d b4be 033c 4e3f a8bd
00000220: cadf a5bd 76c7 efbc 6da1 343c 285c 593d
00000230: 0c07 693d be3b acbc 0869 fd3b 88fa ddbb
00000240: 15e5 803d 91a6 a73d c07c 0b3c 24e2 1c3d
00000250: ee5d f6bc 37af a6bd 4cc2 353d 639b a73d
00000260: 3f9b dc3b 7869 8c3d cbcd 7bbd 88ef a23d
00000270: 8706 3a3c 5acd 463d a1c0 bb3c 1945 053d
00000280: beca 463b 78a5 773d 477c c8bc a5b3 3c3d
00000290: 0cb5 56bd 5647 883c b378 3d3d a4c3 1a3d
000002a0: 2e1d c13c aa27 41bd 671b a83d b6b9 3dbd
000002b0: 3e62 95bd 0015 84bd 4cab b23d a391 823d
000002c0: 813a 68bd 1449 e4bc 7e14 8ebd 338a cdbc
000002d0: 8d85 693d 0fbd ed3c 3ced b43d 5e0e a3bd
000002e0: 0759 9cbd f9aa ce3b 5f0d 5dbd 2f70 953c
000002f0: 571b 2cbc abd9 5f3d 98d7 91bd b91c f33c
00000300: 80db 363d 1773 abbd 8ff4 fb3c aa50 983b
00000310: 00ef 0f3c 6c42 b03d 7b76 9a3d 076a 6dbd
00000320: 1fb1 0a3d 5964 03bd 5f14 8f3b 246e 8abd
00000330: 1d90 9fbd 1ef4 9a3d a964 aebd 74cd 4fbd
00000340: 2464 6e3c f100 eabc 947b a9bd 1c2c 593d
00000350: 9ebf b23c fa96 813d 1ea7 0bbd b7ca 7dbd
00000360: 5094 533d d945 d43b c5ad 15bc 24ad 9bbd
00000370: 2eee 3cbd 5ba0 afbd e7e9 a8bd b84e 973c
00000380: 4147 92bd 52d1 4abd 4928 87ba 5c92 d33b
00000390: 5cfe 803c c454 8c3a 3e2d 933d 3f04 dcbc
000003a0: bba4 853c f771 493d 8334 4f3b 5e9d 723d
000003b0: 7e3d ecbb 97f6 b5bc f5bd 613d 6f00 73bc
000003c0: b4b5 093d 5494 223c f902 53bd 5278 fabc
000003d0: 8df7 c8ba 76fe a6bc 0b29 3f3d ab1b 713c
000003e0: dfbc 793d 97bd d03b b98a 24bd 09f8 d7bc
000003f0: 774f 733d 1092 30bd cd26 a63d 6f84 583b

lstm.bias_ih_l0 f4 [512]
-0.071675435 -0.063608184 -0.0051931865 0.013540928 -0.005071498 -0.018098453 -0.028470315 -0.052312564
0.06097473 -0.006152263 0.0806419 0.07828122 0.037461787 0.07985214 -0.073541306 -0.081412844
0.016777031 -0.077032894 -0.04492732 -0.06602603 0.0083446875 0.08975796 0.08315326 0.08568646
-0.028112723 -0.06211268 -0.08736928 0.036509734 0.06973359 -0.00023284867 0.07029877 0.012118261
-0.08861562 -0.0013879457 0.03535699 -0.06212505 0.059756827 -0.009276266 -0.013677199 -0.0025968861
0.018863918 0.040067725 -0.04720928 -0.020925373 0.016025318 0.001706117 0.01951688 0.00019499254
0.065803446 0.03395193 0.050162062 0.065640844 -0.051149156 -0.039145492 -0.07434579 -0.031124266
-0.015283865 0.059464674 0.04469378 -0.054047093 0.046819706 0.026404986 0.080184355 0.065123454
-0.030570427 0.053752203 -0.081329115 -0.0038837548 -0.009659562 0.09427325 0.07267434 -0.038852874
0.057991702 -0.02978541 -0.07570788 -0.0067198654 -0.070335805 0.060383134 0.03582434 -0.07455901
-0.06686888 0.044012044 -0.029889818 -0.014459734 -0.06779591 0.068507515 -0.00783549 0.014962638
0.006177485 0.00071115984 0.0044162935 -0.009622375 -0.01223104 0.061362952 -0.049651626 0.041006975
0.07629045 0.09301136 0.03151456 -0.027025886 0.016504852 0.05747788 -0.008773715 -0.064264275
0.016342757 0.0063055833 0.06637535 -0.035772156 -0.05409182 -0.037658542 0.04944624 -0.04408961
-0.0017479768 0.021213604 0.027607413 -0.043918524 0.04685504 -0.012719138 0.07994962 0.051182576
0.025028491 -0.057760347 0.030029612 -0.0031378241 0.0023021433 0.031357445 -0.012672848 0.027421692
0.085478656 0.015305349 0.0072969906 0.05987328 -0.03431427 -0.050978567 -0.04210473 -0.07751638
0.001270438 -0.025609886 -0.0490517 0.004503439 0.024247712 -0.037400737 0.052953362 0.08629131
0.093131624 -0.03929644 -0.034641083 -0.00085952465 0.07582713 0.028995443 0.02986837 -0.06214906
0.009622363 -0.08146101 -0.010821131 -0.07505618 -0.06149626 -0.067978665 0.008297149 0.07832166
-0.07603804 0.03404692 -0.06761868 0.029156169 -0.03308504 0.06413893 -0.057077773 0.01737311
-0.042729456 0.028033316 0.044230357 -0.018378053 -0.026900958 0.05960745 -0.010662791 0.023758281
0.015854761 0.06665804 -0.023026662 0.07080341 0.03724068 -0.013508693 0.007877446 0.008659814
-0.010051097 -0.0031413718 0.069905624 0.04912124 0.07558749 -0.081087545 -0.014695776 -0.04344744
-0.06101162 0.08108874 0.031124698 0.05187654 0.016754875 -0.00023187014 0.0082162265 -0.07801028
0.06675406 0.02945231 0.007991576 0.08170236 -0.0033424557 -0.027494607 0.08499073 0.040610705
0.08938489 -0.036645263 -0.06937095 0.05028442 -0.053307753 0.02548537 -0.025869232 0.021916077
0.016186276 -0.034395937 -0.078861415 -0.054308698 -0.045569066 0.016152391 -0.059006006 0.0582346
0.07719823 0.0036981935 0.07600472 0.030935809 0.013182181 -0.021100478 0.076643735 0.084829696
0.027887428 -0.016090233 -0.046639837 -0.07870045 -0.01277952 0.019394754 -0.031792577 0.092781454
-0.05319743 0.08785388 0.037036475 0.029029105 0.03334494 0.02511452 0.06271622 -0.009323041
-0.004460838 -0.039596498 -0.06349763 0.03625821 0.04672882 -0.05766079 -0.023895614 -0.06584261
00000000: 92ca 92bd 0245 82bd 9b2b aabb c5da 5d3c
00000010: cf2e a6bb 3543 94bc 943a e9bc b345 56bd
00000020: a3c0 793d ec98 c9bb 9527 a53d e751 a03d
00000030: 8871 193d 8589 a33d d39c 96bd c7bb a6bd
00000040: fc6f 893c 6cc3 9dbd b605 38bd a838 87bd
00000050: 28b8 083c 05d3 b73d 424c aa3d 627c af3d
00000060: a74c e6bc de69 7ebd aaee b2bd 3b8b 153d
00000070: 7cd0 8e3d d728 74b9 cdf8 8f3d ac8b 463c
00000080: 1b7c b5bd bbeb b5ba 7ed2 103d d676 7ebd
00000090: 93c3 743d 7bfb 17bc 5516 60bc 8530 2abb
000000a0: 8188 9a3c 0e1e 243d 855e 41bd b06b abbc
000000b0: 8747 833c c99f df3a dde1 9f3c e976 4c39
000000c0: f5c3 863d 2e11 0b3d bc76 4d3d b56e 863d
000000d0: c781 51bd 0657 20bd 9b42 98bd 51f8 febc
000000e0: 2d69 7abc 3b91 733d d310 373d 7c60 5dbd
000000f0: 05c6 3f3d 454f d83c b237 a43d 725f 853d
00000100: d56e fabc 452b 5c3d e18f a6bd 9886 7ebb
00000110: 2443 1ebc 5512 c13d 49d6 943d 3124 1fbd
00000120: b588 6d3d 8800 f4bc bc0c 9bbd 5132 dcbb
00000130: 380c 90bd 4e54 773d 8bbc 123d 65b2 98bd
00000140: 8df2 88bd f945 343d 7edb f4bc 85e8 6cbc
00000150: 95d8 8abd ab4d 8c3d 6d60 00bc da25 753c
00000160: 806c ca3b 216d 3a3a 8eb6 903b 2aa7 1dbc
00000170: b364 48bc b857 7b3d 815f 4bbd eef6 273d
00000180: 2b3e 9c3d bd7c be3d 6915 013d 6465 ddbc
00000190: 2f35 873c ed6d 6b3d a1bf 0fbc fd9c 83bd
000001a0: 3fe1 853c 119f ce3b cdef 873d d385 12bd
000001b0: 628f 5dbd d83f 1abd 2488 4a3d 4f97 34bd
000001c0: 5e1c e5ba 27c8 ad3c f128 e23c e9e3 33bd
000001d0: 12eb 3f3d ee63 50bc a0bc a33d d2a4 513d
000001e0: 8d08 cd3c 1d96 6cbd a900 f63c f4a3 4dbb
000001f0: 8edf 163b aa70 003d c7a1 4fbc 75a3 e03c
00000200: 6f0f af3d 49c3 7a3c 981b ef3b af3d 753d
00000210: 1f8d 0cbd e7ce 50bd 0276 2cbd e8c0 9ebd
00000220: d384 a63a d3cb d1bc 6fea 48bd 9691 933b
00000230: 23a3 c63c 8431 19bd a0e5 583d 80b9 b03d
00000240: cbbb be3d 4ef5 20bd cfe3 0dbd b951 61ba
00000250: 414b 9b3d da87 ed3c 83ae f43c 0390 7ebd
00000260: 1ea7 1d3c 08d5 a6bd 1d4b 31bc 0eb7 99bd
00000270: 81e3 7bbd 6638 8bbd c4f0 073c 1b67 a03d
00000280: d5b9 9bbd c874 0b3d aa7b 8abd ebd8 ee3c
00000290: 2e84 07bd 455b 833d 62ca 69bd 0d52 8e3c
000002a0: 1505 2fbd 20a6 e53c e42a 353d 928d 96bc
000002b0: 665f dcbc f126 743d fdb2 2ebc baa0 c23c
000002c0: d8e1 813c 0384 883d 69a2 bcbc 6101 913d
000002d0: af89 183d 9153 5dbc 6710 013c e4e1 0d3c
000002e0: 5bad 24bc 79df 4dbb ae2a 8f3d 5a33 493d
000002f0: 9dcd 9a3d 3a11 a6bd 8dc6 70bc f1f5 31bd
00000300: 52e7 79bd da11 a63d 39f9 fe3c 7f7c 543d
00000310: 8541 893c 2b22 73b9 5a9d 063c dbc3 9fbd
00000320: 5ab6 883d f945 f13c 19ef 023c 9153 a73d
00000330: 1a0d 5bbb 5f3c e1bc 9f0f ae3d 6957 263d
00000340: 6d0f b73d 5819 16bd 5b12 8ebd 09f7 4d3d
00000350: 3b59 5abd b2c6 d03c b6eb d3bc 5889 b33c
00000360: 1599 843c c1e2 0cbd 1882 a1bd cc72 5ebd
00000370: a1a6 3abd 0552 843c 48b0 71bd 6787 6e3d
00000380: 1b1a 9e3d 645d 723b 5da8 9b3d 186d fd3c
00000390: 13fa 573c e9da acbc 64f7 9c3d 31bb ad3d
000003a0: 2d74 e43c aacf 83bc 6a09 3fbd b42d a1bd
000003b0: 3161 51bc bfe1 9e3c ef38 02bd 3404 be3d
000003c0: 8ce5 59bd bcec b33d 8fb3 173d 72ce ed3c
000003d0: b494 083d f7bc cd3c 5d71 803d abbf 18bc
000003e0: 392c 92bb f02f 22bd 0c0b 82bd 7d83 143d
000003f0: b866 3f3d b82d 6cbd bcc0 c3bc 7ed8 86bd

lstm.bias_hh_l0 f4 [512]
-0.042552628 -0.06601548 0.0133683765 -0.019078784 0.06190191 -0.018034738 0.07542151 0.070214964
0.047016736 -0.054677475 0.0257265 0.043803744 0.007944005 -0.004864171 0.08356163 0.06552792
0.0750218 0.04527811 0.0027712728 -0.051718835 -0.030138588 -0.0011869124 -0.0038990027 0.029184699
0.011543452 0.058716763 -0.014099741 0.096026145 0.025396628 0.03386836 0.028875543 -0.06702909
0.019198343 0.035613377 0.07428249 0.035535403 -0.08048602 -0.04818951 -0.03544845 0.0032036584
-0.043360993 0.04415797 0.062255092 -0.029770007 0.086341105 -0.029015744 -0.06858388 0.05409317
-0.07726725 0.07848083 0.09012751 0.0011475658 0.0022385148 0.048729032 -0.022367956 0.077009425
-0.0039037853 -0.08201289 -0.012603755 -0.054316867 -0.03381965 -0.028106503 0.036429707 -0.006236441
-0.049152877 0.05199171 0.04997373 0.034091078 0.0020091105 0.027991919 0.0686753 -0.0674774
0.0063847606 0.031255 0.010298563 0.0053976593 0.05604574 0.05816584 -0.055004388 0.071086675
-0.01296179 -0.033283636 -0.09012873 0.02489387 0.042819176 -0.042264104 0.00016846649 -0.06554331
-1.5362015e-05 0.06023244 0.08609726 0.07343229 -0.06533356 0.014000888 0.0432002 -0.010760677
-0.06535386 -0.051638044 0.08570594 0.055511843 -0.028274735 0.017867582 -0.023162782 -0.038120847
0.028147979 0.07239288 0.039279383 0.05763686 -0.065229475 0.061533384 0.011257512 0.06808266
0.0017067478 -0.03003395 -0.07992094 0.042752907 -0.063003115 0.014047111 -0.07046148 0.07422308
0.0038785844 -0.0015373316 -0.042445082 0.04198475 -0.0017869431 -0.045953702 -0.07367199 0.032360125
0.019734373 0.08632104 0.061082676 0.0841795 -0.028194238 0.036196955 -0.056306627 0.014486916
0.00077621324 -0.014870044 -0.0786063 -0.06721586 -0.07154777 -0.06265753 0.047336176 -0.04747332
0.024186356 0.08004262 0.09081222 -0.047424257 0.07747751 -0.042969033 -0.040115375 0.06956336
-0.035503354 -0.06895679 -0.055205077 0.018256607 -0.086193435 -0.08023122 0.081666596 0.045370635
-0.05451817 0.05834913 -0.02359114 0.034924902 0.055097662 0.0383503 0.07492371 0.0940917
0.077635795 0.01077713 0.09042571 -0.053456098 0.07538802 -0.057335734 0.026201142 -0.03373956
0.020397814 -0.02259817 -0.024889026 0.019034784 -0.015439756 0.08619009 0.08380034 -0.017487053
0.0045367912 -0.03927738 0.075248666 -0.040786218 0.08867849 0.012198825 -0.057136443 -0.02464629
0.07485514 -0.023563633 0.05129629 0.06368782 -0.0021085844 -0.058246385 -0.034163706 0.064343445
-0.047067747 0.04942163 -0.009713325 0.03225681 -0.01595876 0.03194871 0.08339665 0.0680024
-0.053431805 0.02125198 0.036353525 0.028099434 -0.06319134 -0.04197706 0.050254025 -0.014914332
-0.054148372 0.009343134 -0.08278172 0.039010305 -0.029099049 -0.0056079095 -0.011603852 0.013628523
0.060310606 -0.020055365 -0.03064014 -0.017381271 0.035765965 0.036772046 0.031142639 -0.061108988
0.007493709 -0.01259821 0.004177775 -0.0044450015 -0.068729475 0.03268339 -0.048516873 0.011704122
-0.009426069 0.041871876 0.038464922 -0.07261674 -0.04137434 -0.011099783 0.04406764 -0.048751567
-0.051187858 -0.07396018 -0.074317954 -0.079488456 0.023714833 -0.055653848 0.06946137 0.01072753
00000000: aa4b 2ebd 2033 87bd 0907 5b3c 1c4b 9cbc
00000010: db8c 7d3d 96bd 93bc 9876 9a3d ddcc 8f3d
00000020: 9f94 403d 7df5 5fbd 62c0 d23c 8e6b 333d
00000030: 9227 023c a063 9fbb 5c22 ab3d 8133 863d
00000040: 08a5 993d 8a75 393d 3e9e 353b 21d7 53bd
00000050: 33e5 f6bc 2c92 9bba 6986 7fbb c014 ef3c
00000060: bf20 3d3c fd80 703d 9a02 67bc 5ba9 c43d
00000070: 970c d03c 8db9 0a3d 678c ec3c 8c46 89bd
00000080: d845 9d3c 55df 113d 6b21 983d 928d 113d
00000090: dbd5 a4bd 5d62 45bd 6532 11bd 78f4 513b
000000a0: 4c9b 31bd fdde 343d 32ff 7e3d 3be0 f3bc
000000b0: 9bd3 b03d 6db2 edbc b575 8cbd cd90 5d3d
000000c0: 4b3e 9ebd 8fba a03d c694 b83d eb69 963a
000000d0: 0cb4 123b 1898 473d 013d b7bc 1eb7 9d3d
000000e0: a6d6 7fbb 60f6 a7bd fb7f 4ebc 5d7b 5ebd
000000f0: 7986 0abd 9c3f e6bc 5137 153d 0f5b ccbb
00000100: 8754 49bd 42f5 543d 41b1 4c3d 16a3 0b3d
00000110: 48ab 033b 4f4f e53c a3a5 8c3d 9731 8abd
00000120: 4137 d13b 3e05 003d 4ebb 283c d9de b03b
00000130: 3890 653d 4e3f 6e3d 484c 61bd e495 913d
00000140: b05d 54bc 6c54 08bd 6995 b8bd 3bee cb3c
00000150: 2963 2f3d 201d 2dbd 61a6 3039 923b 86bd
00000160: addd 80b7 4ab6 763d c353 b03d ab63 963d
00000170: 9acd 85bd fb63 653c b1f2 303d 8d4d 30bc
00000180: 3fd8 85bd 6a82 53bd 9986 af3d 6360 633d
00000190: 6ba0 e7bc 095f 923c e0bf bdbc 9b24 1cbd
000001a0: 9796 e63c b842 943d 6be3 203d a114 6c3d
000001b0: 0897 85bd 6e0a 7c3d 6d71 383c ec6e 8b3d
000001c0: f4b4 df3a c209 f6bc 97ad a3bd ac1d 2f3d
000001d0: c707 81bd db25 663c 1c4e 90bd 4502 983d
000001e0: d92f 7e3b 4a80 c9ba e5da 2dbd 34f8 2b3d
000001f0: dc37 eaba f339 3cbd 57e1 96bd 0d8c 043d
00000200: fba9 a13c 16c9 b03d d431 7a3d 4d66 ac3d
00000210: 9af7 e6bc 4243 143d c7a1 66bd 885a 6d3c
00000220: ca7a 4b3a 7ca1 73bc 57fc a0bd 78a8 89bd
00000230: a387 92bd 9752 80bd 94e3 413d 6273 42bd
00000240: 7722 c63c 63ed a33d c2fb b93d f03f 42bd
00000250: 87ac 9e3d 4c00 30bd 0550 24bd 3c77 8e3d
00000260: f76b 11bd 3839 8dbd b81e 62bd e18e 953c
00000270: 2f86 b0bd 4450 a4bd d140 a73d 8fd6 393d
00000280: 724e 5fbd 7fff 6e3d 3542 c1bc 6a0d 0f3d
00000290: 16ae 613d 3415 1d3d 9a71 993d 26b3 c03d
000002a0: 84ff 9e3d 8f92 303c 1d31 b93d c8f4 5abd
000002b0: 0965 9a3d e0d8 6abd c7a3 d63c 7e32 0abd
000002c0: 5119 a73c cc1f b9bc 12e4 cbbc d6ee 9b3c
000002d0: 08f7 7cbc 6e84 b03d 839f ab3d 0241 8fbc
000002e0: 5da9 943b 51e1 20bd f91b 9a3d 730f 27bd
000002f0: 119d b53d 95dd 473c e707 6abd 04e7 c9bc
00000300: a74d 993d 8508 c1bc 0f1c 523d c36e 823d
00000310: 2d30 0abb c393 6ebd 3eef 0bbd 7fc6 833d
00000320: 1cca 40bd 566e 4a3d a324 1fbc b81f 043d
00000330: f2bb 82bc a7dc 023d ddcb aa3d d844 8b3d
00000340: 4fdb 5abd a218 ae3c 6fe7 143d c930 e63c
00000350: 766a 81bd 23f0 2bbd 2ad7 4d3d 3e5b 74bc
00000360: afca 5dbd f213 193c 7689 a9bd 45c9 1f3d
00000370: 2161 eebc 8ec2 b7bb 151e 3ebc 2b4a 5f3c
00000380: 4108 773d 264b a4bc 0801 fbbc 2b63 8ebc
00000390: 557f 123d 499e 163d d91e ff3c 6b4d 7abd
000003a0: ca8d f53b b968 4ebc b7e5 883b 60a7 91bb
000003b0: 0ac2 8cbd 05df 053d a1b9 46bd a5c2 3f3c
000003c0: cd6f 1abc d881 2b3d 658d 1d3d 16b8 94bd
000003d0: 2478 29bd dddb 35bc 4580 343d b9af 47bd
000003e0: 5caa 51bd 6f78 97bd 0334 98bd d8ca a2bd
000003f0: 9c45 c23c 4af5 63bd c341 8e3d 86c2 2f3c

lstm.weight_ih_l1 f4 [512, 128]
0.044904333 0.04137441 0.003743859 0.058894172 0.06942646 0.021138137 -0.0103103565 -0.05784353
-0.08586296 0.044983797 -0.05117302 -0.029691808 -0.0036794401 0.042895857 0.07477718 0.058759823
-0.040911205 0.029093197 0.058283716 -0.066507645 0.07507719 0.027403133 0.00067002035 -0.07834095
0.02151921 -0.064014256 -0.06404892 -0.019293277 0.024977375 -0.0697866 -0.043168418 -0.0012010726
0.059387878 -0.020624122 -0.0023627977 0.052101888 0.060936965 -0.08162489 0.05698365 -0.058534667
0.04236385 -0.09241428 0.089938916 0.035095017 -0.06854371 0.09091175 0.019263562 0.09547911
-0.040957052 0.025364554 -0.064602174 -0.020821393 -0.06398088 0.07897113 0.08590199 0.0008188999
0.07652224 -0.076104395 -0.032740414 -0.07042999 -0.03147099 -0.026513934 -0.015819365 0.07040575
-0.083389945 0.07412381 0.047803994 -0.07163341 0.059269134 -0.007972895 -0.07099395 0.08618218
0.05346368 -0.033406314 0.00087035965 0.023762155 -0.05431748 -0.002391987 -0.061656915 0.00826183
-0.03531517 0.004006526 -0.017865347 -0.0530996 0.06374443 0.07281724 0.048746306 -0.06445057
-0.07020376 0.0048020533 -0.040265832 0.08561429 -0.080766924 0.0817307 -0.016752578 0.08861201
-0.026460558 0.01987552 0.07114767 0.043987345 -0.059023738 0.0432046 0.0016219523 -0.025715427
-0.059195783 -0.029923674 -0.08731749 0.0626526 0.008779582 0.07883318 -0.0018502162 0.036149766
0.06006626 0.0013843873 0.022445269 0.023347965 -0.062318776 -0.025561186 0.016991904 0.027522916
-0.026384154 0.033107746 0.04497838 0.020189015 -0.09031655 0.030039702 0.053511586 0.082761526
-0.031357504 0.024333041 -0.00324131 -0.048737098 -0.028651677 0.009591193 -0.04580461 0.09719839
-0.06219468 -0.027538313 0.015884642 0.096946396 -0.06289329 -0.008487315 0.031727493 0.055310715
-0.020166315 0.055695947 0.053088676 0.08237703 -0.037388127 0.04433655 -0.02061643 0.032517977
0.018215936 -0.04234568 -0.037403967 0.05450579 0.020765672 0.08508591 -0.07421678 0.0033859233
-0.046781354 -0.04883647 0.08297998 0.027591387 -0.06293785 0.011968976 0.06731681 0.03849478
0.0599869 -0.04668933 0.030422406 -0.03103502 0.030166052 0.028176302 -0.02409677 0.08266617
0.05471545 0.019751709 0.00028818226 -0.016121166 0.015266759 -0.08240232 -0.015117103 0.05492388
0.04364445 -0.030558681 -0.090468064 -0.044528957 0.055012174 -0.023220588 -0.068667375 0.047997877
0.086101055 0.062073357 -0.063574575 0.004331806 0.051827993 0.037482228 0.0040882877 -0.0055005276
0.0548716 0.06475327 -0.08879607 0.044228036 0.06309566 0.085383944 -0.021118512 0.01661855
-0.032457523 0.059539303 -0.007370352 -0.030179454 -0.08824933 -0.0089692 -0.032956414 -0.089883804
-0.05127302 -0.06019373 -0.058582313 -0.01914862 -0.040655255 0.06307446 0.077870145 -0.004286992
0.028610425 0.06698287 0.016382368 -0.051729422 -0.062036127 0.09116019 0.03341053 -0.08403264
0.04376419 0.085463874 -0.02416812 -0.06672618 0.06546097 -0.049668845 0.037583 0.010585406
0.039458167 -0.0017569838 0.029852698 -0.0629035 0.08477649 0.0024769586 0.04834929 0.04524754
0.05474168 0.089656 0.034801982 -0.023726568 0.0830862 0.0625907 -0.07571502 -0.005383662
00000000: 9bed 373d 3778 293d 885b 753b 043b 713d
00000010: 762f 8e3d e329 ad3c c5ec 28bc 56ed 6cbd
00000020: ebd8 afbd ee40 383d cd9a 51bd 3c3c f3bc
00000030: c322 71bb 91b3 2f3d c724 993d 24ae 703d
00000040: 8292 27bd db54 ee3c e8ba 6e3d 2935 88bd
00000050: 12c2 993d 897c e03c 4ea4 2f3a 3871 a0bd
00000060: 0e49 b03c e819 83bd 152c 83bd ef0c 9ebc
00000070: 5a9d cc3c 47ec 8ebd 5ed1 30bd 4f6d 9dba
00000080: b440 733d ebf3 a8bc 2bd9 1abb ca68 553d
00000090: 0a99 793d f32a a7bd b067 693d 0cc2 6fbd
000000a0: b785 2d3d b343 bdbd e531 b83d cbbf 0f3d
000000b0: a560 8cbd f12f ba3d 9ece 9d3c 8d8a c33d
000000c0: 95c2 27bd 53c9 cf3c 254e 84bd a091 aabc
000000d0: 6808 83bd 9ebb a13d 62ed af3d 71ab 563a
000000e0: b1b7 9c3d 9fdc 9bbd d01a 06bd 993d 90bd
000000f0: bae7 00bd c033 d9bc 9d97 81bc e430 903d
00000100: 59c8 aabd 39ce 973d 1fce 433d 8ab4 92bd
00000110: 31c4 723d bfa0 02bc 4765 91bd 4880 b03d
00000120: bbfc 5a3d 0fd5 08bd d928 643a daa8 c23c
00000130: 027c 5ebd e2c2 1cbb f68b 7cbd a05c 073c
00000140: a4a6 10bd 2d49 833b 595a 92bc f77e 59bd
00000150: 718c 823d 3521 953d 35aa 473d a9fe 83bd
00000160: fdc6 8fbd 8b5a 9d3b c9ed 24bd 8b56 af3d
00000170: 2169 a5bd 6d62 a73d b43c 89bc 377a b53d
00000180: d0c3 d8bc fdd1 a23c dfb5 913d 132c 343d
00000190: e0c2 71bd 4ff7 303d b097 d43a 29a9 d2bc
000001a0: 4777 72bd 7e22 f5bc 83d3 b2bd 0250 803d
000001b0: 3cd8 0f3c 4a73 a13d f482 f2ba c711 143d
000001c0: 0a08 763d 5474 b53a 24df b73c 3b44 bf3c
000001d0: f941 7fbd b165 d1bc 9b32 8b3c bd77 e13c
000001e0: 9523 d8bc fd9b 073d 403b 383d 6f63 a53c
000001f0: e2f7 b8bd d215 f63c f72e 5b3d e07e a93d
00000200: ba70 00bd 1656 c73c 286c 54bb 8da0 47bd
00000210: ecb6 eabc 6124 1d3c 9d9d 3bbd f30f c73d
00000220: d9bf 7ebd 0798 e1bc 8220 823c d58b c63d
00000230: 32ce 80bd 610e 0bbc b0f4 013d 7d8d 623d
00000240: d433 a5bc 6f21 643d 8373 593d 4ab5 a83d
00000250: 4b24 19bd 3e9a 353d cae3 a8bc 9231 053d
00000260: 9639 953c aa72 2dbd e734 19bd 7741 5f3d
00000270: c51c aa3c 8641 ae3d f8fe 97bd 5ee6 5d3b
00000280: ce9d 3fbd c008 48bd 68f1 a93d 5507 e23c
00000290: 8fe5 80bd 8619 443c 65dd 893d b4ac 1d3d
000002a0: d3b4 753d 503d 3fbd 6938 f93c 273d febc
000002b0: cc1e f73c fdd1 e63c 9766 c5bc e24c a93d
000002c0: 4f1d 603d 56ce a13c 2b17 9739 8910 84bc
000002d0: 6e21 7a3c 8cc2 a8bd baad 77bc ddf7 603d
000002e0: 86c4 323d 3356 fabc 5247 b9bd ff63 36bd
000002f0: 7254 613d 1a39 bebc 7ba1 8cbd 6c99 443d
00000300: c055 b03d a240 7e3d 6333 82bd d3f1 8d3b
00000310: 9749 543d f786 193d 0bf7 853b c53d b4bb
00000320: 0bc1 603d 5d9d 843d b7da b5bd 7528 353d
00000330: 4c38 813d c7dd ae3d bb00 adbc a023 883c
00000340: 2ef2 04bd 7cdf 733d fe82 f1bb e73a f7bc
00000350: 11bc b4bd 8df3 12bc 4efd 06bd 0015 b8bd
00000360: a903 52bd b38d 76bd 02f4 6fbd 91dd 9cbc
00000370: 2086 26bd 2f2d 813d 627a 9f3d e579 8cbb
00000380: 6960 ea3c 512e 893d 5134 863c 3be2 53bd
00000390: 9819 7ebd 32b2 ba3d 7bd9 083d 4e19 acbd
000003a0: 1442 333d af07 af3d 39fc c5bc bca7 88bd
000003b0: 6710 863d 8f71 4bbd a2f0 193d 696e 2d3c
000003c0: e39e 213d 984a e6ba a58d f43c 8dd3 80bd
000003d0: 4c9f ad3d 7854 223b e809 463d 7c55 393d
000003e0: d038 603d 919d b73d 868c 0e3d 385e c2bc
000003f0: 1929 aa3d 8e2f 803d 7a10 9bbd 6e69 b0bb

lstm.weight_hh_l1 f4 [512, 128]
0.072301485 -0.027181847 -0.0094503835 0.08331943 -0.07044375 -0.07698363 0.036150694 0.08329797
0.057593804 0.021120373 0.016665809 -0.082082435 -0.011732416 0.0048616696 -0.0017914333 0.019806309
0.06619732 -0.040041853 0.009154194 0.07295002 0.0462672 -0.038723435 -0.029844962 0.07385749
-0.013363607 -0.01950596 -0.030411417 0.061057772 0.06516088 -0.02614967 -0.03371933 0.08259513
-0.06527057 -0.017502181 -0.053800818 0.047375422 0.03684562 0.03188095 0.046473183 0.0886103
-0.013640741 -0.022475082 -0.033339538 -0.07296971 -0.081242904 -0.002395322 0.08158116 0.08524423
0.051748898 -0.01442458 -0.04302014 0.002253982 -0.08083585 -0.046226695 -0.0056847907 -0.06981797
0.06363409 0.04880627 -0.03892786 -0.05110471 -0.06845268 -0.011180364 -0.08305451 0.069673076
0.082613364 0.0068427757 -0.06277944 0.059114896 -0.013580512 -0.062086124 -0.057119347 0.088335566
-0.006818156 -0.011228951 -0.012617559 0.045903392 0.08162976 0.05932538 0.06068273 -0.03307669
-0.057388134 -0.03551805 0.08232505 0.07186068 -0.06030608 0.055332225 0.068516225 -0.043668307
-0.060868796 -0.05441698 0.05734733 0.009849702 0.01400031 -0.07139249 0.0743667 0.038577292
0.07959164 0.023942586 -0.046850275 -0.011767761 0.04422763 -0.037342444 0.016442632 0.087377
0.036454264 0.048919823 0.019704623 0.049739495 0.022842936 -0.011208816 -0.034185532 0.05157257
0.020499846 -0.053611863 -0.048219595 0.0070107393 -0.08234825 0.06921679 -0.04842944 -0.06464837
-0.05628836 -0.067556664 -0.022787442 -0.034577142 0.017010551 -0.08624033 0.043948278 0.039930444
-0.047515042 0.01132214 0.07819076 -0.036301333 -0.023029365 -0.07571715 -0.079059295 -0.0035320153
-0.056059975 -0.032326296 0.0067400993 -0.08029028 -0.06619364 -0.0455664 0.0620097 -0.09371246
0.064304635 0.06255928 -0.0225146 0.022251077 0.05235858 0.041189857 0.02142003 0.067518786
-0.05141935 0.017901031 -0.0715607 -0.015399034 0.08143655 0.06445511 -0.0315587 0.029840417
0.04765131 -0.02542977 0.014022979 0.035662513 0.065297276 -0.08525536 0.052890018 0.059068255
0.037088394 0.013672473 -0.028808989 0.008366424 0.04975113 -0.019983845 -0.001732658 -0.0011330382
0.01397065 -0.064685546 0.028228896 0.028800754 0.018990835 -0.06112036 -0.06233911 0.023696162
0.09065626 -0.014796016 -0.002166923 0.037417497 0.033592727 -0.04318688 -0.009114262 -0.06134719
0.018506799 0.010201787 0.08885076 -0.09686912 -0.026765544 -0.009813335 -0.023192033 -0.052459013
0.014836615 0.00858374 0.006239359 0.07315384 0.053862605 -0.03547239 -0.06689632 -0.051104072
-0.025585385 0.018032195 0.016236778 0.07026101 -2.3579261e-05 -0.033509217 -0.061663054 0.06166281
0.0062521524 -0.009723261 0.064616665 -0.044226967 -0.045188446 0.06301802 -0.052989688 -0.057554256
0.02895928 0.039908387 -0.0005541751 -0.010542157 -0.071567714 0.018235138 0.0678686 0.04423418
-0.054374944 0.039422963 0.077040076 0.059413195 0.07757828 -0.040342364 0.00998903 -0.03052511
-0.03310791 -0.011918997 -0.089562714 0.024280302 0.08510135 -0.07514825 -0.0009608988 0.04098315
0.07997829 0.040456012 -0.047469266 0.031215664 -0.06946194 0.03059884 0.01278493 0.07501494
00000000: cd12 943d 77ac debc c8d5 1abc 61a3 aa3d
00000010: d044 90bd 98a9 9dbd c012 143d 2098 aa3d
00000020: 7be7 6b3d a204 ad3c bc86 883c d61a a8bd
00000030: 5239 40bc a44e 9f3b 87ce eaba d740 a23c
00000040: 7692 873d ed02 24bd 79fb 153c d266 953d
00000050: ad82 3d3d 779c 1ebd 6c7d f4bc 9942 973d
00000060: 08f3 5abc f7ca 9fbc 5d21 f9bc b717 7a3d
00000070: 1173 853d d537 d6bc 481d 0abd a327 a93d
00000080: 94ac 85bd bc60 8fbc 3f5e 5cbd bb0c 423d
00000090: 6feb 163d 9995 023d aa5a 3e3d 5179 b53d
000000a0: 6a7d 5fbc aa1d b8bc 0a8f 08bd 2571 95bd
000000b0: ae62 a6bd d6fa 1cbb 0614 a73d 8794 ae3d
000000c0: a7f6 533d 1355 6cbc e335 30bd 8bb7 133b
000000d0: 448d a5bd 3458 3dbd 7b47 babb b9fc 8ebd
000000e0: 9752 823d 15e9 473d d272 1fbd 2c53 51bd
000000f0: eb30 8cbd d82d 37bc 7c18 aabd c2b0 8e3d
00000100: 3231 a93d 5d39 e03b 8292 80bd 7622 723d
00000110: cc80 5ebc 054e 7ebd faf5 69bd 47e9 b43d
00000120: d76a dfbb a2f9 37bc e1b9 4ebc 3205 3c3d
00000130: 812d a73d 2bff 723d 748e 783d 6c7b 07bd
00000140: d20f 6bbd 607b 11bd 099a a83d b12b 933d
00000150: 8203 77bd 0ba4 623d 3c52 8c3d 8add 32bd
00000160: 8f51 79bd 57e4 5ebd 09e5 6a3d a560 213c
00000170: 8e61 653c 3a36 92bd 924d 983d 3903 1e3d
00000180: f100 a33d 3e23 c43c 13e6 3fbd 91cd 40bc
00000190: 0828 353d 64f4 18bd b3b2 863c b6f2 b23d
000001a0: 1151 153d 2760 483d 976b a13c a4bb 4b3d
000001b0: 1c21 bb3c 2fa5 37bc 2106 0cbd c23d 533d
000001c0: 4bef a73c 1d98 5bbd e981 45bd 58ba e53b
000001d0: 33a6 a8bd 88c1 8d3d f35d 46bd 5d66 84bd
000001e0: a08e 66bd 265b 8abd bbac babc c3a0 0dbd
000001f0: b659 8b3c c59e b0bd 1c03 343d 1b8e 233d
00000200: 229f 42bd 7f80 393c 7a22 a03d b5b0 14bd
00000210: 14a8 bcbc 9811 9bbd d7e9 a1bd 6279 67bb
00000220: 259f 65bd 9468 04bd 0ddc dc3b 3b6f a4bd
00000230: 8890 87bd d5a3 3abd e2fd 7d3d 51ec bfbd
00000240: 26b2 833d 141f 803d 8a70 b8bc e447 b63c
00000250: f375 563d b2b6 283d 0f79 af3c 4a47 8a3d
00000260: 199d 52bd 2fa5 923c 6b8e 92bd 3b4c 7cbc
00000270: 35c8 a63d 0a01 843d b243 01bd e473 f43c
00000280: 052e 433d 1852 d0bc a3c0 653c db12 123d
00000290: 94ba 853d 5d9a aebd 34a3 583d 8ef1 713d
000002a0: 00ea 173d 8202 603c d400 ecbc 5313 093c
000002b0: d7c7 4b3d 29b5 a3bc 5b1a e3ba 7482 94ba
000002c0: 27e5 643c db79 84bd 4940 e73c 8fef eb3c
000002d0: ab92 9b3c 5859 7abd 4b57 7fbd 741e c23c
000002e0: fda9 b93d fd6a 72bc ef02 0ebb 1743 193d
000002f0: 8798 093d bae4 30bd fc53 15bc 3147 7bbd
00000300: 929b 973c 6525 273c 63f7 b53d 5163 c6bd
00000310: 6a43 dbbc 1cc8 20bc 38fd bdbc 43df 56bd
00000320: 4615 733c d1a2 0c3c 8973 cc3b aed1 953d
00000330: 099f 5c3d 7f4b 11bd f000 89bd 8152 51bd
00000340: 7198 d1bc 41b8 933c fe02 853c 01e5 8f3d
00000350: 14cc c5b7 f640 09bd 6692 7cbd 2592 7c3d
00000360: dbde cc3b 504e 1fbc be55 843d 5627 35bd
00000370: 8517 39bd 970f 813d b70b 59bd 03be 6bbd
00000380: 033c ed3c fa76 233d 1046 11ba 03b9 2cbc
00000390: 1892 92bd db61 953c b1fe 8a3d e62e 353d
000003a0: 43b8 5ebd f979 213d 30c7 9d3d 405b 733d
000003b0: 5ce1 9e3d 093e 25bd 07a9 233c cc0f fabc
000003c0: 299c 07bd e647 43bc a86c b7bd 7ce7 c63c
000003d0: 9e49 ae3d 53e7 99bd d4e4 7bba f3dd 273d
000003e0: a8cb a33d 34b5 253d 226f 42bd feb7 ff3c
000003f0: 1042 8ebd 6baa fa3c e277 513c 6fa1 993d

lstm.bias_ih_l1 f4 [512]
-0.062623225 -0.08958933 -0.0049058315 -4.5262794e-05 -0.03408801 -0.062351152 -0.0062921885 -0.05867295
0.05332931 -0.017728051 0.011019337 0.037294813 0.08836726 0.0006933605 -0.0069690705 -0.01859188
-0.035114143 -0.08618304 0.082414985 0.044422716 -0.013454718 0.021571087 -0.022311725 0.03490442
0.062126227 0.07526056 -0.0026973966 0.06053171 -0.040310096 0.10034094 -0.017368024 0.07879137
0.06455558 -0.042590097 0.05403916 -0.0070099114 0.0924877 -0.011835976 -0.057924204 -0.09080724
0.037137996 -0.071839355 0.0046449294 0.034056682 -0.06351947 -0.014682429 -0.038579717 0.07581602
-0.07086687 -0.0028554352 0.021053025 0.033287875 0.0055784113 -0.049059354 -0.036430985 -0.007583386
0.07852355 0.10008713 -0.0015642118 0.015416991 0.04543091 0.010202143 -0.05625615 0.05654556
-0.050423596 0.027355714 -0.071469136 -0.041207757 0.09173226 -0.013181174 -0.03497501 0.00316137
-0.01995442 -0.06385338 -0.0049310066 0.004381517 -0.038722966 0.07080628 0.07210783 0.047752593
-0.049226575 -0.012816679 -0.033538446 0.033165812 -0.007614398 0.07533939 -0.041998357 -0.035036735
-0.014694376 -0.006300665 0.017613722 0.04679474 0.020620313 -0.05368054 -0.010923474 0.022347387
-0.047658093 -0.020765258 0.036754135 -0.056173693 -0.0017220518 -0.046447374 0.031642888 0.0068649966
0.038173586 0.011539663 0.0054695513 0.04773725 -0.030163852 -0.011264855 -0.068086065 0.07201311
-0.023396663 0.041615933 -0.003971315 -0.027327996 -0.026462644 0.069114126 -0.0936374 -0.008564324
-0.05558306 0.024747845 -0.043532003 -0.09950579 -0.01614998 0.042140156 0.010034755 0.023088483
0.00090694166 -0.0146080395 -0.0733357 -0.07904467 -0.0017402016 0.065952666 -0.02758621 0.045390215
0.019245926 0.0057119154 0.043587606 -0.058793776 -0.075606085 0.012812349 0.028478088 0.010068604
0.038581442 0.04867427 0.02094483 -0.051701654 0.03819824 -0.06876505 0.05333298 -0.054587904
-0.0124110095 0.08448856 -0.083085924 0.014677859 -0.0069455 0.067973346 0.09022205 -0.03401209
0.05414263 -0.00091821916 -0.03971667 -0.036929764 0.037766084 0.048031382 -0.08084832 -0.019296892
0.012927377 0.0464977 0.06973867 -0.06121032 -0.076632805 0.019614354 0.032433167 -0.07986705
-0.07569468 0.071755715 -0.055067983 0.022911875 -0.061113983 -0.071476266 0.084924266 0.0057817637
0.0814941 0.03298283 -0.064084716 0.016791085 -0.058201928 -0.026504993 0.042527236 0.04467602
0.026598355 -0.025690867 0.075819686 -0.070036724 -0.031043546 -0.033929057 0.067357376 -0.0075439815
-0.08195758 -0.04343502 -0.019537361 0.010473568 -0.06956031 -0.044041235 0.07156212 -0.0073546427
0.013731616 0.081686854 -0.060365584 -0.0786975 0.06766792 -0.022977691 0.021124514 0.016980173
0.03430565 -0.049352743 0.0063335733 0.0771929 0.012355865 0.031790104 -0.05544977 0.08082517
0.0961713 0.026916089 -0.08291013 0.04429936 0.007870074 -0.07534826 0.04247186 0.05850536
-0.08213087 0.054997213 -0.025721611 0.02129605 -0.0072118044 -0.07241185 -0.07295967 0.055758495
0.08041975 0.021775043 -0.022013845 -0.008890105 -0.021257108 0.056108087 0.0698257 -0.009880463
-0.046248574 -0.06378566 0.091006115 0.049121097 -0.04586373 -0.054240484 0.017640704 -0.07381672
00000000: 9b40 80bd 9c7a b7bd 19c1 a0bb 8ed8 3db8
00000010: df9f 0bbd ec63 7fbd b42e cebb 0c53 70bd
00000020: d66f 5a3d 6b3a 91bc 738a 343c 72c2 183d
00000030: e5f9 b43d a3c2 353a cd5c e4bb 004e 98bc
00000040: d9d3 0fbd bc80 b0bd 30c9 a83d 98f4 353d
00000050: 2d71 5cbc d9b5 b03c 14c7 b6bc f0f7 0e3d
00000060: 1278 7e3d 3522 9a3d cec6 30bb 19f0 773d
00000070: 331c 25bd 8d7f cd3d 6347 8ebc 5f5d a13d
00000080: b735 843d f472 2ebd 2b58 5d3d 66b3 e5bb
00000090: 316a bd3d aeeb 41bc ee41 6dbd 25f9 b9bd
000000a0: 031e 183d 8320 93bd 7e34 983b 057f 0b3d
000000b0: 7f16 82bd 928e 70bc c405 1ebd 6e45 9b3d
000000c0: a622 91bd 4122 3bbb 6577 ac3c de58 083d
000000d0: 1bcb b63b 76f2 48bd a838 15bd 0d7e f8bb
000000e0: f4d0 a03d 7bfa cc3d 3d06 cdba 8c97 7c3c
000000f0: c315 3a3d e426 273c d96c 66bd 519c 673d
00000100: f988 4ebd 1719 e03c 695e 92bd 77c9 28bd
00000110: 20de bb3d daf5 57bc f541 0fbd fd2e 4f3b
00000120: 7477 a3bc 90c5 82bd 4894 a1bb d492 8f3b
00000130: f99b 1ebd e202 913d 45ad 933d 3998 433d
00000140: cea1 49bd 0cfd 51bc 9c5f 09bd e0d8 073d
00000150: 3382 f9bb 8a4b 9a3d 7806 2cbd ae82 0fbd
00000160: aec0 70bc cf75 cebb a74a 903c d7ab 3f3d
00000170: eeeb a83c 20e0 5bbd 5ff8 32bc de11 b73c
00000180: 2235 43bd e71b aabc 818b 163d 6316 66bd
00000190: 78b6 e1ba 9a3f 3ebd f99b 013d c4f3 e03b
000001a0: e85b 1c3d db10 3d3c ec39 b33b 2288 433d
000001b0: 2f1a f7bc 3a90 38bc b570 8bbd 9c7b 933d
000001c0: 5caa bfbc 7875 2a3d ce21 82bb f6de dfbc
000001d0: 30c8 d8bc b58b 8d3d f7c4 bfbd 6151 0cbc
000001e0: 10ab 63bd febb ca3c 9d4e 32bd b1c9 cbbd
000001f0: f64c 84bc 289b 2c3d d068 243c 0f24 bd3c
00000200: d3bf 6d3a 8f56 6fbc 0731 96bd 2ce2 a1bd
00000210: 7a17 e4ba 3112 873d 7afc e1bc 17eb 393d
00000220: a2a9 9d3c 052b bb3b eb88 323d bed1 70bd
00000230: 5dd7 9abd e3ea 513c e14a e93c c9f6 243c
00000240: 9307 1e3d ac5e 473d 7e94 ab3c 1dc5 53bd
00000250: c275 1c3d b1d4 8cbd af73 5a3d 9197 5fbd
00000260: 8c57 4bbc 5708 ad3d f428 aabd 677b 703c
00000270: 1497 e3bb 9c35 8b3d 57c6 b83d 4350 0bbd
00000280: aac4 5d3d a5b4 70ba f2ad 22bd aa43 17bd
00000290: 9cb0 1a3d 8ebc 443d ce93 a5bd 8414 9ebc
000002a0: 59cd 533c 5f74 3e3d 26d3 8e3d acb7 7abd
000002b0: a9f1 9cbd 48ae a03c a4d8 043d 5691 a3bd
000002c0: d005 9bbd a9f4 923d f78e 61bd afb1 bb3c
000002d0: a852 7abd 2662 92bd c6ec ad3d f374 bd3b
000002e0: 61e6 a63d 0119 073d d93e 83bd 758d 893c
000002f0: 2565 6ebd 0021 d9bc 0a31 2e3d 34fe 363d
00000300: cbe4 d93c a775 d2bc 5a47 9b3d 6a6f 8fbd
00000310: 094f febc 32f9 0abd aaf2 893d 8133 f7bb
00000320: 60d9 a7bd ebe8 31bd d10c a0bc 5499 2b3c
00000330: a375 8ebd 9564 34bd 298f 923d 37ff f0bb
00000340: 92fa 603c 704b a73d e741 77bd 282c a1bd
00000350: 7a95 8a3d b63b bcbc 510d ad3c 011a 8b3c
00000360: 1584 0c3d 1a26 4abd dd89 cf3b 5017 9e3d
00000370: 4170 4a3c 5736 023d 4c1f 63bd ab87 a53d
00000380: 75f5 c43d 217f dc3c c9cc a9bd 3f73 353d
00000390: 7cf1 003c 3050 9abd f9f6 2d3d 51a3 6f3d
000003a0: 3b34 a8bd c244 613d 21b6 d2bc 0e75 ae3c
000003b0: 0051 ecbb aa4c 94bd e16b 95bd 0563 643d
000003c0: 1cb3 a43d 9361 b23c 6156 b4bc cea7 11bc
000003d0: 6323 aebc 98d1 653d c700 8f3d aae1 21bc
000003e0: 256f 3dbd 0ea2 82bd 6a61 ba3d 3433 493d
000003f0: 9bdb 3bbd 452b 5ebd 3d83 903c 382d 97bd
