data/VesselSimulator/lstm_model_ar.pth (torch, 851454 bytes, 10 tensors)

lstm.weight_ih_l0 f4 [512, 22]
0	0xbd935d23	-0.07195499
1	0xbd863c3f	-0.0655446
2	0xbe5d27d3	-0.21597223
3	0x3ce6e3e4	0.028184839
4	0xbc9e3da6	-0.019316506
5	0x3e23804e	0.15966913
6	0xbd991b4d	-0.0747591
7	0xbc68e3b1	-0.014214442
8	0x3da654b8	0.081216276
9	0xbdcb141b	-0.09915944
10	0x3dab87d5	0.08375517
11	0xbd446dd5	-0.047956306
12	0xbd8cdeb9	-0.068784185
13	0xbda7dbc2	-0.08196212
14	0xbd8e3203	-0.06943133
15	0xbcd5a7d9	-0.026081013
16	0x3d8b71d1	0.06808818
17	0xbd2d3f2c	-0.042296574
18	0x3d4235f2	0.047414728
19	0xbdd601a6	-0.10449533
20	0x3bfcf2e2	0.0077193836
21	0xbdb3a9fe	-0.08772658
22	0xbdb57a53	-0.08861222
23	0xbd9f108b	-0.07766827
24	0xbc23097c	-0.009950992
25	0xbe3a13c9	-0.1817161
26	0xbe42d72c	-0.19027394
27	0xbd5a0f0d	-0.05323701
28	0xbd3a750e	-0.04552179
29	0xbe41fb23	-0.18943457
30	0xbe3d4559	-0.18483485
31	0xbdbb954c	-0.091593355
32	0xbe18ec78	-0.14933956
33	0xbe2a935c	-0.16657776
34	0xbdc73cb5	-0.09728376
35	0xbe05e2e6	-0.13074836
36	0xbd7b4637	-0.06134626
37	0xbe1c75a6	-0.15279254
38	0xbdde3a74	-0.10850993
39	0xbc25231c	-0.0100791715
40	0xbdce1031	-0.10061682
41	0xbd46ecf4	-0.04856582
42	0xbd265069	-0.04060403
43	0xbe02d0f1	-0.12775017
44	0x3d7ec269	0.062197123
45	0x3e059cd5	0.13048108
46	0x3ed05eaa	0.40697223
47	0x3e1aafb0	0.15106082
48	0x3e0b4167	0.13599168
49	0x3cfbabe4	0.030721612
50	0x3c193d31	0.009352968
51	0x3e0771ac	0.13226956
52	0x3cbe3ebd	0.023223275
53	0x3c9cb946	0.019131314
54	0xbda05ac7	-0.078298144
55	0x3e2b91b5	0.16754802
56	0x3e65adba	0.22429553
57	0x3d20438d	0.03912692
58	0x3e271eab	0.16320293
59	0x3e101282	0.1406956
60	0x3d3d489b	0.04621182
61	0x3d8f63b6	0.0700144
62	0x3dc4ca18	0.09608859
63	0x3dbe0367	0.09277993
64	0x3d3e26f7	0.04642388
65	0x3d972483	0.07380011
66	0xbce4ff03	-0.02795363
67	0xbd333372	-0.043750234
68	0x3ec02d67	0.3753464
69	0xbd4f603a	-0.05062888
70	0xbd9af252	-0.0756575
71	0xbe044228	-0.12915862
72	0xbe00c51c	-0.12575191
73	0xbdb5ca33	-0.08876457
74	0x3c324278	0.010880105
75	0x3bc87a74	0.006118113
76	0xbd90c4bc	-0.07068774
77	0x3d084785	0.03327133
78	0x3d2eadeb	0.04264633
79	0x3c1ced7c	0.009578105
80	0xbdd359bf	-0.10319852
81	0xbd3ae4df	-0.045628425
82	0x3d14531e	0.03621208
83	0x3d92c28a	0.07166012
84	0xbc98d36f	-0.018655507
85	0xbd1d6b02	-0.03843213
86	0x3db91c85	0.09038643
87	0x3d83886b	0.06422504
88	0xbd234307	-0.039858844
89	0xbe439702	-0.19100574
90	0x3e1c2cd1	0.15251471
91	0x3c058913	0.008150357
92	0x39db4d8c	0.00041828712
93	0xbdc3f64e	-0.09568463
94	0xbe3aec9e	-0.18254325
95	0xbdc45d6c	-0.09588131
96	0xbcf173f6	-0.02947424
97	0xbe048164	-0.12939984
98	0x3da28272	0.07935037
99	0xbe0d22c0	-0.13782787
100	0xbe77b772	-0.24191073
101	0xbd06503b	-0.032791357
102	0xbdc19a1d	-0.09453223
103	0xbe16e5ae	-0.14736053
104	0xbd065d48	-0.032803804
105	0xbd96415d	-0.07336686
106	0xbd34a023	-0.04409803
107	0xbd8a09b9	-0.06740136
108	0x3d601599	0.054708097
109	0x3dd45e54	0.10369554
110	0xbd7271ce	-0.059190564
111	0xbb63f5bd	-0.0034783923
112	0xbd21a6d0	-0.039465725
113	0xbd4611e7	-0.048356917
114	0xbd55d551	-0.052205388
115	0xbd78a1da	-0.06070123
116	0x3ccc8cd5	0.024969498
117	0xbd91117b	-0.07083412
118	0xbc767fd6	-0.015045127
119	0x3806b7ff	3.211945e-05
120	0xbdba1d91	-0.090876706
121	0x3cd07b18	0.02544932
122	0xbc47b342	-0.0121887345
123	0xbd6227c3	-0.0552137
124	0x3b957f58	0.0045622997
125	0x3d6d8c19	0.057994936
126	0x3d015d44	0.031583086
127	0xbd1e7a50	-0.038690865
128	0x3d123ce4	0.0357026
129	0x3c69c0bf	0.014267146
130	0x3e097c2e	0.13426277
131	0x3e0d81a6	0.13818988
132	0xbd6ed5ba	-0.058309294
133	0xbb7fb8a8	-0.0039019976
134	0x3e04edd2	0.12981346
135	0x3c89e379	0.0168321
136	0xbdc85709	-0.09782226
137	0xbd4f4b37	-0.05060884
138	0xbd3286b2	-0.043585487
139	0xbdd5c75f	-0.10438418
140	0xbe0a4be3	-0.13505511
141	0x3cfaeab7	0.030629499
142	0x3d9da10c	0.07696733
143	0xbe127ebb	-0.14306156
144	0xbe19526a	-0.14972845
145	0xbde0d317	-0.10977762
146	0xbc02a8c2	-0.007974805
147	0xbe16583a	-0.14682093
148	0xbe1defb6	-0.15423474
149	0xbdf7e5d5	-0.12104384
150	0xbe298e01	-0.16558076
151	0xbd801e92	-0.06255831
152	0xbe91a297	-0.2844436
153	0xbe9bd35a	-0.30434686
154	0x3d22a508	0.039708167
155	0xbda96809	-0.08271796
156	0x3e446e64	0.19182736
157	0xbdd3143e	-0.10306595
158	0x3d11e65f	0.03562009
159	0xbd8e06f1	-0.06934918
160	0x3d111c56	0.035427414
161	0xbd868b4d	-0.06569538
162	0xbcc77fca	-0.024352927
163	0xbdcad797	-0.09904402
164	0xbde7c4ca	-0.113168314
165	0x3d85d67f	0.065350525
166	0xbc9055a6	-0.017618965
167	0x3c3fba6a	0.011702159
168	0x3caa03c9	0.020753758
169	0x3d3b4c07	0.045726802
170	0xbcc9b98e	-0.024624612
171	0x3ce05edc	0.027388982
172	0xbd82a034	-0.063782126
173	0x3c66fd3f	0.0140984645
174	0xbb9365d8	-0.0044982247
175	0x3e0014a7	0.12507878
176	0xbd2e4a8f	-0.042551573
177	0xbd8f143e	-0.06986283
178	0x3eba1a96	0.36348408
179	0xbdcb3928	-0.09923011
180	0x3db06be7	0.08614331
181	0xbdacf778	-0.084456384
182	0xbc9aec42	-0.018911485
183	0x3cab5891	0.020916255
184	0xbd8e7ed4	-0.06957784
185	0x3cf31b0c	0.029675983
186	0xbe05dc6a	-0.13072363
187	0x3d3de4c9	0.046360765
188	0x3e098afe	0.13431928
189	0xbcb355ed	-0.021891559
190	0xbd982b18	-0.074300945
191	0xbd4b319e	-0.049607866
192	0xbd26ded5	-0.040739853
193	0x3df07e31	0.11742819
194	0xbd5b6935	-0.05356713
195	0xbbd8901e	-0.006608977
196	0x3cdc81c8	0.026917353
197	0x3dd23f1e	0.10265945
198	0xbd90b0fd	-0.07065008
199	0x3b4b75db	0.003104559
200	0xbdd7249f	-0.10505032
201	0xbd02834c	-0.031863496
202	0xbda66c07	-0.08126073
203	0x3d664487	0.056217697
204	0xbd2e3786	-0.04253342
205	0x3d8d00e5	0.06884936
206	0x3d8853d3	0.06656613
207	0x3d646230	0.0557577
208	0xbc7d7e80	-0.0154720545
209	0x3d17f3aa	0.03709761
210	0x3d51e51d	0.05124389
211	0xbc94c34f	-0.018159537
212	0x3d8bdc7e	0.06829165
213	0xbda3405a	-0.079712585
214	0xbc742f98	-0.014903925
215	0xbcc4daf3	-0.024030184
216	0x39f89fcc	0.00047421304
217	0x3b1f79ec	0.0024334146
218	0x3d2dce86	0.042433284
219	0x3e396eb6	0.18108639
220	0xbdead92e	-0.11467205
221	0xbdb41bd2	-0.08794369
222	0xba7e0709	-0.00096903794
223	0x3d1f6b3b	0.038920622
224	0x3de7eb73	0.11324205
225	0xbdbd063c	-0.09229705
226	0xbaf330e2	-0.0018553997
227	0x3b6c690e	0.003607336
228	0x3cc62fc3	0.024192696
229	0xbdb9490b	-0.09047135
230	0x3dc8a90e	0.097978696
231	0xbcacf70a	-0.021113891
232	0xbe104252	-0.14087799
233	0xbcc88f7d	-0.024482483
234	0xbd753877	-0.059868302
235	0x3d2d29c0	0.042276144
236	0xbd7ef58e	-0.062245898
237	0xbd8571a5	-0.065158166
238	0xbaff1fbc	-0.0019464414
239	0xbd682c9f	-0.05668318
240	0x3db10e9c	0.08645365
241	0x3cc31fc4	0.023818858
242	0xbe102547	-0.1407672
243	0xbd1107fa	-0.035407998
244	0xbd340875	-0.043953378
245	0xbd089c0c	-0.033351943
246	0xbb9ec1a4	-0.004844861
247	0xbe0fd6ca	-0.1404678
248	0xbdde9a1f	-0.1086924
249	0xbe05cf39	-0.1306733
250	0xbd25d60a	-0.040487327
251	0xbd420278	-0.047365636
252	0xbd910555	-0.07081095
253	0xbd36189f	-0.044457074
254	0xbdfa72ae	-0.12228905
255	0xbe048645	-0.12941845

lstm.weight_hh_l0 f4 [512, 128]
0	0xbb303ae9	-0.0026890582
1	0xbdc60fac	-0.09670958
2	0xbda37a7d	-0.07982347
3	0x3c2143fe	0.009842871
4	0xbe0c20c6	-0.13684377
5	0xbb57c58b	-0.0032924141
6	0xbcbb1cf6	-0.022840958
7	0x3d2d1b22	0.042262204
8	0x3e0e5de2	0.13903001
9	0x3979f88d	0.00023839083
10	0xbd57e139	-0.052705023
11	0x3d508e93	0.05091722
12	0x3d49f41b	0.049305063
13	0x3ced28e9	0.028950172
14	0x3da2df86	0.0795279
15	0xbcf6a009	-0.030105608
16	0xbe076b7f	-0.132246
17	0xbe2f7258	-0.17133462
18	0x3e779658	0.24178445
19	0x3d9528be	0.072831616
20	0x3c9d726c	0.0192196
21	0xbdabf890	-0.08397019
22	0x3db34c2d	0.08754764
23	0x3e174838	0.14773643
24	0x3d18ca56	0.037302338
25	0xbbd6dfbf	-0.0065574343
26	0xbc92c1cd	-0.017914677
27	0xbd92ea4f	-0.07173597
28	0xbcd2d41f	-0.025735913
29	0xbdbdb47f	-0.092629425
30	0xbbec7d85	-0.0072171115
31	0xbd82cea4	-0.0638707
32	0xbdb974c4	-0.090554744
33	0x3c098a93	0.008394855
34	0xbdd03b63	-0.10167577
35	0xbd643a57	-0.0557197
36	0x3d716a32	0.058939166
37	0x3dc9bd5a	0.09850569
38	0x3d96d892	0.07365526
39	0x3a5eb1d5	0.0008495127
40	0xbdd80cd7	-0.10549324
41	0x3d33c682	0.043890484
42	0xbbc79763	-0.0060910448
43	0xbd94c3cc	-0.07263908
44	0xbd526eab	-0.051375072
45	0x3b3086a2	0.0026935716
46	0x3dd9fc0d	0.10643778
47	0x3dde0d05	0.10842327
48	0x3cffc47d	0.031221623
49	0x3cff5b1c	0.031171374
50	0xbe230cf7	-0.15922914
51	0xbde70dd6	-0.11281936
52	0xbbc7244a	-0.006077324
53	0xbc71be18	-0.014754795
54	0xbd8ddb04	-0.069265395
55	0xbd0fca7d	-0.035105217
56	0xbd53d6da	-0.05171857
57	0xbdb79aec	-0.08965096
58	0xbc99037b	-0.018678417
59	0xbc03fb88	-0.008055575
60	0x3dc3d969	0.09562952
61	0xbc4c2466	-0.01245985
62	0x3c95469c	0.018222146
63	0x3d979100	0.074007034
64	0xbbb90936	-0.00564685
65	0x3d64f484	0.05589725
66	0x3e1ea647	0.15493117
67	0xbc33c5ef	-0.010972484
68	0x3d3c62c7	0.04599264
69	0xbcf8cb80	-0.030370474
70	0xbc3f2d1c	-0.01166847
71	0x3de24928	0.1104911
72	0x3d02b1dc	0.0319079
73	0x3dbcc0a2	0.09216429
74	0x3cec2651	0.028826864
75	0xbc07558f	-0.008260145
76	0x3d27567d	0.040853966
77	0x3c12ad34	0.008952428
78	0x3defc44e	0.11707364
79	0x3ca10ade	0.019658502
80	0x3d059654	0.032614067
81	0xbd604385	-0.05475189
82	0xbe278214	-0.16358215
83	0xbd26e36b	-0.040744226
84	0x3c3a7848	0.011381216
85	0x3c96836b	0.018373212
86	0x3b5753d3	0.003285636
87	0x3ba7fe91	0.005126782
88	0x3cc75a74	0.024335124
89	0xbb2321de	-0.0024892013
90	0x3d85851b	0.065195285
91	0xbd42ac20	-0.047527432
92	0xbb67cd7d	-0.0035370283
93	0xbd0e0b43	-0.03467871
94	0xbda76b1d	-0.08174727
95	0xbd050274	-0.032473043
96	0xbcaddc19	-0.021223115
97	0x3e6de7ea	0.23233
98	0x3bd85157	0.0066014933
99	0x3da09be4	0.07842234
100	0x3d43b807	0.047782924
101	0xbe3814a7	-0.17976628
102	0xbd682d1a	-0.056683637
103	0x3e11eb48	0.14249909
104	0xbd3c0ad7	-0.045908775
105	0x3e564636	0.20925221
106	0x3d1f2ba7	0.03885999
107	0xbe1b1513	-0.15144758
108	0x3cf4c8ba	0.02988087
109	0x3dae7978	0.08519262
110	0x3deb10be	0.11477803
111	0x3cc178d6	0.02361719
112	0x3a84d053	0.0010132886
113	0x3c737fb5	0.014861991
114	0x3e04797c	0.12936968
115	0x3c93345c	0.017969303
116	0x39b64dc8	0.00034771697
117	0xbdd6cd0c	-0.10488328
118	0xbe0c6b0e	-0.13712713
119	0xb9519c73	-0.00019990075
120	0x3d95ab7e	0.073081
121	0x3d429883	0.047508728
122	0xbb8d620e	-0.0043146675
123	0x3e69d68b	0.22835748
124	0xbd8fa357	-0.070135765
125	0x3d8dccf4	0.06923857
126	0x3d877a80	0.06615162
127	0xbd2ba33d	-0.041903723
128	0xbe03ee32	-0.12883833
129	0xbda8bedc	-0.082395285
130	0xbd4e77fa	-0.050407387
131	0x3dafe39b	0.08588334
132	0xbdcc3430	-0.099708915
133	0xbd39583b	-0.04525016
134	0x3d0aaa30	0.03385371
135	0x3dd84e77	0.10561841
136	0xbd98ea91	-0.07466615
137	0x3db107e4	0.08644083
138	0x3d23862c	0.03992288
139	0x3bcb1384	0.006197395
140	0x3dcda587	0.100413375
141	0x3d4ca85a	0.04996524
142	0x3dc6e6f6	0.09712021
143	0x3ce4ffa8	0.027953938
144	0xbe4cd7ff	-0.20004271
145	0xbe83c703	-0.2573777
146	0xbbe382bd	-0.0069430755
147	0x3dc811fa	0.09769054
148	0x3e0208ee	0.12698719
149	0x3dfde8c1	0.1239791
150	0x3db00b25	0.08595876
151	0x3de815a9	0.11332256
152	0x3d42b3ae	0.047534637
153	0x3e2930ee	0.16522571
154	0x3bbaed94	0.005704591
155	0x3e0d777d	0.13815112
156	0x3c87a240	0.016556859
157	0x3dc32191	0.09527887
158	0x3d94a08c	0.072571844
159	0xbdadd4a9	-0.08487827
160	0xbdb94111	-0.090456136
161	0x3d8ffc48	0.07030541
162	0xbd57f81b	-0.052726846
163	0xbdc50657	-0.0962035
164	0x3e161648	0.14656937
165	0x3e176067	0.14782868
166	0xbd319f9f	-0.043365117
167	0x3d56d8e3	0.052452933
168	0xbe3b4559	-0.18288173
169	0x3da721c8	0.0816074
170	0xbe513cb3	-0.20433311
171	0xbdae76fe	-0.0851879
172	0x3d9592af	0.07303368
173	0x3d3131ad	0.043260265
174	0xbe0c5868	-0.137056
175	0x3e1fdbc6	0.1561118
176	0xbdf8477b	-0.12123009
177	0xbd7ebf65	-0.062194247
178	0xbe1bbf1e	-0.15209624
179	0x3e402463	0.1876388
180	0x3e4e7f85	0.20165832
181	0xbdf0722b	-0.11740526
182	0xbc6994f8	-0.014256708
183	0xbe36cd64	-0.17851788
184	0xbe261b6b	-0.16221397
185	0xbe4c7c32	-0.19969252
186	0xbcea7dc3	-0.028624421
187	0x3df8b2e6	0.12143497
188	0x3db1cd94	0.08681789
189	0xbe436f8f	-0.19085525
190	0x3ca32961	0.019917192
191	0xbd4c5b62	-0.049891837
192	0xbe117c6c	-0.1420762
193	0x3cecf38b	0.028924724
194	0xbe8971f6	-0.26844758
195	0x3c09e21e	0.008415727
196	0x3bd0458c	0.006355947
197	0xbe3746d6	-0.17898116
198	0xbd6451ce	-0.055742078
199	0xbccf7d4a	-0.025328297
200	0xbe0613a8	-0.13093436
201	0x3e321816	0.17392
202	0x3b18ce7e	0.0023316438
203	0xbe1a3ad0	-0.15061498
204	0xbd8f6fa0	-0.07003713
205	0xbdbba9d5	-0.09163252
206	0x3dce1c4c	0.10063991
207	0xbe764198	-0.2404846
208	0x3e31e405	0.17372139
209	0xbe15952e	-0.14607689
210	0xbbd2c5d2	-0.0064322734
211	0xbd4660a0	-0.048431993
212	0x3ade2aab	0.0016949972
213	0xbdfd56cd	-0.123700716
214	0x3d2ae438	0.041721553
215	0xbe04b052	-0.12957886
216	0x3cd95c95	0.026533404
217	0xbe5a6d07	-0.21330653
218	0x3da94e6d	0.08266912
219	0xbdd9930a	-0.106237486
220	0xbe1bc901	-0.15213396
221	0x3c1b1487	0.009465343
222	0xbe3ec0fe	-0.18628308
223	0xbe01a4d6	-0.12660536
224	0xbd4632e1	-0.048388366
225	0xbe181bc8	-0.14854348
226	0xbe131968	-0.1436516
227	0x3cab847c	0.020937197
228	0x3d953634	0.07285729
229	0xbe145993	-0.14487295
230	0x3ddf87bd	0.10914562
231	0x3d6c883f	0.057747122
232	0xbd03ba2f	-0.03215998
233	0xbdacb459	-0.08432836
234	0xbd96d078	-0.07363981
235	0xbdd778f9	-0.105211206
236	0xbe0e6b94	-0.13908225
237	0xbc382f5c	-0.01124176
238	0xbdce1139	-0.10061879
239	0xbdead89c	-0.11467096
240	0x3cd1b797	0.025600238
241	0x3e3fcd9a	0.18730775
242	0x3e2d195c	0.16904205
243	0x3cddd8eb	0.027080974
244	0x3e00be9f	0.12572716
245	0xbe04a065	-0.1295181
246	0x3bd8e358	0.0066188984
247	0x3e0d1ab6	0.1377972
248	0x3e4735e0	0.19454145
249	0x3e1c7955	0.1528066
250	0x3dd8d302	0.105871215
251	0x3d5a6fab	0.05332915
252	0x3e22b5b4	0.15889627
253	0x3e01373e	0.1261873
254	0x3c86efd5	0.016471783
255	0xbe18b0cb	-0.14911191

lstm.bias_ih_l0 f4 [512]
0	0xbd2334ed	-0.039845396
1	0xbe0497f9	-0.12948598
2	0x3cceef2f	0.025260536
3	0xbc7286cd	-0.014802647
4	0xbc63e181	-0.013908745
5	0x3d1d6224	0.038423672
6	0xbdbf4069	-0.09338457
7	0x3d6bc360	0.05755937
8	0x3a7a3562	0.0009544698
9	0xbd7bec2f	-0.06150454
10	0x3db022ba	0.086003736
11	0xbe18d124	-0.14923531
12	0xbccb79a1	-0.02483827
13	0x3d25dc77	0.040493455
14	0x3d731f9f	0.059356328
15	0xbbe86e2a	-0.0070932107
16	0x3d68c1ca	0.056825437
17	0x3c8b9dd3	0.01704303
18	0x3bba3783	0.005682887
19	0xbde2e397	-0.110785656
20	0xbdddf6f2	-0.10838117
21	0xbd27a905	-0.040932674
22	0xbd4e65b0	-0.050389946
23	0x3c2ba78d	0.010476959
24	0x3d3523fb	0.044223767
25	0xbe0c2212	-0.13684872
26	0xbc4fc363	-0.012680861
27	0xbdb8ecf8	-0.09029573
28	0xbd8ab3ff	-0.06772613
29	0x3da1d8a7	0.07902651
30	0xbd4c8899	-0.049934957
31	0xbc35c61f	-0.011094599
32	0xbd3f63bf	-0.046725985
33	0xbd63a6f4	-0.05557914
34	0x3cc4776e	0.02398273
35	0xbddf9e27	-0.10918837
36	0x3c0a7dd5	0.008452852
37	0xbdda655c	-0.10663864
38	0xbd4ea322	-0.050448544
39	0xbd4dc8ca	-0.050240315
40	0x3c84d331	0.016213985
41	0xbe2a6b0e	-0.166424
42	0xbe1cbc77	-0.15306269
43	0xbdfbab71	-0.12288559
44	0xbc673985	-0.014112835
45	0x3dc1c210	0.094608426
46	0xbcfad1a5	-0.030617544
47	0xbc86957a	-0.016428698
48	0x3cdca10c	0.026932262
49	0xbdd23291	-0.10263551
50	0xbcf18329	-0.029481487
51	0x3e1c8976	0.15286812
52	0xbd805a3f	-0.06267213
53	0xbc4f440d	-0.012650502
54	0x3d76a550	0.060216248
55	0xbd46e96d	-0.048562456
56	0xbd3b6e6f	-0.045759615
57	0xbdac5159	-0.08413953
58	0xbe092e97	-0.13396679
59	0x3d4e897b	0.05042408
60	0x3c69ba78	0.014265649
61	0xbd0e3887	-0.034721877
62	0xbda6388e	-0.08116256
63	0xbd8f744d	-0.070046045
64	0xbc9ac1f0	-0.018891305
65	0xbca93c8b	-0.020658752
66	0x3e342d1c	0.17595333
67	0xbd19f306	-0.03758528
68	0xbd79a7a8	-0.060950905
69	0xbd62a0c3	-0.055329096
70	0x3ce87cb6	0.02837978
71	0x3dd16dcb	0.102260195
72	0xbcc93260	-0.024560153
73	0xbdd9ad6c	-0.10628781
74	0xbe3d6c72	-0.184984
75	0x3d46d94d	0.048547078
76	0xbe0d948a	-0.13826194
77	0xbb36b574	-0.002787915
78	0x3cf80a20	0.030278265
79	0x3d89621c	0.06708166
80	0xbba737a3	-0.005103068
81	0x3d85fc51	0.06542266
82	0xbbba3ac3	-0.0056832745
83	0x3d62fdc2	0.055417784
84	0xbe0df7ef	-0.1386411
85	0xbdc3a26e	-0.095524654
86	0xbd041a45	-0.032251615
87	0xbd732d86	-0.059369586
88	0x3ca81478	0.020517573
89	0x3db1ea4f	0.08687269
90	0xbe228c72	-0.15873888
91	0x3c9eac1c	0.019369178
92	0xbc95bc78	-0.018278345
93	0xbdea0f08	-0.11428648
94	0xbd914ac6	-0.0709434
95	0xbdc0482d	-0.093887664
96	0x3b8865e3	0.0041625365
97	0xbc83e2b8	-0.016099319
98	0xbda4379a	-0.08018418
99	0xbe0ecd6f	-0.13945554
100	0x3d771814	0.060325697
101	0xbd529792	-0.05141408
102	0xbd95cd27	-0.0731452
103	0xbdae2f2f	-0.08505093
104	0x3d949b94	0.07256237
105	0xbde05cb4	-0.10955182
106	0xbd774be1	-0.0603751
107	0x3d43df87	0.047820594
108	0xbdfebb23	-0.12438037
109	0x3d957921	0.07298494
110	0xba60e699	-0.00085792836
111	0xbe20b61a	-0.15694466
112	0xbc944718	-0.018100306
113	0x3a6f88f1	0.00091375323
114	0xbd808c00	-0.06276703
115	0x3cc0d376	0.023538332
116	0x3c7a8469	0.015290358
117	0xbdab4365	-0.08362464
118	0xbda75261	-0.081700094
119	0x3c10df20	0.00884226
120	0xbe0dbd65	-0.1384178
121	0x3ca12859	0.01967256
122	0xbd047910	-0.032342017
123	0x3cb6248c	0.022234224
124	0xbdb72ba2	-0.08943869
125	0xbcedc01a	-0.029022265
126	0x3d5d20a7	0.053986218
127	0xbc39a723	-0.011331352
128	0x3d1ef974	0.038812116
129	0xbe0f334f	-0.13984416
130	0x3c464b00	0.012102842
131	0xbd1226bc	-0.03568147
132	0xbd808211	-0.06274808
133	0xbb3e23ff	-0.0029013155
134	0xbe00bcb2	-0.12571982
135	0xbb7120fe	-0.0036793347
136	0xbd91348a	-0.07090099
137	0x3d20698e	0.039163165
138	0x3d4d6974	0.050149396
139	0xbd2f5b9f	-0.042811986
140	0xbcd1a71f	-0.025592385
141	0xbc2bac8d	-0.010478151
142	0xbe377bf8	-0.17918384
143	0xbe3fdaec	-0.18735856
144	0x3d2289fe	0.03968238
145	0xbe225962	-0.1585441
146	0xbe0c4e08	-0.13701642
147	0xbd88b4f1	-0.06675137
148	0xbe097a17	-0.1342548
149	0x3ce1b762	0.027553264
150	0xbd2c72a0	-0.042101502
151	0x3d536dd3	0.05161841
152	0xbdb371d2	-0.08761944
153	0xbd15b20d	-0.036546756
154	0xbe29921c	-0.16559643
155	0xbdc5c9b2	-0.09657611
156	0xbd99bf49	-0.07507188
157	0xbd034f29	-0.032057915
158	0xbcae347f	-0.021265266
159	0xbc13c935	-0.009020139
160	0x3c385ccb	0.011252592
161	0xbcfea522	-0.0310846
162	0x3b20e7df	0.0024552268
163	0x3d20830f	0.039187487
164	0xbdf62ac2	-0.12019874
165	0xbdf3a2ff	-0.118963234
166	0xbd003426	-0.031299733
167	0xbe0e381a	-0.13888589
168	0xbe26c8db	-0.16287558
169	0xbde8bdef	-0.11364352
170	0xbd91413b	-0.0709252
171	0xbdc6fe68	-0.09716493
172	0xbdffbb81	-0.124869354
173	0x3c905f5b	0.017623594
174	0x3d0eb171	0.03483719
175	0xbe044b25	-0.1291929
176	0x3c49121e	0.012272386
177	0xbdf870b7	-0.12130874
178	0xbe44ac39	-0.19206323
179	0xbea30eee	-0.31847328
180	0x3d1cbfe7	0.03826895
181	0xbd30f8fe	-0.043206207
182	0xbdb6f6e2	-0.08933808
183	0x3ccd2c7f	0.025045631
184	0xbde255b3	-0.11051502
185	0xbcedd570	-0.029032439
186	0xbd12b7cf	-0.035819825
187	0x3c961a01	0.018322947
188	0xbdb64447	-0.088997416
189	0xbe86787a	-0.2626379
190	0xbbe7d671	-0.007075124
191	0xbd956d65	-0.07296256
192	0xbd031404	-0.03200151
193	0x3cb7da78	0.022443041
194	0xbe8a2ab8	-0.26985717
195	0xbb8f3ec1	-0.0043714945
196	0xbda5dda6	-0.08098917
197	0xbd2de276	-0.042452298
198	0xbdf26a8b	-0.11836728
199	0xbddf6613	-0.10908141
200	0xbd2ef965	-0.04271831
201	0xbdcb9240	-0.09940004
202	0xbe40eee3	-0.18841128
203	0x3d224197	0.039613333
204	0xbe5b6124	-0.21423775
205	0xbc917c38	-0.017759427
206	0xbd9818cf	-0.07426607
207	0xbea8eed0	-0.329947
208	0xbd8017c3	-0.06254532
209	0xbd8dbb75	-0.0692052
210	0xbd9a959c	-0.07548067
211	0xbd678b77	-0.05652949
212	0xbe05cf1d	-0.13067289
213	0xbe1e1c81	-0.15440561
214	0x3d1f3e52	0.038877793
215	0x3d37ccdb	0.0448731
216	0xbd99a3fa	-0.07501979
217	0xbcd98994	-0.02655486
218	0xbe19cc9a	-0.15019456
219	0x3bb656de	0.0055645546
220	0x3d607b8f	0.054805335
221	0x3d089211	0.033342425
222	0xbe10279a	-0.14077607
223	0xbdcacf00	-0.09902763
224	0xbdc35924	-0.095384866
225	0xbe9ae3f1	-0.3025203
226	0xbd071130	-0.032975376
227	0xbd85315d	-0.06503556
228	0xbd381fe4	-0.04495229
229	0xbd43fdea	-0.047849573
230	0xbcc24120	-0.023712695
231	0xbe67b397	-0.22627102
232	0x3c36b191	0.011150734
233	0xbe4bbeee	-0.19897053
234	0xbde75ead	-0.11297355
235	0x3ce56189	0.02800061
236	0xbde61602	-0.112346664
237	0xbd878d66	-0.066187665
238	0xbe1ad7e8	-0.15121424
239	0xbe526f27	-0.20550214
240	0xbda9b478	-0.08286375
241	0xbd06c126	-0.032899044
242	0xbda22bf7	-0.07918542
243	0xbdba935a	-0.09110136
244	0xbddef34a	-0.108862475
245	0x3ca73b2e	0.020413961
246	0xbe0b79cc	-0.1362068
247	0xbde2db80	-0.110770226
248	0xbe71837f	-0.23585318
249	0xbd087d22	-0.03332246
250	0xbc8121d7	-0.015763206
251	0xbd8f6d99	-0.07003326
252	0xbd97349e	-0.07383083
253	0xbd7f5e86	-0.062346004
254	0x3d166835	0.036720473
255	0x3c79ee1c	0.015254524

lstm.bias_hh_l0 f4 [512]
0	0x3d28037b	0.041018944
1	0xbd91a2c3	-0.071111225
2	0x3d88e8ec	0.06685051
3	0xbd9a2a1b	-0.07527562
4	0xbcd2e4c0	-0.025743842
5	0xbd43ea0a	-0.04783062
6	0xbcd795af	-0.026316492
7	0xbd2d2119	-0.042267893
8	0x3cabe74b	0.020984313
9	0xbd4db17a	-0.050218083
10	0x3d064792	0.0327831
11	0xbdd8516e	-0.105624065
12	0xbddabad1	-0.10680164
13	0x3bfe2d42	0.00775686
14	0x3e157747	0.14596282
15	0x3c9bd9ba	0.019024719
16	0xbdc1526c	-0.09439549
17	0x3b9a985b	0.004717869
18	0x3e18519c	0.14874882
19	0xbd5ee88b	-0.05442099
20	0xbd0346ca	-0.03204993
21	0x3bc2fd5e	0.005950614
22	0x3cfa7ff3	0.030578589
23	0x3cf06d0d	0.029348874
24	0xbcfac1b1	-0.030609937
25	0xbc06818a	-0.008209595
26	0xbda7b7dc	-0.08189365
27	0xbdaa8e30	-0.08327901
28	0xbd25c240	-0.040468454
29	0xbd1e97f1	-0.03871912
30	0xbccafdf3	-0.024779296
31	0xbdcf3ab3	-0.10118618
32	0xbda23b4f	-0.079214685
33	0x3be5b7c1	0.0070104306
34	0xb7b5fee7	-2.169558e-05
35	0x3cc550e5	0.024086425
36	0xbcf7079c	-0.030154996
37	0xbc77b0b1	-0.01511781
38	0x3d3e70d4	0.04649432
39	0x3ce98d38	0.028509721
40	0xbae365f0	-0.0017349105
41	0xbe12fc55	-0.1435407
42	0xbb4d460f	-0.0031322276
43	0xbd200fd8	-0.03907761
44	0xbdc9a8d4	-0.098466545
45	0xbd61a2e9	-0.055087004
46	0xbda71029	-0.08157379
47	0xbcfd49f1	-0.030919047
48	0x3be2f7bc	0.006926505
49	0x3cdc5086	0.026893865
50	0xbdd41619	-0.10355777
51	0x3df9daf7	0.12199967
52	0x3d514c51	0.05109817
53	0xbbe6cea9	-0.007043679
54	0x3ca610bb	0.02027165
55	0xbd4ba89d	-0.04972135
56	0x3c727144	0.014797512
57	0xbc786fdf	-0.015163391
58	0xbd4d1854	-0.05007203
59	0xbcf2444b	-0.02957358
60	0xbd95a2c7	-0.07306438
61	0x3d598329	0.0531036
62	0x3d36f3c6	0.044666074
63	0xbca5ad63	-0.020224279
64	0xbcc07b97	-0.023496432
65	0xbd143f49	-0.036193166
66	0x3e0bf154	0.13666278
67	0x3cfe08c6	0.031010043
68	0xbdb37c55	-0.08763949
69	0x3d35a008	0.04434207
70	0xbd8c91cb	-0.06863745
71	0x3da5045d	0.08057473
72	0x3d331340	0.04371953
73	0xbd642f93	-0.055709433
74	0xbe208ce0	-0.1567874
75	0xbccf3f70	-0.025298804
76	0xbdeffbec	-0.11717972
77	0xbe11cc02	-0.14237979
78	0x3d5655e9	0.052328024
79	0xbc89fbcb	-0.016843697
80	0xbc245bb1	-0.010031627
81	0xbd362f6f	-0.04447883
82	0xbdd8e1f8	-0.10589975
83	0xbd676a35	-0.05649777
84	0xbde12a6c	-0.109944195
85	0xbd9765d7	-0.07392471
86	0x3c7edf46	0.015556162
87	0xbdb361c4	-0.08758882
88	0xbd9e2994	-0.07722774
89	0xbd9a31f1	-0.07529057
90	0xbe298721	-0.16555454
91	0xbcccc2ae	-0.024995174
92	0xbc86b59e	-0.016444024
93	0xbd2f0825	-0.042732377
94	0xbd24c190	-0.040223658
95	0xbc8dc328	-0.017304972
96	0xbdb1c815	-0.08680741
97	0x3df2db04	0.1185818
98	0xbca31f45	-0.019912371
99	0xbe2db2ea	-0.16962782
100	0x3cf04fae	0.02933487
101	0x3d5262b6	0.05136367
102	0xbd0fe654	-0.035131767
103	0xbdb8b02b	-0.090179764
104	0xbd2989e9	-0.041391287
105	0xbcce81ce	-0.02520838
106	0xbdeeeefc	-0.116666764
107	0x3d050008	0.032470733
108	0xbd939ddc	-0.07207844
109	0x3d988383	0.07446959
110	0x3d976dbb	0.07393976
111	0xbd3138db	-0.043267112
112	0xbd33fbd5	-0.043941338
113	0xbd5faf36	-0.054610454
114	0xbd8c092e	-0.068376884
115	0xbdbf1ebf	-0.09332036
116	0x3d34758d	0.044057418
117	0xbc7193b6	-0.01474469
118	0xbe1ecdb1	-0.15508153
119	0xbd9e13b2	-0.077186
120	0xbd198ada	-0.037485935
121	0xbdae2e12	-0.08504881
122	0x3d11049a	0.03540478
123	0x3d66a905	0.056313533
124	0xbcf98182	-0.030457262
125	0xbd02f4c2	-0.0319717
126	0x3d02b102	0.03190709
127	0x3df96a9f	0.121785395
128	0xbd7036b7	-0.05864593
129	0xbe4bde07	-0.19908915
130	0x3d557a63	0.05211867
131	0x3d3793e2	0.044818766
132	0xbe069b7a	-0.13145247
133	0xbdf34281	-0.11877919
134	0xbd852827	-0.06501799
135	0xbdac2d38	-0.08407062
136	0xbe0ce83d	-0.13760467
137	0xbd986ab1	-0.07442225
138	0x3d196b8c	0.03745608
139	0xbe2e627c	-0.17029756
140	0xbe0fc74d	-0.14040871
141	0xbd9a943f	-0.07547807
142	0xbe26fd2e	-0.16307518
143	0xbe97739f	-0.295804
144	0xbdb0aa01	-0.08626176
145	0xbe2351bf	-0.15949152
146	0xbe6e62b9	-0.23279847
147	0x3c347c24	0.011015926
148	0xbe13e257	-0.1444181
149	0x3ca45dd7	0.020064278
150	0xbdb2269c	-0.086987704
151	0xbd452b22	-0.048136838
152	0xbce26dd5	-0.027640263
153	0xbc815461	-0.015787305
154	0xbe22f9f8	-0.15915668
155	0xbce170c9	-0.0275196
156	0xbdef319b	-0.11679383
157	0xbdc9569a	-0.09830971
158	0xbda7e8c8	-0.081986964
159	0xbda90182	-0.08252241
160	0xbdf0aa50	-0.117512345
161	0xbd574e58	-0.05256495
162	0xbdd1ad80	-0.102381706
163	0xbc19b2d3	-0.009381014
164	0x3d270f23	0.04078592
165	0x3d2bb568	0.04192105
166	0xbd9ed020	-0.077545404
167	0x3bce4539	0.006294873
168	0xbe275a2c	-0.16342992
169	0xbd9ab7ab	-0.07554563
170	0xbde40e96	-0.111355945
171	0xbe07e028	-0.13269103
172	0x3d2793e4	0.040912524
173	0xbdb88441	-0.090096004
174	0xbd0188d7	-0.03162464
175	0xbe533f69	-0.20629658
176	0xbd09a575	-0.033605058
177	0xbe24a544	-0.16078669
178	0xbe174059	-0.1477064
179	0xbe99b2f2	-0.30019337
180	0x3d5a48ff	0.05329227
181	0x3cd4c923	0.025974816
182	0xbd4939ae	-0.049127273
183	0xbde8268c	-0.11335477
184	0xbddf4b15	-0.10902993
185	0xbd18a31f	-0.03726494
186	0xbd5d2913	-0.05399425
187	0x3d2d4758	0.042304367
188	0xbda933fa	-0.08261867
189	0xbeb04697	-0.34428856
190	0xbddfd4b8	-0.10929245
191	0xbe34bed5	-0.17650922
192	0xbd2c9443	-0.04213358
193	0xbdf17b00	-0.117910385
194	0xbe992ed3	-0.29918537
195	0x3ce51886	0.027965795
196	0xbd0339a8	-0.032037407
197	0xbe07ec3f	-0.13273714
198	0xbd9ab8ce	-0.0755478
199	0x3c25aae8	0.010111548
200	0x3cff33a9	0.031152563
201	0xbe018379	-0.12647809
202	0xbdbc8ef2	-0.09206952
203	0x3d2e3c33	0.04253788
204	0xbdad78fe	-0.08470343
205	0xbe1124d3	-0.14174204
206	0xbc8922d1	-0.016740235
207	0xbebfe835	-0.37481847
208	0xbdf5aeda	-0.11996241
209	0x3d73a047	0.059479024
210	0xbca8ae6a	-0.02059098
211	0xbcb34e39	-0.021887885
212	0xbe20f8d5	-0.15719922
213	0xbcdaa24e	-0.026688721
214	0xbcde2889	-0.027118938
215	0xbc3f4e54	-0.01167639
216	0x3cdbe49f	0.026842413
217	0x3d4c26ef	0.049841817
218	0xbe64d503	-0.22346883
219	0xbdcc5620	-0.099773645
220	0x3d7cf617	0.061758127
221	0xbd0923fd	-0.033481587
222	0xbe6b7ae2	-0.22996095
223	0xbe00c89a	-0.12576523
224	0xbe19f583	-0.15035062
225	0xbeb34f3e	-0.35021394
226	0xbdd7c204	-0.105350524
227	0xbe151470	-0.14558578
228	0xbd0746f5	-0.033026654
229	0x3ccde2c3	0.025132542
230	0xbd833205	-0.06406025
231	0xbe1191be	-0.14215752
232	0x3d01065b	0.0315002
233	0xbe1af5e1	-0.15132858
234	0xbda9c27b	-0.08289047
235	0x3c86c067	0.016449166
236	0xbd1f32c3	-0.03886677
237	0x3b87edc2	0.004148216
238	0xbda6e8d7	-0.081498794
239	0xbe4cd3e0	-0.20002699
240	0xbe6b6649	-0.22988237
241	0x3cfbe6f5	0.030749777
242	0xbcbd034d	-0.023072863
243	0xbd9fd1f6	-0.07803719
244	0x3d7965d0	0.06088811
245	0x3c83ea7d	0.016103024
246	0xbd20a327	-0.039218094
247	0xbe229ddb	-0.1588053
248	0xbe9424fa	-0.2893446
249	0xbd9ababe	-0.075551495
250	0x3c09e404	0.00841618
251	0xbdc522e4	-0.096257955
252	0xbd80de00	-0.06292343
253	0x3d4439a3	0.04790653
254	0xbd00188d	-0.031273413
255	0xbdb337fa	-0.08750911

lstm.weight_ih_l1 f4 [512, 128]
0	0xbd06d98e	-0.03292232
1	0xbc52d07d	-0.01286709
2	0x3ddffc4f	0.10936796
3	0x3e07ec79	0.13273801
4	0xbdba124a	-0.090855196
5	0xbd73d0f6	-0.059525453
6	0x3e03a2f6	0.12855133
7	0x3ddd7de0	0.108150244
8	0x3e146c48	0.14494431
9	0x3d6b73da	0.05748353
10	0xbccc4ed0	-0.024939924
11	0x3d680f4f	0.056655224
12	0x3d99aace	0.075032815
13	0x3d589131	0.05287284
14	0xbe29e21b	-0.16590159
15	0x3d90c94a	0.07069643
16	0xbc372f13	-0.011180657
17	0x3ca6a36f	0.020341603
18	0x3eb44bd6	0.35214108
19	0x3ccb112e	0.024788465
20	0x3cbbcda7	0.022925211
21	0x3decc371	0.11560715
22	0x3d9b5c65	0.07585982
23	0xbb96c8a1	-0.0046015535
24	0x3d4b8d19	0.049695108
25	0xbcab1b20	-0.020886958
26	0x3d894ef9	0.06704516
27	0xbd538df7	-0.05164906
28	0x3ddb948f	0.10721695
29	0xbbdf3efa	-0.0068129273
30	0x3d920b2a	0.071310356
31	0xbdc31ef5	-0.09527389
32	0xbda0325e	-0.07822107
33	0x3b2a512c	0.0025988324
34	0x3d602675	0.054724175
35	0xbd45f378	-0.048327893
36	0x3d6009b2	0.054696746
37	0x3d82e630	0.06391561
38	0xbb986c32	-0.0046515698
39	0xbd357244	-0.044298425
40	0x3d60de43	0.054899465
41	0x3e39e060	0.18151999
42	0xbd8c4c9f	-0.06850552
43	0x3df764ca	0.12079771
44	0x3d37a075	0.044830758
45	0xbd2be0d8	-0.041962475
46	0xbc201516	-0.009770652
47	0x3cf70c7a	0.030157316
48	0xbdb00553	-0.085947655
49	0xbd1f739e	-0.03892862
50	0xbc1c71c7	-0.009548611
51	0xbdc32aee	-0.095296726
52	0x3e11d634	0.14241868
53	0xbe16599a	-0.14682618
54	0xbdf428e7	-0.11921864
55	0x3d3188ac	0.04334323
56	0xbdc80fe3	-0.09768655
57	0xbbeffe58	-0.0073240213
58	0x3d2bdd01	0.041958813
59	0x3d089982	0.03334952
60	0x3cecb1ac	0.028893314
61	0x3ea2cf41	0.31798747
62	0x3e079bce	0.13243029
63	0x3d157f7b	0.036498528
64	0xbe11ce2f	-0.14238809
65	0x3cf0de4c	0.029402874
66	0x3ef5663e	0.47929567
67	0xbd156ac5	-0.036478776
68	0xbded7f10	-0.11596501
69	0xbcd9bc0d	-0.026578927
70	0x3c0c3beb	0.008559207
71	0xbe02b09c	-0.12762684
72	0xbe2e297f	-0.17008017
73	0x3c5d333e	0.013500987
74	0x3ca77a80	0.020444155
75	0x3c739bb4	0.0148686655
76	0xbe02f37d	-0.12788196
77	0x3dcc7421	0.09983087
78	0xbd50b827	-0.05095687
79	0x3e3a0d1b	0.18169062
80	0x3e03e4d8	0.12880266
81	0xbda0aaa5	-0.07845048
82	0xbe16b508	-0.14717495
83	0x3d49762f	0.049184974
84	0xbdbf817b	-0.09350868
85	0xbd817933	-0.06321945
86	0x3dc6441b	0.09680959
87	0x3c30373f	0.010755359
88	0xbdaec197	-0.08533018
89	0xbcd1644c	-0.02556052
90	0x3bbc6742	0.005749614
91	0xbd43eddd	-0.047834266
92	0xbd75bc9f	-0.059994336
93	0xbd76bd28	-0.060238987
94	0xbe03905b	-0.12848036
95	0xbdc42e17	-0.095791034
96	0xbc209f28	-0.009803571
97	0x3e54cb3b	0.20780651
98	0xbd9198d9	-0.071092315
99	0x3dc18748	0.09449631
100	0x3e48636b	0.19569175
101	0xbd985055	-0.07437197
102	0x3e5633b4	0.2091816
103	0x3e84090e	0.25788158
104	0xbd2345cb	-0.03986148
105	0x3d982ce2	0.07430436
106	0xbd98c13c	-0.074587315
107	0xbd8ce8da	-0.068803504
108	0xbdfd1c2f	-0.12358891
109	0xbe12e408	-0.143448
110	0xbd47a275	-0.048738915
111	0x3e088a9e	0.13334128
112	0xbd025e23	-0.031828057
113	0xbd115ea8	-0.03549066
114	0x3d2d5113	0.042313647
115	0xbd36a4a9	-0.044590626
116	0x3cdc82ef	0.026917903
117	0xbc39df05	-0.011344676
118	0xbb0cc5b4	-0.0021480145
119	0x3dd13344	0.10214856
120	0x3e159a1f	0.14609574
121	0x3e34d367	0.17658769
122	0x3c90450b	0.017611047
123	0xbe43b60b	-0.19112413
124	0x3dc400e2	0.09570481
125	0x3c87fb8b	0.016599437
126	0x3d5e34ae	0.054249458
127	0xbdfa114d	-0.12210331
128	0x3d1f0d4c	0.03883104
129	0x3d971695	0.07377354
130	0xbd335780	-0.04378462
131	0xbd82aff8	-0.063812196
132	0x3d85c822	0.06532313
133	0x3c3b1359	0.011418187
134	0x3e1db3bc	0.15400594
135	0xbd045efd	-0.03231715
136	0xbe773d39	-0.24144448
137	0xbc335f1a	-0.010947967
138	0x3d7aa2da	0.061190464
139	0xbd036fb4	-0.03208895
140	0x3d086d82	0.03330756
141	0xbd29963d	-0.041403044
142	0xbdae6a7f	-0.08516406
143	0xbe033c25	-0.12815912
144	0xbdd41a06	-0.10356526
145	0x3dc5b166	0.09652977
146	0x3d3dee41	0.046369795
147	0x3d8444f3	0.064584635
148	0x3dbb0498	0.091317356
149	0xbd2ce5b1	-0.04221124
150	0x3e8ec2c0	0.27882957
151	0x3d6444c1	0.05572963
152	0xbda62fab	-0.08114561
153	0xbd81c2b3	-0.06335964
154	0x3e3f155a	0.18660489
155	0x3dff8645	0.12476782
156	0xbd8d2f0f	-0.06893741
157	0xbe47028e	-0.19434568
158	0xbd579c30	-0.052639186
159	0x3dec2f7d	0.11532495
160	0x3e0e5069	0.13897862
161	0xbc445103	-0.011982205
162	0xbd44ed0a	-0.04807762
163	0xbdabd6a7	-0.08390551
164	0x3d805da1	0.06267858
165	0x3e1b8917	0.15189014
166	0xbd4964a2	-0.049168237
167	0x3d61cac8	0.055125028
168	0x3dceefff	0.10104369
169	0xbcf1bf21	-0.029510083
170	0x3d8bb394	0.06821361
171	0x3dae8c06	0.08522801
172	0xbcc85941	-0.024456622
173	0xbe527fec	-0.20556611
174	0xbd73d9c1	-0.05953384
175	0x3e086d0f	0.13322853
176	0xbdea8706	-0.11451535
177	0xbd1e61bf	-0.038667437
178	0x3e10a5c6	0.14125738
179	0x3dfa2c24	0.122154504
180	0x3d4afb24	0.049555913
181	0xbc4309d0	-0.011904195
182	0x3e865826	0.26239127
183	0x3bd6c6f9	0.006554481
184	0xbb9eb552	-0.0048433924
185	0xbd8fe9b0	-0.07026994
186	0xbd9e52ca	-0.077306345
187	0xbd41c214	-0.047304228
188	0xbdd55037	-0.104156904
189	0x3c618870	0.013765439
190	0x3cec4e65	0.028845975
191	0x3d8c608d	0.06854353
192	0x3dc8de5f	0.09808039
193	0xbc309bc2	-0.010779323
194	0xbdb25ef5	-0.08709518
195	0x3d8119e6	0.06303768
196	0x3e6b21bf	0.22962092
197	0xbca5003d	-0.020141715
198	0x3c7c0430	0.015381858
199	0x3e696b5a	0.22794858
200	0x3e0b5ce9	0.13609661
201	0xbd3a41f4	-0.045473054
202	0xbdd92277	-0.10602277
203	0xbd8f541e	-0.06998466
204	0x3c983ea0	0.01858455
205	0x3ddb2eec	0.10702309
206	0x3dd99160	0.10623431
207	0x3dfc3737	0.12315219
208	0xbd014f0c	-0.031569526
209	0x3da7fec4	0.082028896
210	0x3cb75c9e	0.02238303
211	0x3c683453	0.014172631
212	0x3e068dde	0.13140056
213	0x3d0813ee	0.03322213
214	0xbc677d5e	-0.014129011
215	0x3d11f125	0.035630364
216	0x3dba9881	0.09111119
217	0x3a6b5361	0.0008976963
218	0xbcb8c324	-0.022553988
219	0x3de0dfd6	0.10980193
220	0xbc2cc305	-0.010544543
221	0xbd9b265b	-0.07575675
222	0x3d625072	0.0552525
223	0x3bb128c8	0.005406473
224	0x3d68b5bd	0.056813944
225	0xbe3232af	-0.17402147
226	0x3b681c53	0.0035417273
227	0xbd7ee39b	-0.06222878
228	0xbc27a84c	-0.010232996
229	0xbe3e77cb	-0.18600385
230	0x3bd1f0a1	0.006406859
231	0xbe9e0fbe	-0.30871385
232	0xbd49aed3	-0.04923899
233	0x3d91e935	0.07124559
234	0x3d479b5e	0.048732154
235	0xbe1f216f	-0.15540098
236	0x3e2587d6	0.16165099
237	0x3de0badb	0.1097314
238	0xbe8e0eb8	-0.27745605
239	0xbe340829	-0.17581238
240	0x3c7c32e6	0.0153929945
241	0x3d66b7d2	0.05632765
242	0xbdca9555	-0.09891764
243	0x3d87ef25	0.0663741
244	0xba82abbf	-0.0009969397
245	0xbd208bf6	-0.039195977
246	0x3d920256	0.07129352
247	0x3e03ecec	0.12883347
248	0x3d14e269	0.036348734
249	0x3ccb1c3e	0.02479374
250	0x3d0ce3d9	0.03439698
251	0x3dd3a009	0.10333259
252	0xbdd7da9b	-0.105397426
253	0x3bd3cf7c	0.006463943
254	0x3d97eb60	0.07417941
255	0xbe0e5725	-0.1390043

lstm.weight_hh_l1 f4 [512, 128]
0	0xbe1ab846	-0.15109357
1	0xbd0ab4e0	-0.033863902
2	0x3e0d62cc	0.1380722
3	0xbdbc9ed5	-0.09209982
4	0xbc89967f	-0.016795395
5	0xbc4e500e	-0.012592329
6	0xbd57999d	-0.05263673
7	0x3d60533a	0.05476687
8	0x3c05e9ac	0.0081733875
9	0xbc322f29	-0.010875502
10	0xbd6c3334	-0.05766602
11	0xbe1b7b3b	-0.15183727
12	0xbd26fc3d	-0.040767897
13	0x3e062696	0.13100657
14	0x3e10e5f9	0.14150228
15	0x3dca96a9	0.098920174
16	0xbd0ad438	-0.033893794
17	0x3daa47fa	0.0831451
18	0x3caac08c	0.020843767
19	0xbdbfb7b6	-0.09361212
20	0xbe0f5c3a	-0.14000025
21	0xbd41778f	-0.04723316
22	0xbe28c13c	-0.16479963
23	0x3d81e9a9	0.06343395
24	0xbdfb8199	-0.12280578
25	0xbd2f4e8c	-0.042799518
26	0xbcc33cfc	-0.02383279
27	0xbd3453b9	-0.044025157
28	0x3d4f7d4d	0.050656606
29	0xbbca140b	-0.00616694
30	0x3d33cf88	0.04389909
31	0x3cb116fc	0.021617405
32	0x3d0e84e9	0.03479472
33	0x3e4ea354	0.20179492
34	0x3e1a28ff	0.15054701
35	0x3ca8144f	0.020517496
36	0x3d803207	0.06259542
37	0xbdd6b779	-0.104842134
38	0x3ddd70b6	0.108125135
39	0xbaa929b5	-0.0012906106
40	0xbe05b051	-0.1305554
41	0x3d696b5d	0.056987155
42	0x3d7727c0	0.060340643
43	0x3d9f9af3	0.07793226
44	0x3e026f58	0.12737787
45	0x3db96bd0	0.09053767
46	0xbdc6b8f8	-0.09703249
47	0x3d13e7df	0.0361098
48	0xbdf9b5ee	-0.121929035
49	0xbcd0d0fd	-0.025490278
50	0x3a4edf23	0.00078915263
51	0xbe5edfeb	-0.21765105
52	0xbdc65b8f	-0.09685432
53	0xbd5b39f4	-0.053522065
54	0xbcff111e	-0.031136092
55	0x3c3df50e	0.01159407
56	0x3df71cee	0.12066065
57	0x3cbd0b19	0.02307658
58	0xbdb5768f	-0.08860504
59	0xbe14758d	-0.14497967
60	0x3d0ca2d4	0.034334973
61	0xbddebe68	-0.10876161
62	0x3cacd74a	0.021098752
63	0x3d8ed70a	0.06974609
64	0xbdf91475	-0.12162105
65	0x3d0601b7	0.03271648
66	0x3e187394	0.1488784
67	0xbdf9e068	-0.12201005
68	0xbe23d0a8	-0.15997565
69	0x3c8f6e94	0.017508782
70	0xbdd41efd	-0.10357473
71	0x3de95f07	0.11395078
72	0x3a72cf3c	0.0009262448
73	0xbc948547	-0.018129958
74	0x3df87e80	0.12133503
75	0x3c95bd68	0.018278793
76	0x3e1b505d	0.15167375
77	0x3dfc47dd	0.12318394
78	0x3deb8fa7	0.11502009
79	0x3b819d1c	0.0039554965
80	0xbda9998a	-0.082812384
81	0x3db03e8c	0.0860568
82	0xbc9d62ac	-0.01921209
83	0x3e060f6e	0.13091823
84	0xbdb33a63	-0.08751371
85	0x3b3f5bfc	0.0029199114
86	0x3d67d8cb	0.056603234
87	0x3c3fcbee	0.0117063355
88	0xbd8feb5b	-0.07027312
89	0x3c034cc1	0.008013905
90	0x3d2ea08b	0.042633574
91	0xbc01bfa3	-0.007919225
92	0xbd07c213	-0.033144068
93	0xbd193a09	-0.037408862
94	0xbd961f29	-0.07330162
95	0xbe0e7311	-0.13911082
96	0x3df9c402	0.12195589
97	0xbe1d13c5	-0.15339573
98	0xb9f11c63	-0.00045988252
99	0x3e0cd78d	0.13754101
100	0x3d04b8f0	0.032402933
101	0x3d463dba	0.04839871
102	0xbe6650f4	-0.22491819
103	0x3d564d3f	0.05231976
104	0x3b34b22a	0.0027572014
105	0xba90358c	-0.0011002286
106	0x3dc8b8b1	0.09800852
107	0x3bdedc9c	0.006801201
108	0xbc94a48d	-0.01814487
109	0x3d55091e	0.052010648
110	0x3d1f9063	0.038956057
111	0x3e1dc1d5	0.15405972
112	0x3d7a79b6	0.06115123
113	0x3ce30e52	0.02771679
114	0x3e1341be	0.14380547
115	0xbcfad011	-0.030616792
116	0xbafc0e72	-0.0019230379
117	0x3dd92a6d	0.10603795
118	0x3d3917bd	0.045188654
119	0x3d9490ea	0.07254203
120	0xbb66b778	-0.003520457
121	0x3e04390c	0.12912387
122	0x3b5a1341	0.0033275636
123	0x3d4ca27f	0.049959656
124	0xbd2c0a6f	-0.042002138
125	0x3c891c55	0.016737143
126	0x3d278813	0.040901255
127	0x3df05448	0.117348254
128	0xbdd36b26	-0.10323171
129	0xbc8e9016	-0.01740269
130	0x3e15127b	0.14557831
131	0x3da40d26	0.0801032
132	0xbc63eac9	-0.013910958
133	0xba851ea3	-0.0010156225
134	0x3e9e7a52	0.30952698
135	0xbe14e040	-0.1453867
136	0x3d9044a3	0.070443414
137	0xbcda54e1	-0.026651802
138	0xbe38550f	-0.18001197
139	0xbd3fb660	-0.046804786
140	0xbdadca5f	-0.08485865
141	0x3d90aea0	0.07064557
142	0xbcc1cdce	-0.023657706
143	0xbd3a5e94	-0.045500353
144	0x3df8796a	0.12132533
145	0x3d87170a	0.06596191
146	0x3c8c87b5	0.017154554
147	0x3c1996a5	0.009374295
148	0xbd1879fa	-0.0372257
149	0xbe0edda5	-0.13951738
150	0xbde07b06	-0.10960965
151	0xbda8cb3e	-0.0824189
152	0xbd70be0d	-0.058774997
153	0xbceaa1b6	-0.028641563
154	0x3d80e2fb	0.06293293
155	0xbd970f06	-0.07375912
156	0x3d938be1	0.07204414
157	0x3d54f001	0.051986698
158	0x3dc5729c	0.09641001
159	0x3d49b087	0.049240615
160	0x3dfaec48	0.12252098
161	0x3e834002	0.25634772
162	0x3a0c4c7c	0.0005351973
163	0x3cbb05bd	0.022829885
164	0x3de163a6	0.110053346
165	0x3d0cde1b	0.034391504
166	0x3cbe0724	0.023196764
167	0xbc242b92	-0.010020154
168	0x3d6c79c2	0.057733305
169	0xbda66e3f	-0.081264965
170	0x3d655564	0.055989638
171	0x3c6a83b6	0.014313629
172	0x3da691f3	0.08133306
173	0x3dbc99a5	0.09208993
174	0xbdddab90	-0.108237386
175	0x3e29b73a	0.16573802
176	0xbe1b396f	-0.15158628
177	0xbd9e7638	-0.07737392
178	0x3cba2de6	0.022726964
179	0x3a83d40e	0.0010057704
180	0xbdef0895	-0.11671559
181	0xbdf2ab35	-0.118490614
182	0xbd4908da	-0.049080707
183	0x3dbb1439	0.091347165
184	0x3d75bb98	0.059993356
185	0x3ca50b8a	0.020147104
186	0xbdfa357d	-0.12217233
187	0xbdb6226d	-0.08893285
188	0xbd9f299f	-0.077716105
189	0xbdd5b0ee	-0.10434137
190	0xbd22e725	-0.039771218
191	0xb85cc5ca	-5.2636293e-05
192	0x3d1e8c12	0.0387078
193	0x3da607ae	0.081069335
194	0xbc56afe4	-0.013103459
195	0x3ca22511	0.019793065
196	0xbe0cb011	-0.13739039
197	0x3d8e4983	0.06947615
198	0xbde24ba8	-0.110495865
199	0x3dc8689b	0.09785577
200	0x3d777853	0.060417484
201	0xbde03c82	-0.10949041
202	0x3d6da947	0.058022764
203	0x3d435fad	0.047698665
204	0x3df032af	0.11728417
205	0x3d939b3b	0.07207342
206	0x3da7645d	0.0817344
207	0x3e172fc6	0.14764318
208	0x3d859836	0.065231726
209	0x3e3279f5	0.17429335
210	0x3d49c10a	0.049256362
211	0x3db00fac	0.08596739
212	0xbd7ecead	-0.06220882
213	0x3d75222a	0.059847035
214	0x3d5ff4b1	0.054676715
215	0x3d1e9a9f	0.038721677
216	0xbc9233c2	-0.017846946
217	0xbda10c2b	-0.07863649
218	0x3e0b00d3	0.13574533
219	0xbd0d4509	-0.034489665
220	0xbe5a558e	-0.21321699
221	0xbdeab168	-0.11459619
222	0xbcd51e02	-0.026015285
223	0xbd776d48	-0.060406953
224	0x3dda0e2b	0.106472336
225	0xbe2858a4	-0.16440064
226	0xbba246f6	-0.004952307
227	0x3dbe9473	0.09305658
228	0x3c8c5858	0.01713197
229	0xbdc658e3	-0.096849225
230	0x3d6809f3	0.056650113
231	0xbe33c0f2	-0.17554072
232	0x3e0e81e6	0.1391674
233	0x3dc7d189	0.097567625
234	0x3dbe328b	0.09286984
235	0x3c85ce95	0.016333858
236	0xbd63dbad	-0.05562942
237	0xbdf0ce61	-0.11758114
238	0xbbe8a4f9	-0.0070997444
239	0x3d4fd8da	0.050743915
240	0x3e2f6c1d	0.17131086
241	0xbd6ea9da	-0.05826745
242	0x3d4fc766	0.05072727
243	0x3d28a283	0.04117061
244	0x3d94c093	0.07263293
245	0xbd464d4d	-0.048413564
246	0x3c947507	0.01812221
247	0x3da44e0e	0.080227
248	0xbd23c494	-0.039982393
249	0xbd4160e8	-0.047211558
250	0xbdcd101d	-0.10012839
251	0x3cd4fb05	0.025998602
252	0x3d39f180	0.045396328
253	0xbc5b7af8	-0.013396017
254	0xbcf3c816	-0.029758494
255	0xbd2025c8	-0.03909853

lstm.bias_ih_l1 f4 [512]
0	0xbe114b8c	-0.14188975
1	0xbcb89bf6	-0.022535305
2	0x3d67d23c	0.05659698
3	0xbd947a59	-0.072498985
4	0xbd6ab6ad	-0.05730312
5	0x3bba28bf	0.005681127
6	0xbd07309b	-0.03300534
7	0xbdd8202e	-0.10553013
8	0x3dab5698	0.08366126
9	0xbde52e73	-0.111905
10	0xbde7b8ce	-0.113145456
11	0x3cfedaa2	0.031110112
12	0xbccbaadc	-0.024861746
13	0xbd84c566	-0.06482963
14	0xbcca60c7	-0.02470435
15	0x3cfc5dc2	0.030806426
16	0xbda9ae05	-0.08285145
17	0xbbdfdde5	-0.006831872
18	0x3cea3592	0.028589997
19	0x3de7cfab	0.113189064
20	0xbce8f057	-0.028434915
21	0xbdb7ef9d	-0.089812495
22	0x3d8ad14d	0.06778202
23	0x3db5828d	0.08862791
24	0xbdba4693	-0.09095492
25	0x3db99112	0.09060873
26	0xbda3af3c	-0.07992408
27	0x3c1fd027	0.009754217
28	0xbe5a2e76	-0.21306786
29	0xbe10775d	-0.14108033
30	0xbd981f7c	-0.0742788
31	0x3d3f6367	0.046725657
32	0xbce78b73	-0.028264737
33	0xbe01dafb	-0.1268119
34	0xbbd2d821	-0.006434456
35	0x3d2e1cb1	0.04250783
36	0xbbda6061	-0.0066643213
37	0xbb774fa8	-0.0037736688
38	0xbe204471	-0.15651108
39	0xbda5beac	-0.080930084
40	0x3dafc95e	0.085833296
41	0xbcad9204	-0.02118779
42	0xbc95c20e	-0.018281009
43	0xbde6b16a	-0.11264308
44	0x3c958379	0.018251168
45	0xbcf4da12	-0.02988914
46	0xbb931bda	-0.004489404
47	0xbc0ea364	-0.008705948
48	0xbd0fda42	-0.035120256
49	0x3c145b35	0.009054949
50	0xbd0d411b	-0.034485918
51	0x3cd2bccf	0.025724797
52	0xbdb303dd	-0.08740971
53	0xbd16ff55	-0.036864597
54	0xbd3badd2	-0.045820065
55	0xbc43d8aa	-0.011953512
56	0x3d6fa3ff	0.05850601
57	0x3d8709ee	0.06593691
58	0xbe067e61	-0.13134147
59	0xbcac5f24	-0.02104146
60	0xbd892c7d	-0.066979386
61	0xbe092d4f	-0.1339619
62	0x3dae8db5	0.08523122
63	0xbd7bf320	-0.06151116
64	0x3d808ad1	0.06276477
65	0xbd1aa471	-0.03775448
66	0x3d1a7e61	0.03771818
67	0x3d89e328	0.0673278
68	0xbd91ee1d	-0.07125495
69	0xbd94ac64	-0.072594434
70	0xbda3ff77	-0.080077104
71	0x3c478db3	0.01217978
72	0xbdab00d4	-0.08349767
73	0x3d8dd907	0.0692616
74	0x3d161424	0.0366403
75	0xbdbfc7d9	-0.0936429
76	0xbe014f0a	-0.12627807
77	0xbc019b13	-0.007910508
78	0x3cdf202e	0.027237024
79	0xbd21ae86	-0.03947308
80	0xbd7263e1	-0.059177283
81	0xbb199197	-0.0023432726
82	0x3ca35894	0.019939698
83	0xb873cc21	-5.8125825e-05
84	0x3bcd8439	0.0062718657
85	0xbd616eb2	-0.055037208
86	0xbdc283af	-0.09497773
87	0x3d6d8789	0.057990585
88	0xbd8bc79e	-0.06825183
89	0xbc6f0a57	-0.014589868
90	0x3db3e366	0.08783607
91	0x3cb4244f	0.02198997
92	0x3d0deae3	0.034647834
93	0x3c7281e8	0.01480148
94	0x3b921182	0.0044576535
95	0x3cb73338	0.02236329
96	0x3d66d013	0.05635078
97	0xbd13c3ec	-0.036075518
98	0xbdac8057	-0.084229164
99	0xbe25456c	-0.16139764
100	0x3ab7058a	0.0013963443
101	0xbd88b9e1	-0.066760786
102	0xbb69e0cb	-0.0035686966
103	0x3cb4a738	0.022052392
104	0xba3129a1	-0.00067582174
105	0xbe08adca	-0.13347545
106	0x3c288cf9	0.010287517
107	0x3b6cd5df	0.003613822
108	0xbda92c22	-0.08260371
109	0xbda8079d	-0.08204577
110	0xbc167056	-0.009182056
111	0x3a831b0a	0.0010002565
112	0xbc3475b2	-0.011014389
113	0x3d9dcfc8	0.07705647
114	0x3cff5c8a	0.031172056
115	0x3d85ace1	0.06527115
116	0xbce4d154	-0.027931847
117	0xbce0a150	-0.02742067
118	0xbd61fa76	-0.0551705
119	0xbcf391d6	-0.029732626
120	0x3d7e588e	0.06209617
121	0xbde09621	-0.10966135
122	0xbe0a84f2	-0.13527277
123	0xbe293643	-0.16524605
124	0xbe11bea5	-0.14232881
125	0xbcaef6df	-0.021357952
126	0x3d03adbf	0.03214812
127	0xbdd5bebc	-0.1043677
128	0xbe0377af	-0.12838624
129	0x3d5cd3fd	0.053913105
130	0xbdbab839	-0.09117169
131	0xbdd279f1	-0.10277165
132	0xbd4cb549	-0.049977574
133	0xbd04e89b	-0.032448392
134	0xbc0d59af	-0.008627339
135	0xbdffd690	-0.124920964
136	0x3cef916b	0.029244145
137	0x3d05e15c	0.032685623
138	0xbe0b5d86	-0.13609895
139	0xbceedce1	-0.029158058
140	0xbe06af9c	-0.13152927
141	0xbe2fb644	-0.17159373
142	0x3d5ca036	0.053863727
143	0x3c99bb52	0.01876608
144	0xbddfd9cb	-0.109302126
145	0x3d688795	0.056769926
146	0xbda8de96	-0.0824558
147	0xbc147393	-0.009060758
148	0xbd005c3b	-0.031337958
149	0x3d0e4838	0.034736842
150	0x3c222f45	0.009898965
151	0xbbcd9ed3	-0.006275037
152	0xbcbcc549	-0.023043292
153	0x3c8a7c93	0.016905105
154	0xbb36366b	-0.0027803432
155	0x3d5982e5	0.053103346
156	0xbe2d8a57	-0.16947304
157	0xbd9b570e	-0.07584964
158	0xbd15efa0	-0.036605477
159	0xbc68727b	-0.0141874505
160	0xbdacc932	-0.084368125
161	0x3c76fe7b	0.015075321
162	0x3d2372f8	0.039904565
163	0xbd1eee8e	-0.038801722
164	0xbe1671bd	-0.14691825
165	0x3d946f2d	0.072477676
166	0xbe08103b	-0.13287441
167	0xbcd175c2	-0.025568847
168	0x3ce07743	0.027400618
169	0xbd069381	-0.032855514
170	0x3c2fdf3b	0.010734375
171	0x3d05c173	0.03265519
172	0x3c45f641	0.012082637
173	0xbc831be4	-0.01600451
174	0xbd508475	-0.05090757
175	0xbd1dca7f	-0.038523193
176	0x3b3268ae	0.0027223038
177	0xbd9da799	-0.07697982
178	0xbd8b5f39	-0.06805272
179	0xbe000e40	-0.12505436
180	0xbd101505	-0.035176296
181	0x3caa19d1	0.020764263
182	0xbdafb491	-0.08579362
183	0xbda793ae	-0.081824645
184	0x3d3ca6dc	0.046057567
185	0x3bd67f5d	0.0065459446
186	0xbd1c87bf	-0.038215395
187	0xbd883252	-0.06650223
188	0xbdae9f4d	-0.08526478
189	0xbe25185a	-0.1612257
190	0xbd2ea725	-0.04263987
191	0xbd24850f	-0.040165957
192	0xbdba1dac	-0.09087691
193	0xbd153eba	-0.036436774
194	0xbdb3f867	-0.08787613
195	0x3d60997d	0.054833878
196	0xbd3f7125	-0.046738762
197	0xbd0f2594	-0.034947947
198	0xbe01148a	-0.12605491
199	0x3d27e862	0.040993102
200	0xbe1f61f8	-0.15564716
201	0x3cfd248d	0.030901218
202	0x3b813dcc	0.0039441343
203	0xbcb7ebd0	-0.022451311
204	0xbdeafc3d	-0.11473892
205	0x3d8e04c0	0.069345
206	0x3d88bf3c	0.066771
207	0xbe1419de	-0.14462993
208	0x3c18d99b	0.009329225
209	0xbeab3731	-0.33440545
210	0xbd185185	-0.037187118
211	0x3d595699	0.0530611
212	0x3ca5f4d0	0.020258337
213	0x3d88c880	0.06678867
214	0x3d2daa4c	0.042398736
215	0xbd903856	-0.07041995
216	0xbe2552bf	-0.16144846
217	0x3d9231e2	0.07138421
218	0x3d83c8af	0.06434762
219	0xbdbaa061	-0.09112621
220	0xbe6f36b8	-0.23360717
221	0xbd3ab0df	-0.045578834
222	0xbd66fab0	-0.056391418
223	0x3d4a5837	0.049400534
224	0xbd3878ef	-0.045037206
225	0xbe12477d	-0.14285083
226	0x3c928a27	0.017888142
227	0xbdaff3e0	-0.08591437
228	0xbd57904a	-0.05262784
229	0xbdf9828a	-0.121831015
230	0xbe38db45	-0.18052395
231	0xbcf3b024	-0.029747076
232	0xbdb7e24d	-0.0897871
233	0xbb50d1f6	-0.0031863428
234	0xbdc70a1e	-0.097187266
235	0x3dad1c57	0.08452671
236	0xbd6bf0d2	-0.05760271
237	0xbdb82c70	-0.08992851
238	0xbd26222e	-0.04055994
239	0xbe0c4355	-0.1369756
240	0xbdf5b98d	-0.11998282
241	0xbd350357	-0.04419264
242	0xbd4b78c3	-0.049675714
243	0x3c57cc38	0.013171248
244	0xbd3324ad	-0.04373615
245	0x3d98c91d	0.07460234
246	0xbbd297c3	-0.006426783
247	0xbd8f5a86	-0.06999688
248	0x3cd3584f	0.025798945
249	0xbe3eb7ec	-0.18624848
250	0xbe37a7f6	-0.17935166
251	0xbe0899d5	-0.13339932
252	0xbe066630	-0.13124919
253	0xbd9e4a67	-0.07729035
254	0x3d3c09ef	0.04590791
255	0xbdfe339f	-0.1241219
