data/VesselSimulator/lstm_model_crop.pth (torch, 851468 bytes, 10 tensors)

lstm.weight_ih_l0 f4 [512, 22]
00000000: 3451 da3d 151d c43c d6b4 3fbd 11f5 9d3d
00000010: 6127 953d bcb6 8d3d 8354 f6bc 7fbf 6cbc
00000020: f60c 87bc 07e3 9cbd 9d53 853d c9aa ba3d
00000030: 9c52 183d 288a 62bd 980e 513d dc9a 763d
00000040: 7d5f c93c 4d32 b63c 7c64 5d3d 24f4 98bd
00000050: 7dad b0bc 5db0 763d 9369 e23c 4aa0 f83c
00000060: 36ea f7bc 5c9e 8b3d 9571 43bd fbc0 91bd
00000070: b5b2 af3d 41a2 9f3d 475a 9f3d 4fb8 c13d
00000080: 1274 e63c 0d51 7abb e57d 333d 8d95 f1bb
00000090: 2907 7c3d fc1c 22bd 79c3 8ebc 7028 fa3c
000000a0: 6fbe 973d ae3a 1dbd 9ff8 c83d 600e f3bc
000000b0: 86e5 d8bb 962b 923d c3c4 91bc 8f0e 95bc
000000c0: 7b16 fabc 061d e33c 2290 8bbc c2d7 9838
000000d0: aea7 b0bb 3429 5b3c a577 bcbd ecdd b23c
000000e0: 9347 bfbd 4d8b 78bd 8d52 b0bd 899b f5bc
000000f0: 6ed9 3b3d ea5b 63bd 07f3 963d 5457 803c
00000100: 48f7 95bc c670 9a3d 25dd 9bbd 6abb 4cbd
00000110: a00a abbd ea6f 2ebd 9f89 b13d fea0 793d
00000120: ed36 8fbd 4d93 b7bd cc2b 9cbd 2143 283d
00000130: 1a44 333d 55d1 3dbd dcbf b13d f6d0 853c
00000140: 5c98 703d 6b65 403d 29c4 80bc e4c0 0abd
00000150: 4454 84b9 f907 003d 886d 293c d401 6d3d
00000160: 9386 90bd 6d9c a6bd 81c4 ba3d 3a2f d5bc
00000170: 24fd 6a3d 2668 673d 9b51 8c3d c8ec 893d
00000180: 5ab5 8e3c f04d 85bd 0e6a 32bd cf8a 963d
00000190: 7962 403d c44c 313b 6643 6ebd 4a19 81bd
000001a0: a0e2 e9bc 324e 95bd 0787 b7bc a725 4cbd
000001b0: 70bc 833d ca0b 643d 5841 03bd 81e5 3a37
000001c0: 75da 06bd 6aa6 ac3c ca39 99bb c396 a43d
000001d0: 0c9f 2fbc 485c 77bb 2460 c9bb a214 d53c
000001e0: f348 233d fa1b bbbc f490 df3c bb95 c7bc
000001f0: 5eea abbc 720b d03d f356 903d 7d4a 3e3d
00000200: 00f3 b0bc d99d 073c c394 0e3d 8a6a 58bc
00000210: 15c6 a73d 270b 85bd f523 dcbc deb6 553d
00000220: db8f 82bb 1625 9cbc 7934 8ebb 193a c63c
00000230: 07d2 8d3d 9263 67bd 788a 683d 8c72 513d
00000240: fdf3 8bba 6a63 d9bb dba5 8b3d cd48 3ebd
00000250: f91d 7e3d 3243 a8bc 290d 91bd e90e 893d
00000260: 5a2e 98bd 4d23 413d 4b19 36bd f835 b53c
00000270: 0c80 72bb d084 ad3d 1032 94bc 7262 aa3d
00000280: be03 f0bc 8d8c 27bd bc81 de3c ee13 17bc
00000290: 8dbf 91bc f150 823c 7d72 2abd 3a76 393d
000002a0: 9093 78bd 0de2 873c cbbb 193d 651b df3c
000002b0: ab05 963d 616b 54bd 2107 7a3d 8e39 67bd
000002c0: 1003 aa3d ddf5 a83d a7e0 403d 33eb e63c
000002d0: d910 db3c 299c d83d 73f2 42bd ca29 a83d
000002e0: c4da 82bd a1ee 86bc b794 143b e0dc 21bd
000002f0: abe5 20bd 7d2a 08bd 47d8 4bbd 9a35 323d
00000300: 77bd 7abd b0a4 7b3d be08 97bd 4ad8 84bc
00000310: aed3 44bc 6aea 223d 7695 94bd 7d98 083d
00000320: a97a 073d 8be1 ad3c b9fb 83bc e143 313d
00000330: ceb7 323d ca95 093c 1efb 653c 37a7 afbd
00000340: 2717 c7bd 6429 52bd 5736 953d 7d4b d03c
00000350: 0389 263d d90f 90bb a7d8 8b3c 709e d1bd
00000360: c29c b6bd 8704 073b fe46 92bd 9cda e1bc
00000370: 7b89 33bd ea5b 5cbd 187b 91bd c4b0 f9bc
00000380: efc8 de39 3ab2 883d 282c 7f3d 6f77 e03c
00000390: 5747 a2bd c7a8 c6bc 0aac a1bd 4a4e 5d3d
000003a0: e12b 373d c11c d6bd 7b0f 54bd 92de 8e3c
000003b0: afae c2bd 5a54 dfba ca4c 243d 85d8 bbbd
000003c0: b324 a83c 92e1 c8bd 66c3 10bd 2ba6 a33d
000003d0: ca32 bb3d c0cd 06ba 92fc 3bbd 8d8d 3fbd
000003e0: d32f bebd 7a47 91bd fe06 983d 245d aa3c
000003f0: 2425 f73d 5a8e 86bd 890a a2bc 5704 c4bc
0.106600195 0.023939649 -0.046803318 0.07712758 0.072829016 0.069196194 -0.030069595 -0.014449953
-0.016485672 -0.076604895 0.065100886 0.09114606 0.037188157 -0.055307537 0.05103931 0.06020628
0.024581665 0.022240782 0.054050907 -0.07468441 -0.0215671 0.060226787 0.027638232 0.03034987
-0.030263048 0.06817314 -0.047715742 -0.07116886 0.085790075 0.07794619 0.07780891 0.09458982
0.028131519 -0.0038195283 0.043821234 -0.007372564 0.061530266 -0.039578423 -0.017427193 0.03053686
0.07409369 -0.03838604 0.09813046 -0.02966994 -0.006619158 0.071372196 -0.017794019 -0.018195419
-0.030528298 0.0277238 -0.017036501 7.288113e-05 -0.0053910827 0.013376523 -0.09202508 0.021834336
-0.093398236 -0.060679723 -0.08609495 -0.029981392 0.045861654 -0.055507578 0.073705725 0.015666641
-0.01830639 0.07541041 -0.07610539 -0.04998342 -0.08351636 -0.0425872 0.08668827 0.06094455
-0.06992898 -0.08963642 -0.07625541 0.041079644 0.04376612 -0.046342213 0.086791724 0.016334992
0.05873905 0.04697172 -0.015718536 -0.03387536 -0.00025239785 0.031257603 0.010341056 0.05786307
-0.07056918 -0.081353046 0.091195114 -0.026023496 0.05737032 0.056495808 0.068515025 0.067346156
0.01742046 -0.06509006 -0.043558173 0.073506944 0.04696891 0.0027053813 -0.058169745 -0.06303652
-0.028550446 -0.07290305 -0.022403253 -0.049840596 0.06432426 0.055675305 -0.03204474 1.11398995e-05
-0.03292318 0.021075446 -0.0046760784 0.08036568 -0.010719072 -0.0037744213 -0.006145494 0.026010815
0.03986449 -0.022840489 0.027290799 -0.02436339 -0.020985778 0.10158433 0.07047834 0.046457756
-0.021600246 0.00827738 0.03480984 -0.013208995 0.08192078 -0.06496268 -0.026872614 0.05217635
-0.003984434 -0.019060653 -0.0043397513 0.024197625 0.06924825 -0.056491442 0.05677268 0.05113463
-0.0010677573 -0.0066341655 0.06818744 -0.046456147 0.062040303 -0.020539854 -0.07082588 0.06692297
-0.07430716 0.047152806 -0.044457715 0.02212046 -0.0037002591 0.084725976 -0.018090278 0.08319558
-0.02929866 -0.040905524 0.027161472 -0.00922106 -0.017791534 0.015907736 -0.04161309 0.045278765
-0.0606876 0.016587282 0.03753261 0.027234742 0.073253 -0.051860217 0.061041955 -0.056451373
0.083013654 0.0825002 0.047089245 0.028188324 0.026741432 0.1057666 -0.0475945 0.08211096
-0.063893825 -0.016471209 0.0022671649 -0.039517283 -0.03928153 -0.033243645 -0.049766805 0.04350815
-0.061215844 0.061436355 -0.07374714 -0.016216416 -0.012013359 0.039774336 -0.0725507 0.03334855
0.033075962 0.021225711 -0.016111242 0.043277625 0.04363232 0.008397529 0.014036922 -0.085768156
-0.09721213 -0.051309004 0.07285755 0.02542662 0.04065801 -0.0043964204 0.017071081 -0.10235298
-0.08916618 0.0020602064 -0.07142447 -0.027570061 -0.043832283 -0.053798594 -0.071035564 -0.030479796
0.00042492847 0.06674619 0.06229797 0.0274007 -0.07923763 -0.024250401 -0.07894142 0.05402974
0.04471958 -0.10454703 -0.051772576 0.017440114 -0.095059745 -0.0017038689 0.040112294 -0.09172157
0.020525312 -0.09808649 -0.035342596 0.079906784 0.091405466 -0.00051423535 -0.045895167 -0.046765853
-0.092864655 -0.07093711 0.07423209 0.020796366 0.12067631 -0.0657012 -0.019780414 -0.02392785

lstm.weight_hh_l0 f4 [512, 128]
00000000: 46ad 89bc e019 913d 5f31 7e3d 92ff 00bd
00000010: 70fd 033d d755 a03c f46a 5e3d 7478 2dbd
00000020: 31fa 3bbd 40fd 733d def7 08bd 13dc 703d
00000030: 5939 8cbd 5436 e33c dd58 17bd 03ad d4bc
00000040: 48d3 243d b7cc 293d c47c a1bc 3aea 6dbd
00000050: c4ed 123d f919 96bd 741b c7bc f63e 773d
00000060: 0bf7 19bd 19f3 2c3b 9079 77bc d8d7 c23d
00000070: fbfe 9bbd eebd 153d 0ae6 723d f826 2fbd
00000080: cdda e7bc 30e8 67bd a048 463c 8989 9e3d
00000090: 8fb1 b23d e6f2 cc3c 1ba7 3ebd 624d 99bd
000000a0: e76d 5a3d 449e 933d 9caa 04bd 92c9 be3d
000000b0: b713 5c3d 3a6d e9bc 31db 503d 5639 0b3d
000000c0: d838 03bd 6e93 253d 4429 333d fe22 8b3d
000000d0: cecc 97bd 0fed 253d 24b5 9fbd 1448 833c
000000e0: 49a2 933d 26e9 733c 4a0e ad3d 63be a2bd
000000f0: fb0a 9e3d d508 8d3d bace 7cbd 87c0 babc
00000100: 7258 5ebd ba16 49bd 7e51 c73d 5d29 31bd
00000110: 085c 67bc 12c1 503c 4c39 fe3c 6b7a a9bc
00000120: c048 983d bce7 94bd 4198 88bd 6dc7 4dbd
00000130: f5c0 a23d 37e5 0cbd f7aa 8ebd 2614 c33b
00000140: b59c 693d fbd9 993d 7c27 78bd f4fc 85bd
00000150: a097 5d3d fcde 9e3d baec 82bc 6733 843d
00000160: 706d b13d dfde c4bb d647 14bd a271 743c
00000170: 2df8 c53b 9057 91bd 3ca2 023d 68e5 9b3d
00000180: 5a7a 393d e74b b33d 6214 7a3d f7a8 1a3b
00000190: 35a4 dd3c 306e 333d ee71 113d fa5f a2bd
000001a0: 371b c8bb bccc 65bc d629 fe3c ec73 ac3d
000001b0: 1060 80bc 02ae 4ebc 838f 46bd 9b82 d2bc
000001c0: 8ae0 b9bd 6ec6 6cbc 3679 b63d 9ef3 acbc
000001d0: dff1 55bd a802 77bd 5faf 973d 9d61 a3bc
000001e0: 8907 81bd 7659 4a3d dd85 26bd e65e 88bd
000001f0: de7d a4bd df3d 9bbd 17d5 dabb b980 71bd
00000200: e2d1 4abc 5fd0 56bd 0ca6 67bd 8e6e 54bd
00000210: d9e3 54bd ef80 223c 3711 d3bc 70ae 39bd
00000220: 70d8 18bd dd86 133d ebfe 7b3c 31c8 a33d
00000230: a660 153d adde d8bc 7890 553d 13ea a53c
00000240: ec1a 3fbc 82ff 34bd 3b86 b43b 5ca8 693b
00000250: 189e a2bd 52be a33d 16d1 7ebb 9d5d 633d
00000260: 64c0 a3bd 560a df3b 0b26 983c fcd0 12bd
00000270: 5c91 33bd aa56 b9bc fec9 c23c de1c e6bc
00000280: a9c5 483d 2d3e 333d 7ed5 363d 5005 b43c
00000290: adfe 80bd d31f 903b 8147 93bd 5616 4cbd
000002a0: 56c6 15bd 352a 97bd ea18 3fbd 1743 8b3d
000002b0: 7c54 f63c 064c 5dbd c2ee 96bd 7a88 ac3d
000002c0: d132 fcbc b53e 443d ae94 2c3d 9aaa c73c
000002d0: abdb 8d3d af07 9cbd 5186 edbc 1606 bf3c
000002e0: 1d86 ef3b 5af1 af3c a982 cdbc 0bb4 aa3d
000002f0: eaae 8e3d 2fb1 893d d269 823d fa26 c4ba
00000300: 2197 473d eba9 453c bd38 613d 1edc f1bc
00000310: 604c e5bc 7419 37bd 9939 793a db45 8d3d
00000320: f102 923d 6b84 013c f536 11bd e242 4d3d
00000330: 862f db3c aa74 e4bc fb49 23bd 6b15 9b3b
00000340: 5f0c a1bd 9486 87bc 93c7 303c 3eb1 1c3d
00000350: b452 23bd b5a0 013d c0dd a93d dab3 143c
00000360: d1ff 963d 7ead 1b3d 6253 18bd 3172 aa3d
00000370: 5f6b 83bd fd6b 97bc a99a c33d 0a89 583d
00000380: c88f 46bd a6f1 b93d d50d f53c ec30 b53c
00000390: 4c87 f83c e21b 13bc d178 b53a 1518 8a3d
000003a0: 700f 42bd f341 f23c fdb4 1d3d 8c36 3abb
000003b0: 00a6 653d 700d 72bd 980d a4bd 7433 28bd
000003c0: 52e4 24bd 9a90 103d b60b 2e3d 751c 093d
000003d0: 5178 b3ba ca98 68bd c583 213d cf17 1cbd
000003e0: 90de cb3c 622c 4e3c db6d 03b9 9ed8 d23c
000003f0: 6722 a83c 93ef babd 7e8e 29bd a91b 4fbd
-0.016806256 0.070850134 0.062058803 -0.03149373 0.03222412 0.019572182 0.054301217 -0.0423512
-0.045892898 0.05956769 -0.03343951 0.05880363 -0.06846876 0.027735867 -0.03694998 -0.025961405
0.040240556 0.041454997 -0.019712813 -0.058084704 0.035871282 -0.07329173 -0.024305083 0.06036278
-0.037589114 0.0026390015 -0.015104666 0.09513825 -0.07616993 0.036558084 0.059301414 -0.042761773
-0.028302575 -0.056617916 0.012102276 0.077410765 0.08725273 0.025018167 -0.046546083 -0.07485463
0.053327467 0.07207921 -0.03238927 0.0931579 0.05372974 -0.028494466 0.050990287 0.033990227
-0.032036632 0.040423803 0.043740526 0.067937836 -0.0741211 0.04050928 -0.07798222 0.01602558
0.07208688 0.01488713 0.08449991 -0.0794647 0.07716938 0.0688645 -0.061720587 -0.022796882
-0.054283567 -0.04909394 0.0973234 -0.043252338 -0.014121063 0.012741344 0.03103318 -0.020688256
0.07435751 -0.07270762 -0.06669665 -0.050239015 0.0794696 -0.034398284 -0.06966203 0.0059533296
0.057034213 0.075122796 -0.06058453 -0.065423876 0.05409968 0.07757375 -0.01598202 0.06455117
0.08663452 -0.0060080136 -0.03620132 0.01491967 0.0060415477 -0.07096779 0.031893 0.07612115
0.0452827 0.087547116 0.061054595 0.0023599246 0.02705584 0.043806255 0.035509042 -0.07928462
-0.00610676 -0.014025863 0.031025808 0.08420548 -0.015670806 -0.012614729 -0.048476707 -0.025697043
-0.090760306 -0.014451606 0.08909838 -0.02111226 -0.05223262 -0.060305268 0.07406496 -0.019944007
-0.06300265 0.049401723 -0.040655006 -0.066587254 -0.0803182 -0.0758016 -0.0066782343 -0.05896065
-0.0123791415 -0.052444812 -0.05655484 -0.051863246 -0.051975105 0.0099184355 -0.025765045 -0.045332372
-0.037315786 0.036017288 0.015380601 0.07997168 0.036469124 -0.026473368 0.05213973 0.020253217
-0.0116641335 -0.044188984 0.0055091656 0.0035653329 -0.0794031 0.07995285 -0.003888195 0.0555092
-0.0799568 0.006806652 0.018572828 -0.035843834 -0.043839797 -0.022624332 0.023777958 -0.028089937
0.04901663 0.043760467 0.044637196 0.02197519 -0.062985756 0.004398325 -0.07191373 -0.04982599
-0.0365661 -0.07381097 -0.04665462 0.06799906 0.030069582 -0.05402758 -0.07369758 0.08424468
-0.03078595 0.047911365 0.04213398 0.024373341 0.06926664 -0.07618653 -0.028994711 0.023318332
0.0073096887 0.02147739 -0.025086718 0.08335122 0.06966956 0.06723248 0.0636784 -0.0014965229
0.048728112 0.012064437 0.05498575 -0.029523905 -0.02799052 -0.04470201 0.0009507179 0.068980895
0.07129467 0.007905106 -0.0354528 0.050112613 0.02675606 -0.027887661 -0.039865475 0.004732778
-0.07863688 -0.016543664 0.01078977 0.03825497 -0.039873794 0.031647403 0.082942486 0.009076083
0.07373012 0.038007252 -0.037188895 0.083225615 -0.06416964 -0.01848411 0.095509835 0.052865066
-0.048476964 0.09079294 0.029913822 0.022118054 0.030337952 -0.008978816 0.001384521 0.067428745
-0.047378004 0.029572463 0.038502682 -0.002841386 0.056066513 -0.059094846 -0.08010405 -0.041064695
-0.040256806 0.035294153 0.042491637 0.033474404 -0.0013692473 -0.056786336 0.039432306 -0.038108643
0.0248864 0.012583824 -0.00012534058 0.025738057 0.020524217 -0.091277264 -0.041395657 -0.05056349

lstm.bias_ih_l0 f4 [512]
00000000: 3575 30bd 84a8 65bc 8472 a4bc 6db8 1e3d
00000010: 0281 14bd cede bfbc 23be 65bc ea65 4c3b
00000020: 920f 393d 0329 a63d d234 7d3b e1bc 0cbd
00000030: 7493 b73d e129 203d 825f 9cbd 8549 5c3d
00000040: 38f9 93bd ad04 89bd f7ae 8bbd 0819 9bbd
00000050: 50f8 c3bd 3517 5dbb f27b 94bc 7ca3 babd
00000060: f3e7 9b3d a878 3cbd e01e ab3d d672 ea3c
00000070: c9f7 8bbd 4e3b 013d 56ef eebb c4fb 6dbd
00000080: 5522 65bd c780 8c3d 1896 933d 9e12 b2bd
00000090: b4e3 2bbd eb31 a43d 5fd2 4c3c 92d1 36bd
000000a0: 66a6 3fbd 7195 663d 1288 2b3c a66d 4a3d
000000b0: 9344 803d 6efe 81bd d176 183c ad6a f4bc
000000c0: 4058 9c3c 4959 50bd 8ae9 663d 0447 e83d
000000d0: 6361 b23d 279f d43c fddd e63c 6e71 bdbd
000000e0: 2ea5 98bc 661a 843c eafb 52bc 8b0d 1ebd
000000f0: adc6 72bd b8c4 9f3d 5eae a83d 2116 04bd
00000100: 396f 05bd 6651 9abd b890 21ba 790c 13bd
00000110: cc64 6a3c 6b5d a7bd 3e42 003c 860c ba3c
00000120: a9d6 b93d 216d 4bbd a6fe eabb 6c54 43bc
00000130: 5aea c43d 6350 6a3d 4797 4a3c de08 6e3d
00000140: b247 023e 52c8 533c 9de4 83bc bf22 9fbc
00000150: 6fba b63d 77ca 503d b968 1f3b 9a8f ae3d
00000160: fd75 043c 440c 713c c745 c23d 2ca0 40bd
00000170: 4a10 88bd b823 453d f199 a33d 36ad 173d
00000180: 680c 97bd 54ca 6e3c c5d4 ba3d d846 4d3d
00000190: 277d 753d 3b38 323d 905b 293b 761a 663d
000001a0: 0332 773d 389f 82bb 46ae 2b3d b7a9 c43d
000001b0: b3cc 6bbc efa9 00bc d93a 41bb 1ac7 d13d
000001c0: 7045 af3c 1b48 da3b 2ec2 f4bb 8f4d 813c
000001d0: d361 35bb e15e 353d 885c efbb 1c4c 873d
000001e0: 5fcf ec3b 9808 75bd a11d 3a3c bb03 af3d
000001f0: 8859 36bb f088 693d b86a ad3d 5ea8 e23c
00000200: fd2c d13d 6c91 e83c d17b 59bd 16b1 923d
00000210: 1584 9ebd f650 2d3c 27fb 553d 0889 7f3d
00000220: 7bc0 563d f2ad 623d fad0 9a3c ce67 2dbd
00000230: 38e8 75bb e0db f2bc 8617 a8bd e7e3 c0ba
00000240: 4701 243d a886 0cbb 9246 9a3c fd55 7c3d
00000250: d157 953c fc69 723d ef1d 793d 38ed 62bb
00000260: 5a69 a2bd 4bd3 05bd 6569 763d 9dd9 48bd
00000270: 97a7 92bd 10e9 a63d e3cf a1bd ecd9 ad3a
00000280: de6c 97bd 1315 c93d 60e6 46bd a45c a83d
00000290: 3fe8 9fbc 702b 253c 279d afbc ffa4 a0bd
000002a0: 9394 a23d f754 0a3d 1333 0e3c 07d0 86bc
000002b0: d089 0ebc 163a 85bd 8d26 24bd fc48 a1bc
000002c0: 1196 56bd 611f 80bd bf9a a33c ee69 af3d
000002d0: 94be 05bd 7c39 8b3d 6314 a8bd 1e47 9bbd
000002e0: df25 573c 06ef acbc a66b a63d 34e1 de3d
000002f0: aa6e a7bd 647d 88bd 3a5a 553d 45a1 38bd
00000300: 145a 833d e4c5 aa3b 6fa0 4aba 2168 a03c
00000310: 7663 80bc e6a8 c63c b5b1 823d 8a34 b13d
00000320: 073f a13c 3f8b 98bc ea62 313d 1acd 0bbd
00000330: ce5a 0ebd a2a1 f8bb dbe3 47bd 4567 383d
00000340: 0ae2 313d 08ca 9bbc d108 573d 8a58 9d3c
00000350: 14d2 4cbd f543 b53d 7ce4 f93c 2e94 1ebd
00000360: 5c7c 053d 206c 52bb 845f 7bbd 65f1 0c3d
00000370: b856 2abd c4d6 823c a94f ad3d 66d9 ae3d
00000380: 313e 073c d33d 22bd 609b 4cbb bb9a 49bc
00000390: 89b0 753d ed6c babc 9398 833d 3a66 e9bc
000003a0: 6340 6f3d b0fd 74bc 9a6e 853d 2d5e 783d
000003b0: 3ea3 b4bc 41ee 8abc b513 f5bb 7834 d23d
000003c0: ed88 7e3d f1dc e83c 204a 72bd 6c5d 9a3c
000003d0: 4a7a aa3d 151d ab3d 4db0 893c 2eb9 15bc
000003e0: 894a 073c 2c37 1cbc 7d88 b93d 5244 2abd
000003f0: 9967 e83d e548 573c 8f5e a5bd 3701 8ebd
-0.043080527 -0.014017228 -0.020074137 0.0387501 -0.036255844 -0.023421671 -0.014022383 0.0031188675
0.045180865 0.08113291 0.003863622 -0.034359816 0.08963671 0.03910244 -0.07635404 0.05378105
-0.07225269 -0.06690345 -0.06820481 -0.07573134 -0.09568846 -0.0033735756 -0.018125508 -0.091132134
0.076126 -0.046013504 0.08355498 0.028619211 -0.06834371 0.031550698 -0.0072917147 -0.05810143
-0.055940945 0.068605 0.072063625 -0.08694957 -0.0419652 0.080173336 0.012501328 -0.044633456
-0.04678955 0.056294862 0.010469453 0.049420975 0.062630795 -0.06347357 0.009305672 -0.029836023
0.01908505 -0.0508664 0.056375064 0.1134167 0.08709981 0.025954796 0.028182024 -0.092501506
-0.018633451 0.016125869 -0.012877444 -0.038587134 -0.059271503 0.07801193 0.08236383 -0.032247666
-0.032576773 -0.07535057 -0.00061632274 -0.035900567 0.014306258 -0.08172115 0.007828293 0.02271105
0.09074146 -0.04966462 -0.0071714697 -0.011921983 0.096150115 0.05720557 0.012365169 0.058113925
0.12722662 0.012926178 -0.016100222 -0.019425748 0.08922278 0.050974336 0.0024323894 0.085234836
0.008084771 0.014712397 0.09485965 -0.04702775 -0.06643732 0.048129767 0.07988346 0.03703042
-0.07375413 0.014574606 0.09122614 0.05011639 0.059933808 0.043510657 0.002584193 0.05617758
0.06035043 -0.0039862655 0.041914247 0.09602683 -0.014392066 -0.007853015 -0.0029484539 0.10243054
0.021395415 0.0066614277 -0.007469437 0.015784053 -0.0027676716 0.044279937 -0.0073047318 0.066063136
0.007226869 -0.05982265 0.011359603 0.085456334 -0.002782436 0.05701536 0.084676206 0.027668174
0.10213659 0.028389655 -0.053096596 0.07162683 -0.077400364 0.010578385 0.05224147 0.062386543
0.052429657 0.05534167 0.018898476 -0.042335324 -0.0037522446 -0.02964586 -0.08207612 -0.0014716358
0.04004028 -0.0021442566 0.018832479 0.061605442 0.01823035 0.059183106 0.060819563 -0.0034626257
-0.079302505 -0.032672208 0.060159106 -0.049035657 -0.071608715 0.08149922 -0.07900979 0.0013263798
-0.07393812 0.09818473 -0.048559546 0.08220795 -0.019519923 0.010081157 -0.02143724 -0.078439705
0.079384945 0.033772435 0.008679169 -0.016456617 -0.008699849 -0.0650522 -0.040075827 -0.019688122
-0.05238921 -0.06255985 0.01997125 0.08565126 -0.032652453 0.06798074 -0.082070135 -0.07581924
0.013131588 -0.021110069 0.08126001 0.10882798 -0.08175404 -0.06664541 0.052088 -0.045075674
0.064136654 0.0052115787 -0.0007729595 0.019580903 -0.015672427 0.024250459 0.06381551 0.08652599
0.019683374 -0.018621085 0.043307222 -0.034131147 -0.034754567 -0.0075876275 -0.048801284 0.04502036
0.04342846 -0.019017234 0.052498642 0.019207258 -0.050005034 0.088508524 0.030504458 -0.038715534
0.0325893 -0.0032107905 -0.061370388 0.0344099 -0.041586608 0.015971549 0.084624596 0.08537559
0.008254574 -0.03960974 -0.003122054 -0.012304957 0.05998281 -0.022757018 0.064255856 -0.028491128
0.058411013 -0.014953062 0.06515236 0.060636688 -0.022050496 -0.016959311 -0.007479156 0.10263914
0.0621423 0.028425666 -0.059152722 0.018843375 0.08324106 0.08355156 0.0168077 -0.009138389
0.008257517 -0.009534638 0.09059236 -0.04156906 0.11347885 0.013139938 -0.08074676 -0.069338255

lstm.bias_hh_l0 f4 [512]
00000000: 3c23 853d 6b1a 69bd e44c 64bd 7cdc 823d
00000010: e177 5d3c 57a2 7e3a 4630 9cbd 05cf d63a
00000020: 9399 d7bc 1823 34bb f2a9 acbc ee77 46bd
00000030: 3141 403d 8660 183d cc7d ba3d d042 a63d
00000040: c883 ab3d 5109 a83d c3cc 0d3d 684e 45bc
00000050: 16c7 733d 991f 083b 0b77 5a3d ee09 3abd
00000060: e6c7 bbbc bea0 9d3d 8b6c 523d e48f 923d
00000070: 7da0 98bd 7871 183d be99 9cbd 191b fbbc
00000080: 3ab1 4f3d 5b91 073e 8824 f5bc 1235 73bd
00000090: ac74 00bd f7e5 893d d70a 94bc 934a 37bd
000000a0: d87a 923d 757c a53d 3a50 56bc 184f 13bd
000000b0: 23ad 52bd fbdb 043c f5e3 923d 3932 c83c
000000c0: a665 283c 34d1 a53c ce55 99bb d32c 44bd
000000d0: eb4c 7a3d 4f11 ebbc 9be2 fd3c 3ea7 9bbd
000000e0: 96b2 c23d ec73 efbc 81bb 163d a650 dd3d
000000f0: e6d0 5a3d 196a 9dbc f6ee 563c 1818 8ebc
00000100: 455d 663c a60a 9d3d 7b2c 8cbd c64e e5bc
00000110: 4a18 84bd a7bd 823b 515d 8c3c 74c1 083d
00000120: b972 7b3d 45be 753c 8c39 78bd c410 673d
00000130: 708c a33d 95b5 e2bc 1c64 053d 050a 4dbd
00000140: e01b c9bc ff65 85bc f5e1 adbc ac61 83bd
00000150: 0892 1bbc ff9c d93c fac2 48bd 4361 61bd
00000160: 3299 323b a0a9 893b a78e 82bd b70e 373a
00000170: 0f53 5abb fa28 d4b9 11e6 2cbd b462 213c
00000180: da29 e0ba 31fd 40ba b7eb 983d 4c05 b93c
00000190: 0ba9 463d 2fa7 fb3c 4aef a13d ce68 3b3c
000001a0: 39bc 883c fbc6 5dbd b770 033d 5008 0f3d
000001b0: 9b10 443d 683f cdbc e89e c63c d24f 6ebd
000001c0: ef7f 2cbd 9a85 8b3c 0523 46bb 167a e43c
000001d0: f673 08bd 0759 57bd a44b ad3b 7fb4 3c3d
000001e0: c240 1b3d b020 b8bc b66b c43d 61b9 a73d
000001f0: 0859 9b3c 87b6 84bc 3708 c33d 150c 4bbd
00000200: c641 b83d 116e 083d 16b3 4fbd a916 103c
00000210: e705 653d 297f a13d 4201 24bd 3b95 b13c
00000220: 8ba7 92bd b042 48bd 9e15 b6bb 8b65 e0bc
00000230: 6526 a0bd 82ca 14bd 2392 3e3d 46b7 be3d
00000240: 85db 73bd d4c4 303d 4be8 6fbd f670 ffbc
00000250: fc62 723c 7b75 83bc 23f1 a1bd 2076 8e3d
00000260: 0126 45bd ee17 21bd be05 81ba 700a bdbc
00000270: 1437 05bd fb8f 94bd 9568 e53c c64c 05bd
00000280: 2d40 6c3d a168 a83d 3488 363c 1739 7dbd
00000290: 5873 8c3d e6cf 05bd 0c35 04bd 32bb 623d
000002a0: 8210 613d b6b4 933c eac5 863d 236b bb3b
000002b0: cc0c a9bd 79fa 8b3d 5cd5 babd 46b8 e23c
000002c0: 861f 0bbd ef5a 0fbc cd70 1e3c 49bd 41bd
000002d0: f34d 78bd 92d8 0abc 768b a93a 4f90 aebd
000002e0: 38fa b23d 15bb 9e3d f30a b9bc 989a 673b
000002f0: 320c a3bd 6a5e 28ba 39a1 a63d 2127 b1bd
00000300: 6f94 c63c 366e d3bc fd47 64bd 42a6 8f3d
00000310: 9453 a63d 4da0 72bd 8c0d ddbc 1034 31bd
00000320: 5b52 a1bb 9197 9abd 3af7 a239 42b4 81bc
00000330: 82dd 2bbd 1173 09ba f48d 0eba e4f1 05bd
00000340: aafe aabb a4d5 0e3c ebdd 8e3d ac72 8bbd
00000350: 1564 b93d 6781 933c 0dc6 7dbc 4143 13bd
00000360: 04e7 f63c 369e b13b 0709 a7bb f121 ce3d
00000370: 5281 2f3c f30a c43d 5465 8e3d 9280 13bd
00000380: 35ec aa3d 2c09 353d 817a c7b9 18e5 803d
00000390: a1c0 28bd a313 d43c da09 a0bd 762c 543d
000003a0: b159 c53d ef57 63bd 89f5 bb3b 09f9 ab3d
000003b0: 62c1 7abd fa12 edbc ad18 2cbd 7ca3 47bd
000003c0: 33b9 c4bc 3f24 ec3d 8dc7 83bd 53d0 043d
000003d0: bdef 023d fa4f 143d 2a2f f1bb b087 99bd
000003e0: f439 d1bc a19e e53c 5dfb 6f3d aa6b 993d
000003f0: da61 e73d c0e0 1ebd 0aaa 4bbd 4785 913b
0.06500861 -0.05690996 -0.05573739 0.0638971 0.013517351 0.00097135216 -0.07626395 0.0016388601
-0.026318347 -0.0027486738 -0.02107713 -0.048454218 0.04693717 0.037201427 0.09106025 0.08118212
0.08374745 0.08204902 0.034619104 -0.012042619 0.059516035 0.0020770787 0.053336184 -0.045419626
-0.022922467 0.07696675 0.051373046 0.07156351 -0.07452486 0.037217587 -0.076465115 -0.03065257
0.050706126 0.13239042 -0.029924646 -0.059376784 -0.031361267 0.067333154 -0.018071575 -0.044748854
0.07152337 0.08080379 -0.013080651 -0.0359641 -0.051434647 0.008109088 0.071723856 0.02443801
0.010278141 0.020241357 -0.004679418 -0.04789431 0.06110851 -0.028694777 0.030991843 -0.07600258
0.09506719 -0.02923008 0.03679991 0.10806398 0.053421877 -0.01921563 0.013118496 -0.017345473
0.014060323 0.07668047 -0.068444215 -0.027991664 -0.06449945 0.0039898935 0.01713434 0.033387616
0.061388705 0.014998977 -0.060601756 0.056412473 0.07985771 -0.027674476 0.032566175 -0.050058383
-0.024549425 -0.016283987 -0.021225909 -0.06415114 -0.009495266 0.02656412 -0.04901407 -0.055024397
0.0027251956 0.004201129 -0.06374865 0.00069830887 -0.0033313667 -0.0004046632 -0.042211596 0.009850193
-0.0017102316 -0.0007361947 0.07466834 0.022585534 0.048501056 0.030719368 0.07906969 0.011438562
0.016691314 -0.05414484 0.032089915 0.034920037 0.0478674 -0.025054649 0.024245694 -0.05818159
-0.042114194 0.01703148 -0.0030233276 0.027890246 -0.033313714 -0.052575137 0.005288558 0.046070572
0.037903555 -0.022476524 0.09590857 0.08189655 0.018963352 -0.016200317 0.09523051 -0.04957207
0.0899692 0.033308093 -0.0507079 0.008794465 0.055913832 0.07885582 -0.040040262 0.021677604
-0.071608625 -0.048891723 -0.005556776 -0.02739217 -0.07819823 -0.03632594 0.046526086 0.093123004
-0.059535522 0.04315646 -0.05857114 -0.031181794 0.0147941075 -0.01604723 -0.07907321 0.06956124
-0.048131946 -0.03932946 -0.000984363 -0.023076266 -0.03252323 -0.072540246 0.02800397 -0.03254392
0.05767839 0.082230814 0.011140872 -0.061822023 0.068579376 -0.03266897 -0.032277152 0.055354305
0.054947384 0.018030506 0.06580718 0.005719559 -0.08254394 0.06834883 -0.09122726 0.027675759
-0.03396561 -0.008749708 0.0096704485 -0.047299657 -0.060621213 -0.008474486 0.0012935239 -0.085236184
0.08739132 0.07750527 -0.022588229 0.0035339948 -0.079613104 -0.000642276 0.081362195 -0.08650041
0.0242407 -0.025809389 -0.055732716 0.07014133 0.0812141 -0.059234906 -0.026983999 -0.04326254
-0.0049231476 -0.0754844 0.00031083246 -0.015833024 -0.041959293 -0.00052432815 -0.0005438023 -0.032701388
-0.0052183466 0.008717928 0.06975921 -0.06808981 0.09052292 0.01800604 -0.0154891135 -0.03595281
0.030139454 0.0054204715 -0.0050975117 0.100650676 0.010711985 0.09572401 0.069529206 -0.036011286
0.08345834 0.0441982 -0.0003804751 0.06293696 -0.04119933 0.02588827 -0.07814379 0.051800214
0.09636248 -0.055503782 0.005736057 0.08397109 -0.06121958 -0.028939713 -0.04201572 -0.048739895
-0.024014091 0.11530351 -0.06434546 0.032425236 0.031966913 0.036209084 -0.0073603587 -0.074965835
-0.02554033 0.028029742 0.058589328 0.074912384 0.112979606 -0.038788557 -0.04972271 0.0044409367

lstm.weight_ih_l1 f4 [512, 128]
00000000: f646 303d 1b44 123d 7c44 863d 5db5 a43d
00000010: dfbb 933c ab9c 8ebd 3cc4 9fbd ca56 32bc
00000020: 8dcf e43c e3f5 b53c 21f7 15bd be63 d53c
00000030: 0ac8 1e3c dbb8 56bc 0423 c4bc c1b8 46bb
00000040: ae39 79bd 2e59 523d b557 5c3d 6ce3 1ebd
00000050: bdbb 37bd 794c a0bd 80cd 663d f6dd 873d
00000060: 0c8d afbc cfb0 6abd 9826 a9bd 03bc 593d
00000070: 036d 9d3b a074 4ebd 0e33 7abc b474 b33d
00000080: 5e3b 513c 3a73 9abd a93f 4cbd b7c7 153d
00000090: 418f 72bd 638d d43c 4026 4cbd 425d cc3c
000000a0: 797d 16bd afab fdba 4eb8 be3d 3222 213c
000000b0: 6b9d 8b3d 3039 973d db51 e6bb b6aa 12bd
000000c0: 587f ac3c 160a 593d 737e 2c3d ef42 4b3d
000000d0: e24b c13d c211 313d 0a0a 84bd 36a0 ec3b
000000e0: 9837 0f3d b637 7fbd 13b9 99bc 64bc 8f3d
000000f0: a561 91bd c891 743d 9285 18bd 3fec 96bd
00000100: 37ce 7f3d c35b 4c3d 77b6 c9bc c253 de3b
00000110: 0332 24bd 1575 fcbc 9549 743d 4386 4cbd
00000120: 96d6 3dbd ae42 42bd 19a9 fc3c 01a4 163d
00000130: 7e49 813d be99 f8bc 4729 c13b dde9 923d
00000140: ba40 92bd e8b5 8f3d 48ef 533d 8618 60bb
00000150: 3c48 2abd 1ba6 98bc 4709 3e3d 1ba4 7ebd
00000160: 031e 193d 45f5 afbc e477 d93c a7c4 a13a
00000170: b885 9a3d ae21 033e 18bb 713d fed4 9f3b
00000180: 41b8 7cbd b1b1 d7bc 6488 183c a930 7a3d
00000190: 42d7 28bd 38ea 8abc f4b0 1bbd 85b3 b3bd
000001a0: dcde f63b b13a 953d 6e1d baba 6e32 89bd
000001b0: 046d 70bd 7c82 51bd a7ef a43a 49c1 943d
000001c0: db3a 63bc d7a4 b53d 0e09 fcbc 185b d43c
000001d0: 9daf 8abd 0511 42bd 4fe2 96bc a798 80bd
000001e0: dff9 f23c d00b aa3d 65bd 943c ad4e a53d
000001f0: 959c 32bc fa92 4ebc d0ff a3bd 30f3 e53c
00000200: 57be 8fbd c597 8c3c b274 503d 2459 48bd
00000210: 56ee 88bd 5a7c a1bd ae17 233c c859 8dbd
00000220: e7a0 babc 98d2 043d 78d4 f5bb a2d2 f63b
00000230: 0a57 26bd a98a 473d 4fee 823d 4083 bd3b
00000240: 52b4 4a3b 48b4 1cbd 83dc 533c 933d 483d
00000250: 347a 593d d5a6 b13d 595f 80bc 8511 983d
00000260: 81b7 4abd 1c79 86bd 44e3 d9bc bfd1 ba3d
00000270: 411b 8d3c 9626 b6bd 88f1 f6bc 7c5e 26bc
00000280: 06e2 613d 719a b1bd 7f9f 69bd 98b4 fcbb
00000290: f31f 463d 614b a0bc 7372 f4ba a3ab 35bd
000002a0: b2b4 98bd e014 723d 5b15 bc3d 4717 6cbd
000002b0: d6da 21bd 3e7d 953d 5b26 93bd 5ef6 1d3c
000002c0: 005c 92bd 4d22 683d fc94 9f3c 90a1 8dbc
000002d0: dad0 43bd 4e4b fd3b 0052 81bd 285f 56bc
000002e0: 0749 b9bc 6831 273d f701 aa3b fe8a 9f3d
000002f0: fbf0 1c3b 4054 693c f6be 8c3d 949b 853d
00000300: 3b3e 27bd 13ce 41bd 8ca5 cd3c fb5b 973c
00000310: 9ebb 38bd 1a4c 0e3d e9e9 d1bb 18f2 a4bd
00000320: ce7d 9cbd ec92 273c 2b5b 45bd 9c80 80bd
00000330: a2a7 213d f79e ba3d 63cd 2dbd 1e1a adbc
00000340: 9fcf 6d3d 3b1d c83b 18bb 70bd 88a9 90bd
00000350: 3478 96bd 82ce 803d 5662 cdbc b578 a53d
00000360: 4c70 3e3d 226c bbbd 7894 b9bc 1b10 c3bc
00000370: f0f6 3a3d afa9 ea3d 6187 8d3c 1f7f 883d
00000380: bf23 b43d 0d90 213d 42f3 93bc afee 2b3c
00000390: 5461 2fbc 60de 83bd a244 09bd fefe 533d
000003a0: 3d3c acbc a0d7 1a3d b99e f0b9 4775 0f3d
000003b0: 2232 303c 9007 203d 8860 96bd 09b2 24bd
000003c0: 45ec 1b3d b25d 8c3d 6102 38bd 4638 8c3d
000003d0: fac9 893d 824d e6bc 8b8d c43c 85bb 8bbd
000003e0: a61f 043d 2da9 893d 7bd6 c7ba 9a61 a73d
000003f0: 1b6d 5c3d f6f5 09bd bde9 8fbc 11bf 30bd
0.043036424 0.03570948 0.06556031 0.08042405 0.01803392 -0.06963476 -0.078011006 -0.01088495
0.027931 0.022211974 -0.036612634 0.026048537 0.009691248 -0.013105596 -0.023942478 -0.0030322524
-0.060846023 0.05135458 0.05379458 -0.038791105 -0.044856776 -0.07827086 0.056348324 0.066341326
-0.021429561 -0.057297524 -0.08259314 0.053157818 0.004804255 -0.05040419 -0.015270961 0.08762494
0.012770502 -0.07541509 -0.0498654 0.036567416 -0.05921865 0.025946325 -0.049841166 0.024946813
-0.036740754 -0.0019353534 0.09312497 0.009834813 0.068171345 0.073839545 -0.007028801 -0.035807334
0.021056816 0.052988134 0.04211278 0.04962438 0.094383016 0.043229826 -0.06447227 0.007221247
0.034965128 -0.06230899 -0.018765008 0.070183545 -0.07098702 0.05970934 -0.037236758 -0.07369279
0.06245252 0.0498922 -0.024623139 0.006784887 -0.040086757 -0.030817548 0.059640486 -0.04993273
-0.046347223 -0.047426872 0.03084235 0.0367775 0.06312846 -0.030346747 0.005894813 0.07173512
-0.07141252 0.07017118 0.05174187 -0.0034194305 -0.041572794 -0.018633893 0.046395566 -0.062168222
0.037382137 -0.021479258 0.026546426 0.0012341932 0.07545036 0.12805817 0.059016317 0.0048776856
-0.061699156 -0.026329847 0.009309862 0.061081562 -0.04122091 -0.016957387 -0.038010553 -0.08774475
0.007533891 0.07286585 -0.0014199445 -0.06699072 -0.058697715 -0.05114983 0.0012583629 0.07263429
-0.013869013 0.08869331 -0.030766036 0.025922343 -0.06771777 -0.047379512 -0.01841846 -0.06279116
0.029660163 0.08303034 0.018156717 0.08071647 -0.01090159 -0.012608284 -0.08007777 0.028070062
-0.07018726 0.017162213 0.05089254 -0.048913136 -0.06686084 -0.07885046 0.009954376 -0.0690189
-0.022781802 0.0324274 -0.007502135 0.0075324336 -0.04061035 0.04871622 0.0639311 0.0057834685
0.0030930233 -0.038257867 0.012930992 0.048886847 0.053095058 0.08674399 -0.015670465 0.074252166
-0.04949141 -0.065660685 -0.026597627 0.09122037 0.01722491 -0.088940784 -0.030144468 -0.010154363
0.055147193 -0.086720355 -0.057036873 -0.007711958 0.048370313 -0.019567193 -0.0018649831 -0.04435314
-0.0745634 0.05910194 0.09183761 -0.057639387 -0.03951534 0.07299279 -0.0718505 0.009641258
-0.07146454 0.056673337 0.019480221 -0.017288953 -0.0478066 0.0077299243 -0.063144684 -0.01308421
-0.02261783 0.0408186 0.0051882225 0.077901825 0.0023947346 0.014241278 0.068723604 0.06523815
-0.040830832 -0.04731567 0.025103353 0.018476477 -0.0451008 0.034740545 -0.006406058 -0.08053988
-0.07641183 0.0102279 -0.048182648 -0.0627453 0.039466508 0.091123514 -0.0424322 -0.021130618
0.05805933 0.006107 -0.058772177 -0.070635855 -0.07347146 0.06289388 -0.025071304 0.08079664
0.046493813 -0.09151484 -0.022653803 -0.02381139 0.045645654 0.11458146 0.017276468 0.066648714
0.087958805 0.03944402 -0.01806033 0.010493918 -0.010704357 -0.06438899 -0.03351272 0.05175685
-0.021024818 0.037803292 -0.00045894625 0.035023954 0.01075414 0.039069712 -0.073426306 -0.04020885
0.03806712 0.068538085 -0.044924144 0.06846671 0.06727977 -0.02811313 0.023993274 -0.06822876
0.032256745 0.06721721 -0.0015246415 0.08172913 0.05381499 -0.033681832 -0.01756751 -0.043150965

lstm.weight_hh_l1 f4 [512, 128]
00000000: d653 34bd 5ca4 5fbc d4ea 243d 40f5 5a3c
00000010: 2058 a6bd 7872 90bd d0f6 763d 4ac7 a03d
00000020: e165 0d3d c0bb 863c f77b 9e3d e8f6 753d
00000030: d400 a3bb da51 8c3d 7540 3fbd 394c b03d
00000040: 8d39 643c 14b5 ddbc b8af 823d 96a7 c33c
00000050: 34b4 02bd 55ba 3d3d 2df0 1cbd a8f8 d43c
00000060: 154f f93c 9a4c 8abd cac9 a1bd 6af5 bbbc
00000070: 2b86 eabd a877 843d a510 f33c e9cf 503c
00000080: 720a 293d 7066 43bd bd99 65bd 0b00 aa3d
00000090: 1f56 df3c ee9c b3bd 916b 9fbc a5c3 f3bc
000000a0: cbdb abbd 6f34 a03d bd7e cf3c 4333 3a3d
000000b0: e3f8 963d 6992 24bd d1e6 60bd cf4d 97bc
000000c0: e33e 6f3d 65c5 f2bc 71e3 0dbd c475 023d
000000d0: d1ce a3bd 9ef4 a1bd 83e8 85bc eeee f63c
000000e0: 0120 823d 82f0 9bbd 8563 d33b 5dae 3abd
000000f0: f9f5 a8bd 5854 48bd 59f4 d3bc ad07 c93b
00000100: b4f3 25bc 654d ddbc 4993 4cbd 801f 843d
00000110: d0e2 493d afae 043d c0c2 f5bc 6e37 cdbc
00000120: 38b8 90bd 3018 483d cb67 af3c a8a2 8b3d
00000130: 20ba 9d3b 9acb b83c 0b1f 943b 1df9 a23d
00000140: abe0 cdbc ab6e 98bc 8fa4 1bbd e385 a3bb
00000150: 23a8 a9bc cae0 9abc 2bd6 693d 52f2 cb3c
00000160: b5aa 99bd 16a8 3d3d 7f35 ee3c b37e 753d
00000170: 0d9e f23c 2c1e fbbc 8a18 50bc bfed 42bd
00000180: 6f00 debc 7b32 303d 350d 1ebc 30a1 84bd
00000190: 5bff da3c 1ea9 043d b4dc 5f3d 1a9f 2dbd
000001a0: bc88 7a3d d000 ea3c fa58 a83d e9ce 9e3d
000001b0: 0ad4 ae3d 0187 643c b972 33bd ba17 34bd
000001c0: 42aa 32bc 6496 17bd fedf bc3d 5742 4abd
000001d0: 3eac 983d 5d75 63bc 17f3 08bc c763 b0bd
000001e0: 9406 553d fa47 583c c501 583d 64aa c83c
000001f0: aafa 13bd 661f 423d 3204 1e3d 74a4 993d
00000200: 668a 893c d985 823d 8557 353d 1094 98bd
00000210: b90c 7f3d 774d 0d3d 78fe db3c 5367 273d
00000220: 58ca 543c 4e2e 863d d06a 52bd dcfb 2bbd
00000230: 2e2e 59bd 747f 31bd b8ab ae3d f5f6 93bd
00000240: 55dc ba3d 4121 4d3c e32e 69bd 5598 ab3d
00000250: 4397 a53c 967c 783d 1dec 35bd 7f98 823d
00000260: 5d4d 613d 0a84 243d 739c 03bd 1836 a33d
00000270: 72b3 843d 3027 493d 022f a7bd 61ed 02bb
00000280: 00e0 b13d 4c8b 49bd fa25 61bc e171 0e3c
00000290: a624 b4bd 9d1d 09bd 1b26 9b3d 75a4 10bd
000002a0: 28ee 68bd 2305 b1bd cff2 43bd 1bea 19bd
000002b0: a049 2dbd 469f 51bc 3962 7c3d f254 e13c
000002c0: 9213 acbd 3647 a63d e06e 0b3d 1951 83bd
000002d0: b20c 6dbd 4743 483c f170 473d 2bd6 a33d
000002e0: a371 003d 4df8 043d 900c 123d 2666 73bd
000002f0: 4620 9a3d 39f0 cd3b 76dd 4a3d 6e93 63bd
00000300: b744 863d c451 3abd 0948 07bd 083b 36bd
00000310: a2d2 923d d608 c9ba 6d6d 59bd 2f75 2bbb
00000320: f4de 84bd 3a6f 4dbd ddd8 60bd 97b6 50bd
00000330: db21 42bd ee15 88bd c150 9b3d 95d8 2b3d
00000340: 41be c03c 3fc1 a93c 87c5 d63c 9711 a7bc
00000350: 35f0 72bc 07af 803b 3266 9dbd 85be a7bb
00000360: 6f54 07bd 49bc ba3d 284a 06bd f726 0e3c
00000370: 8121 19bd 82ff 86bd c10b 1c3d 96eb 073d
00000380: 53e3 73bd 7e0b 153d 34b9 6cbd 1bcb ecbb
00000390: 66db 86bd 4c00 3abd d7f6 28bc 8a78 25bd
000003a0: 48bd f0bc a804 1d3d 5942 b83d a157 1cbb
000003b0: bc60 edbc abd8 8dbd 5640 86bd 5484 fe3c
000003c0: 8890 9a3d 1c5e d83c d161 cb3c 3d6c 19bc
000003d0: ebd4 ae3d 0ce2 0f3d 075b 68bd f2c4 9a3d
000003e0: 7ee1 95bd 522a 5bbd 81e8 543d 5cbd 5c3d
000003f0: bdfa 33bd f99f b8bd da44 873d 8cfd 613d
-0.044025265 -0.013650026 0.040263012 0.013364136 -0.08122277 -0.07053083 0.060293972 0.07850511
0.034520987 0.016446948 0.07738488 0.06004992 -0.004974464 0.068515494 -0.04669233 0.08608288
0.013929737 -0.027063884 0.06381172 0.023883622 -0.031910136 0.04632028 -0.038314987 0.025997475
0.030433217 -0.06752892 -0.07899816 -0.022944171 -0.11451372 0.06468135 0.029671023 0.012744882
0.041269727 -0.047705114 -0.05605482 0.083007894 0.027262745 -0.08770166 -0.019460471 -0.029756377
-0.083915316 0.07822501 0.025328988 0.045459043 0.0737169 -0.04017869 -0.054907624 -0.01846972
0.058409583 -0.02963514 -0.034640733 0.03185059 -0.079984315 -0.07907985 -0.016346222 0.030143227
0.063537605 -0.076142326 0.0064510726 -0.045576442 -0.082500406 -0.04890856 -0.02587335 0.006134948
-0.010128904 -0.027014444 -0.04994515 0.06451321 0.04928857 0.032393154 -0.03000009 -0.025050845
-0.07066387 0.048851192 0.021411797 0.068181336 0.0048134476 0.022558022 0.004520302 0.07957671
-0.025131544 -0.018607458 -0.037998732 -0.004990326 -0.020710057 -0.018906016 0.057089012 0.02489582
-0.07503263 0.046302877 0.029078243 0.059935283 0.02961638 -0.030654036 -0.012701163 -0.047590014
-0.027099816 0.043016892 -0.0096467035 -0.064760566 0.026733091 0.032387845 0.05465384 -0.04238806
0.061165556 0.02856484 0.08220096 0.07754309 0.08536537 0.013948203 -0.04381058 -0.04396794
-0.01090485 -0.037008658 0.092224106 -0.049379673 0.074547276 -0.013882962 -0.008358738 -0.08612781
0.052008227 0.013200754 0.052736063 0.024495311 -0.036127724 0.047393225 0.03857822 0.0750207
0.016789626 0.06373186 0.04427292 -0.07450116 0.062267993 0.034497704 0.026854739 0.040870022
0.012987696 0.06551801 -0.051371396 -0.04198824 -0.053022556 -0.04333444 0.085288465 -0.07224838
0.09124056 0.012520135 -0.05692948 0.083786644 0.020213729 0.06066569 -0.04441463 0.063767426
0.05500542 0.040164985 -0.032131623 0.07969302 0.06479539 0.049109638 -0.08163263 -0.0019977915
0.08685303 -0.04920511 -0.0137419645 0.008694143 -0.08796053 -0.033475507 0.075756274 -0.03531309
-0.05686775 -0.08643558 -0.047838982 -0.037576776 -0.042306542 -0.012794321 0.06161711 0.027506325
-0.0840217 0.08119051 0.034041286 -0.064119525 -0.057873435 0.012223071 0.048691694 0.07999834
0.031358372 0.03246336 0.03565651 -0.05942359 0.07525687 0.0062847403 0.049527608 -0.05556052
0.06556075 -0.045488134 -0.033027682 -0.04448989 0.07169081 -0.0015337716 -0.053082872 -0.0026162376
-0.064878374 -0.050154902 -0.054894317 -0.05095538 -0.04739557 -0.06644808 0.07583762 0.041954596
0.02352822 0.02072203 0.026217235 -0.02039413 -0.014827778 0.003927115 -0.07685508 -0.0051191472
-0.033039507 0.09117944 -0.032785565 0.008676282 -0.037385467 -0.06591703 0.038097147 0.033183657
-0.059542965 0.036387913 -0.05779381 -0.0072263605 -0.06584816 -0.04541044 -0.010312757 -0.040398158
-0.029387131 0.03833452 0.0899703 -0.0023855942 -0.02897679 -0.06926092 -0.0655524 0.031068958
0.075470984 0.026412062 0.024826916 -0.009364185 0.08536705 0.035127684 -0.056727435 0.075570956
-0.073184 -0.053507157 0.051979546 0.053891525 -0.043940295 -0.09014887 0.06604929 0.05517344

lstm.bias_ih_l1 f4 [512]
00000000: 9379 bd3d d655 c43d 3d92 a53d ca05 04bd
00000010: a926 9a3b f296 53bd c88f a03c f027 b53c
00000020: b5cc 92bb 8467 933b ff86 60bb 67ab 15bd
00000030: 585e 5e3d ae06 09bd cf5c 8b3d 80f3 94bd
00000040: 3e91 7a3d 7d38 b33d 004b f93c 86d9 acbb
00000050: 68f2 45bd 261e 91bc 3426 5d3c d6ba 913d
00000060: 9936 6d3d 3913 e3bc 86a5 89bd 0064 89bd
00000070: c0a0 553d d5e1 9b3d 5b69 66bd cb1d 16bd
00000080: ba27 e53c e0e2 753d ba98 04bd 92ea 173b
00000090: 2855 713d adf7 c53c fb8a aa3d e582 88bd
000000a0: ee27 56bc ec82 853d 8d8e bdbc 1019 7ebd
000000b0: 38e6 aa3d 5d0f 1bbd 71ce ad3d a9d6 363d
000000c0: 7858 eabb aeec 053d 4aa8 ddbc 1a89 193d
000000d0: 3244 5cbd f3cd 8fbc b814 833d d0e2 c53c
000000e0: aef0 1bbc de83 aa3d 3c1a 8d3c a823 be3d
000000f0: 485d 0e3d 630a 93bc 8479 833d 69b0 0ebd
00000100: d4d0 fd3c 14ea fd3b 990b b0bc 108a cc3d
00000110: 54c2 533c f6a2 73bd bc7a 8a3d f81d 3fbd
00000120: a655 473d 6221 8cbc c195 543d 55e3 2a3d
00000130: e463 943c c606 bb3c 6a3a 013c bcfa ffbc
00000140: 48dd 943d 1c2d 80bc b6a7 8fbd 0248 eebc
00000150: 52ad 9a3d d560 903d 1c68 853c c0f6 5abd
00000160: b3d6 a7bd be0e 573d 7106 a03d 67dc 48bd
00000170: adb8 fa3c 3565 543d e2a5 c5bc fb0b bebc
00000180: c535 be3d 2d99 8fbd e170 11bd cfaf 313d
00000190: a5b2 b43b 17ce 113d 2656 223d 0283 633c
000001a0: b3bb b33d 465e 1b3d 1e46 223c 6191 80ba
000001b0: 142f acbc c5d0 aebb f80a a8bb e439 e0bb
000001c0: 4ca2 6f3d edde 853d 917a ae3d 1caf 713c
000001d0: e8cf 53bd 1b02 8abd 61f1 73bc 7f70 c1bc
000001e0: 9634 a83d 41db 13bd d01c a53d 8d84 5a3d
000001f0: 352e 40ba ab62 0fbd 48c0 7b3d 8cc6 5a3d
00000200: 1a33 873d 489d 423d 5a4b 28bd 2256 783d
00000210: 8511 a5bc 98fb 5e3d 8866 53bc cecd 53bd
00000220: e7d9 91bd cf21 0a3d 90bf b53d 054d 53bd
00000230: b26f 9c3d 5168 89bd cd90 243d 100d 0cbd
00000240: 1d1d 4bbc 04af 3cbc 271a a8bd 625f 42bc
00000250: 5797 d33d 7128 d13c 2356 88bd 9864 cb3c
00000260: 2eab f6bc bd8a 853d a02f 24bd 3ba7 b8bc
00000270: 8025 a93c 2152 a03d ff25 bebd 2743 41bd
00000280: 659d 7fbb 1fbe a83d f604 f2bc 6666 03bd
00000290: 61f7 03bc bf68 d23c 5f9c adbb 147b ad3c
000002a0: ec8a 01bd 76c2 39bd 3a4e 493d da00 bdbc
000002b0: a82c 6e3d 0eeb 45bc ca20 c03c 7ce7 4dbc
000002c0: 8895 dc3c 2f85 45bd 129f 9dbd 2ca5 f6bb
000002d0: 26af 913d 2926 4b3d c9db 133d 3ce3 72bc
000002e0: 7743 94bd 8057 f1bc 2a51 2f3d c432 59bc
000002f0: 3d9e 563d b6e2 793d 761a 533d 2f3c cb3d
00000300: a56e 01bd 08e3 323d bd58 a8bd 07a1 d6bc
00000310: 11ea b4bc e29d 2c3d 46d7 8abd 4c66 b33d
00000320: b135 adbd e56e 223d b518 41bd 7885 67bd
00000330: 4e89 74bd 658a be3c 4946 85bc fd74 4e3d
00000340: 1166 8fbd b2b5 0c3a c16b ed3c c695 99bc
00000350: 762b 05bd 1b39 97bd b12d 38bc c888 4bbd
00000360: aa7e 15bd 6bcf 35bd 1310 da3c c7eb d73c
00000370: e020 a5bc 9797 663c 50f2 74bc 4ae2 b8bc
00000380: 295e 5ebd 26c7 96bd 1850 803d 72aa 8dbd
00000390: afd2 b33d c614 b43d bf81 893d a891 313d
000003a0: ab74 0c3d 76ad 28bd 80cd f43c 5c66 71bd
000003b0: 002e 92bd 6fc1 6a3d f180 9dbd cd44 aebd
000003c0: ca7e 3f3b d38d 0b3d 5625 3d3c f7ef 2c3d
000003d0: f817 b8bc 7048 db3b 010d c43d 0a8b ba3d
000003e0: 2771 bf3d e43d 043d 50d9 7e3c 4b2d 823d
000003f0: 3768 d73b 50ab ddbc 2529 8a3d b0e5 983d
0.09251704 0.095866844 0.08084533 -0.032232083 0.0047043157 -0.051657625 0.01959981 0.02211377
-0.0044799694 0.004498424 -0.0034260151 -0.036540415 0.054289192 -0.033453636 0.06804811 -0.072730064
0.06117367 0.08751009 0.03043127 -0.0052749543 -0.04832688 -0.017714571 0.013497878 0.07115714
0.057913397 -0.027719127 -0.06721024 -0.067085266 0.052155256 0.076114334 -0.05625282 -0.036649507
0.027973045 0.060030818 -0.032372214 0.0023180586 0.058919102 0.024165953 0.0832729 -0.06665591
-0.013071043 0.06519112 -0.023139263 -0.06203562 0.08344692 -0.03785645 0.08486641 0.04463831
-0.0071516596 0.03269642 -0.027057786 0.037484266 -0.053775974 -0.017554259 0.06400436 0.024156004
-0.009517832 0.08325933 0.017224424 0.09284145 0.03475693 -0.017949289 0.06419662 -0.034836207
0.030983366 0.0077488516 -0.021489905 0.09987271 0.012924749 -0.059481584 0.06761691 -0.04665944
0.048665665 -0.017105762 0.05190063 0.041720707 0.018114038 0.022830378 0.007887462 -0.03124749
0.072687685 -0.01564651 -0.0701441 -0.02908707 0.075525895 0.07049719 0.016284995 -0.053457975
-0.081952475 0.052504294 0.078137286 -0.049038317 0.030605638 0.05185433 -0.02412695 -0.023199072
0.092875995 -0.07011638 -0.03550804 0.043380555 0.00551446 0.035596933 0.03963294 0.013886215
0.08776035 0.037931703 0.009904413 -0.0009808951 -0.021018542 -0.005334946 -0.0051282607 -0.0068428386
0.058504388 0.0653666 0.085194714 0.014751222 -0.051711947 -0.06738683 -0.014889092 -0.023613213
0.08213155 -0.03609777 0.08062136 0.053349067 -0.0007331104 -0.035006206 0.06146267 0.053412005
0.06601544 0.047513276 -0.041087486 0.060629018 -0.020149956 0.054439157 -0.012902863 -0.051709943
-0.0712164 0.03372365 0.08874428 -0.051587123 0.07638492 -0.0670935 0.040177155 -0.034192145
-0.012397078 -0.011516336 -0.08208113 -0.011863561 0.103316 0.02553198 -0.06657054 0.02482824
-0.030110922 0.06520603 -0.04008448 -0.02254068 0.020647764 0.07828165 -0.09284591 -0.047183182
-0.0039003727 0.08239388 -0.029543381 -0.032080077 -0.008054585 0.025684712 -0.005298182 0.021176852
-0.031626627 -0.045351468 0.04914687 -0.023071695 0.058148056 -0.012079967 0.023453135 -0.012567397
0.02692677 -0.048222717 -0.07696356 -0.0075270142 0.07113485 0.04959694 0.036098275 -0.014824685
-0.072394304 -0.029460669 0.042802013 -0.013256732 0.052397 0.061007224 0.051538907 0.099235885
-0.03159966 0.043673545 -0.082200505 -0.02619983 -0.022084268 0.042142756 -0.067793414 0.08759746
-0.084575064 0.03965654 -0.047142703 -0.05652377 -0.059701256 0.023259351 -0.016268866 0.050404537
-0.070018895 0.0005367651 0.028982045 -0.018748175 -0.03251215 -0.07383939 -0.011241362 -0.04969099
-0.03649775 -0.044387262 0.026618993 0.026357545 -0.020157278 0.014074228 -0.01495035 -0.02256884
-0.054289017 -0.07362203 0.06265277 -0.069172755 0.08780419 0.08793025 0.067142 0.0433518
0.03429095 -0.04118105 0.029883146 -0.058935508 -0.0713768 0.05731338 -0.07690609 -0.085092165
0.002921986 0.0340708 0.011544546 0.042221036 -0.022472367 0.006691985 0.09572793 0.09108551
0.09347754 0.032285586 0.015554741 0.06356295 0.0065737027 -0.027059227 0.06746129 0.074656844
