data/VesselSimulator/lstm_model_ar5.pth (torch, 851461 bytes, 10 tensors)

lstm.weight_ih_l0 f4 [512, 22]
000000 8b 60 ba bd a1 e8 a2 bd d0 fd 8f be cd a0 7c 3b
       -0.09100445 -0.07954527 -0.2812333 0.0038547993
000010 64 a8 49 bd 27 7f 19 3e b2 b2 b1 bd 8b 31 09 bd
       -0.049232855 0.14989911 -0.086766616 -0.033494513
000020 6a 1a 66 3d ca 27 f2 bd 5d 5f 98 3d 78 45 9a bd
       0.056177534 -0.118239954 0.07440064 -0.07532781
000030 61 df d3 bd b0 c3 ca bd a4 e0 bc bd aa 2f 6f bd
       -0.103453405 -0.09900606 -0.09222534 -0.058395065
000040 63 55 48 3d c3 b1 d1 bd c5 fe 95 3c ff 0e e9 bd
       0.048909556 -0.102389835 0.01830996 -0.113798134
000050 66 c6 3e bd eb c9 00 be d7 82 af bd 40 ab b0 bd
       -0.046575926 -0.12577026 -0.085698776 -0.08626413
000060 45 d8 4a bb d0 ea 64 be bc 18 4e be d0 55 8e bd
       -0.003095166 -0.22355199 -0.20126623 -0.06949961
000070 14 f9 76 bd ed 6c 40 be 09 7b 51 be 3a 3a 02 be
       -0.060296133 -0.18791552 -0.2045709 -0.12717524
000080 c5 2f 1a be 58 d6 1f be e7 a0 e1 bd 69 f8 06 be
       -0.15057285 -0.1560911 -0.11017018 -0.13180698
000090 ab ea d2 bd c2 61 1f be 3d 09 06 be d3 b8 95 bd
       -0.102986656 -0.15564635 -0.13089462 -0.07310643
0000a0 a4 d8 06 be e3 aa 45 bd 1a 80 9e bd 30 21 03 be
       -0.1316858 -0.048258673 -0.07739277 -0.12805629
0000b0 23 89 e2 3c a1 66 91 3d ca 33 e0 3e fc 3b ed 3d
       0.027653283 0.07099653 0.43789512 0.11583707
0000c0 7f e1 e5 3d 09 d1 19 3b d0 2c 81 bc bd 37 be 3d
       0.112246506 0.0023470542 -0.015768439 0.09287975
0000d0 96 bf 65 bc 31 01 e3 bb 8b 23 27 be 7e c8 29 3e
       -0.014022728 -0.0069276323 -0.16322152 0.16580388
0000e0 56 4b 4f 3e 28 5e be ba a0 d9 1f 3e 7e 98 03 3e
       0.20243582 -0.001452391 0.15610361 0.1285114
0000f0 54 4b a9 3c 24 b9 85 3d e8 21 84 3d 90 6f 60 3d
       0.020665802 0.065294534 0.064517796 0.054793894
000100 48 8d 4e 3d e9 53 38 3d 9a ba f8 bc c4 5a 82 bd
       0.050427705 0.045001898 -0.030362416 -0.063649684
000110 c7 35 cd 3e b0 f3 a5 bd e6 87 43 bd 11 e9 dc bd
       0.4008009 -0.0810312 -0.047737025 -0.107866414
000120 e0 09 22 be b0 8b b2 bd f5 49 93 bd a3 a3 ef bc
       -0.1582408 -0.087180495 -0.071918406 -0.029252833
000130 ba bb 9a bd e0 a7 d2 3b db 1b 1c 3d 34 cc 25 bc
       -0.07555337 0.0064287037 0.038112503 -0.010119487
000140 28 63 db bd 7b 4a 3b bd e7 34 0e 3d c6 fc 11 3e
       -0.10712272 -0.045725327 0.03471842 0.14256582
000150 ee eb 3c 3c 12 aa 3c bd 1b 22 1a 3e a7 59 c2 3d
       0.011530859 -0.04606063 0.15052073 0.09489756
000160 98 06 7e 3b 95 b7 82 be c4 15 95 3e e4 10 1a bd
       0.0038761254 -0.25530687 0.29118168 -0.037613764
000170 11 71 df 3c 43 a2 5d bd 52 fa 7a be 27 87 91 bd
       0.027275594 -0.054109823 -0.24509552 -0.071058564
000180 47 82 8a bb 44 54 2b be cf 21 6a 3e cf 0b d6 be
       -0.004226956 -0.16731364 0.2286446 -0.41805884
000190 ce 05 e9 be 46 f4 39 bd 37 06 b7 bd 13 8f 55 3d
       -0.4551224 -0.045398973 -0.08936732 0.0521384
0001a0 7e 0e 48 bc d2 3f 1e be 72 6f 53 bc e1 c4 dc bd
       -0.012210486 -0.15454033 -0.012904989 -0.10779739
0001b0 57 ae 70 3b 97 33 88 3d 4b b9 60 bd e1 89 5b bc
       0.0036725008 0.06650465 -0.05486421 -0.013399572
0001c0 a5 a1 66 bd 81 c5 4b bd b3 01 41 bd 28 4b 65 bd
       -0.0563065 -0.0497489 -0.04712076 -0.055979878
0001d0 d9 98 c5 3c 9b af 80 bd 90 33 a6 bc 27 a7 15 3c
       0.024120735 -0.06283494 -0.020288259 0.0091340905
0001e0 ef 65 cf bd d1 ec af 3c 5c df 6f bb aa 68 78 bd
       -0.10126864 0.021475228 -0.0036601638 -0.06064669
0001f0 8d bd df ba 15 3f 48 3d a3 31 0c 3d ea dc 2a bd
       -0.001707004 0.048888285 0.034227025 -0.041714586
000200 df 50 17 3d 6c 49 ee 3c 8b 16 1b 3e bf ce 20 3e
       0.03694236 0.029087745 0.15145318 0.15703867
000210 ed ac ec bd 3d 57 d2 bd 46 a5 6b 3d a9 f0 9c bc
       -0.115564205 -0.10270546 0.057530664 -0.019157724
000220 51 48 cc bd 4d 37 08 be 92 44 91 bd 6b 5b b7 bd
       -0.09974731 -0.13302346 -0.07093157 -0.089529835
000230 f5 d4 8d be 37 82 a0 bd f1 4c 1b bd b0 62 36 be
       -0.27701536 -0.078373365 -0.037915174 -0.17811084
000240 04 2b 52 be fb a6 39 be 55 cb d6 bd 35 a2 83 bd
       -0.20524222 -0.18130104 -0.10488001 -0.06427423
000250 79 c4 4b be 25 fc 52 be 54 73 71 be cd 8c ee bd
       -0.19899167 -0.20603998 -0.2357915 -0.11647949
000260 2e af d5 be 79 80 e2 be 9c fe 58 3d ed a1 f2 bd
       -0.41735214 -0.44238642 0.05297719 -0.11847291
000270 e4 6f 8c 3e bf 1a ea bd e6 41 cc 3c 8e 0a 79 bd
       0.27429116 -0.11430883 0.024933767 -0.06080108
000280 c1 64 ef 3c 8e a4 88 bd 53 24 12 bd ed f5 c4 bd
       0.029222848 -0.06672011 -0.035679173 -0.09617219
000290 20 cc 17 be 4b 74 2e 3d 62 be 3c bd 28 41 eb ba
       -0.14823961 0.042591374 -0.04608 -0.0017948495
0002a0 29 ee d5 3c ca 5f 00 3e dd 43 f3 bc 49 94 2b 3d
       0.02611454 0.1253654 -0.029695446 0.041889463
0002b0 39 ca 9d bd e0 27 32 3c a3 07 c4 3b 12 2d 13 3e
       -0.077045865 0.010873765 0.0059823557 0.14372662
0002c0 54 ef 96 bd 73 a0 a5 bd 6e 62 a7 3e be 9d fc bd
       -0.07369867 -0.08087244 0.32692283 -0.123347744
0002d0 4a 28 a4 3d 39 9f a7 bd 35 6b 2e bd 01 5c cd ba
       0.08015497 -0.08184666 -0.04258271 -0.0015667678
0002e0 1b 8e ad bd c5 00 c8 bb 04 0a 13 be 05 f4 04 3d
       -0.0847437 -0.0061036074 -0.1435929 0.032459278
0002f0 3a e4 fd 3d cf 55 1e bd b9 6f ac bd 37 b3 05 bd
       0.123970464 -0.038656052 -0.08419747 -0.032641616
000300 8d 9b 6f bd 9f b7 14 3e cd 59 6b bd a6 09 2c bd
       -0.058497954 0.14523171 -0.057458688 -0.04200139
000310 b2 ab 47 3c f8 41 a8 3d f3 53 cf bd 03 5e 28 bd
       0.012186931 0.082157075 -0.10123434 -0.04110528
000320 18 bc 66 be 1d fb 43 bd f0 65 e0 bd 49 85 5d 3d
       -0.2253269 -0.047846902 -0.10956943 0.05408219
000330 da ca 77 bd 0e cf ad 3d 4a 2c 79 3d 6e 12 b3 3c
       -0.06049619 0.08486758 0.060833253 0.021859374
000340 6a 92 a8 bd a3 fc 43 3d 2c 48 8f 3d e8 9a 51 bd
       -0.08231051 0.047848355 0.069961876 -0.05117312
000350 f3 29 4a 3d ce 1d 9f bd 3a c7 de bc e9 f7 03 ba
       0.049356412 -0.07769357 -0.027194608 -0.0005034195
000360 fe fd 55 bc 97 66 0e bc 45 a7 b9 3c 28 09 4b 3e
       -0.013061045 -0.0086914515 0.022662768 0.19827712
000370 9e 04 09 be 69 03 ed bd 42 0c 0e 3d 13 9c 35 3d
       -0.13380668 -0.11572916 0.03467966 0.044338297
000380 a6 98 cc 3d a6 1a c5 bd f9 53 79 bc b1 15 9f 3c
       0.09990053 -0.096242234 -0.015217775 0.019419523
000390 8b 98 b5 3c 09 70 e9 bd c0 f7 a6 3d 63 0f 39 bd
       0.022167465 -0.11398322 0.08152723 -0.04518069
0003a0 f7 be 21 be f2 7b 29 bd 1e 97 6c bd d0 bb 6f 3c
       -0.15795504 -0.04137797 -0.057761304 0.01463218
0003b0 4c 78 67 bd 55 79 54 bd ed 41 e4 bb 01 51 90 bd
       -0.05651121 -0.051873524 -0.006965867 -0.070467
0003c0 09 98 ac 3d 91 01 a9 3c 1b a0 2c be ab e7 82 bd
       0.08427436 0.02063063 -0.1685795 -0.063918434
0003d0 42 4f 87 bd 93 e0 77 bd 9f 0e 26 bd ef 2f 33 be
       -0.06606914 -0.060516905 -0.040541288 -0.17498754
0003e0 1b 65 0f be 55 93 1a be 95 9e 79 bd 18 b5 ae bd
       -0.14003412 -0.15095265 -0.06094225 -0.08530635
0003f0 09 2c c5 bd fe 8e 8d bd aa a3 23 be f5 37 21 be
       -0.0962754 -0.06912039 -0.15980402 -0.15744002

lstm.weight_hh_l0 f4 [512, 128]
000000 75 ce 02 bd e8 83 00 be 69 ab 8c bd 30 7a 95 3d
       -0.031935174 -0.12550318 -0.068686314 0.07298696
000010 ff 23 54 be 7f c8 f3 bc b8 e2 0a bc ee c5 df 3c
       -0.20716856 -0.02975869 -0.0084769055 0.02731606
000020 63 51 09 3e 70 06 d0 3c 5e 76 ec 3b c7 ef 95 3d
       0.13409953 0.025393695 0.007216259 0.073211245
000030 31 04 7d 3d 57 e0 6d 3d b0 2a 58 3d 37 55 3a bd
       0.061771575 0.058075275 0.052775085 -0.045491423
000040 fb 3c 15 be f6 49 11 be ac b1 2c 3e 0a ba 81 3d
       -0.14574043 -0.1418837 0.16864651 0.06334312
000050 b3 0b 7f 3d da f9 a3 bc be a3 a5 bb 59 c7 14 3e
       0.062267017 -0.0200166 -0.00505492 0.1452917
000060 f0 12 2d bd 8d 6b 9b bb 11 3a b5 bc f9 0b 90 bc
       -0.04225439 -0.0047430457 -0.022122415 -0.017583834
000070 2e 2d 14 bd 37 23 a8 bc 91 73 da bc 3c cf bf bd
       -0.0361759 -0.020524604 -0.026666434 -0.09365699
000080 d2 33 ec bd fc 17 84 bc 93 af 8a bd 4c 8e 01 bd
       -0.115333214 -0.016124718 -0.067717694 -0.031629845
000090 32 e8 a1 3d c9 c4 f0 3d a3 61 e7 3b 8f ce a8 bc
       0.07905616 0.11756284 0.0070611998 -0.020606307
0000a0 08 cd 76 bc e3 0e 90 3d 0e 38 f0 bc 54 14 17 be
       -0.015063532 0.070340894 -0.029323604 -0.14753848
0000b0 93 79 a4 3c 5e 46 89 3c 96 a6 c8 3d 99 c7 0a 3e
       0.020077502 0.016757187 0.09797399 0.13552703
0000c0 ae 58 fb bb d9 07 17 3d da a4 46 be 12 08 19 be
       -0.0076704836 0.03687272 -0.19398823 -0.14944485
0000d0 a9 30 ca 3c 3c d2 2f bd 4c 6a 04 be 08 54 60 bd
       0.024681406 -0.042925104 -0.12931174 -0.05476764
0000e0 4b 9a 86 bd b6 b7 a8 bd cd 9f c3 bc 82 cd 3d bd
       -0.06572398 -0.08238165 -0.02387991 -0.046338566
0000f0 b9 0c 17 3e 3b dd 9e 3c bc 86 6d 3b 65 ae f8 3d
       0.14750947 0.0193926 0.0036243638 0.12142638
000100 35 1a 3c bd e2 73 71 3d 08 5e 5c 3e 4e 35 db bc
       -0.04592343 0.058948405 0.21520245 -0.026758816
000110 41 6e 9e 3c ca 66 4d bd ec de 38 bb b4 46 12 3d
       0.019339683 -0.050146855 -0.0028209044 0.03571196
000120 93 24 51 3c a8 b5 31 3d 33 ef 54 3d 94 a3 22 bd
       0.012765068 0.04338613 0.05198593 -0.03970678
000130 cc c9 e7 3c 57 2a 5c 3c 75 2b b9 3d 6f 6f cb 3d
       0.028294466 0.013437829 0.09041492 0.09933364
000140 44 79 87 3d 4d 52 74 bd 66 5a 1d be f6 dd 1b bd
       0.066149265 -0.0596488 -0.15366516 -0.038053475
000150 d8 49 3a bd 92 55 44 bc 5e 9f 22 bc 07 72 8a bc
       -0.04548058 -0.011983292 -0.009925691 -0.016900076
000160 3d 9f 22 3d 6a fe 90 bd fc f6 ca 3e bb a8 82 bd
       0.039702643 -0.07079776 0.3964156 -0.06379839
000170 1a 92 db bc 43 0a 05 bd 19 47 f4 bd e3 6d 77 bd
       -0.026803065 -0.03248049 -0.11927623 -0.06040753
000180 bc 77 3e bd d7 d9 42 3e 8a 07 8d bd ea 6c 03 3e
       -0.046500906 0.19028412 -0.068862036 0.12834516
000190 88 5c b2 3d 07 56 07 be bb e6 90 bc c9 72 18 3e
       0.08709055 -0.1321641 -0.017688146 0.14887537
0001a0 c6 51 42 bd 52 ac 75 3e 72 39 19 3d e4 5c 10 be
       -0.047441266 0.23991516 0.0374083 -0.14097935
0001b0 be 1a 7b bd 6e f6 bb 3d c0 19 13 3e 48 7f 85 bd
       -0.0613048 0.09177862 0.14365292 -0.065184176
0001c0 fc 19 b1 3c 4a a9 2f 3d ca f9 1b 3e bd 4d 1b 3b
       0.021618836 0.042886056 0.15232006 0.0023697459
0001d0 b6 a1 4a 3d 1f b1 06 be 8c e6 23 be 3f 7e f4 b9
       0.049470626 -0.13153504 -0.16005915 -0.00046633367
0001e0 ed fa 89 3d 7b 6f b8 3d f5 8c 34 bb 2d a9 57 3e
       0.067373134 0.09005638 -0.0027549837 0.21060629
0001f0 82 5b fe bc 55 82 16 3e 37 6e d5 3c 18 bb 48 bd
       -0.031049494 0.14698155 0.026053531 -0.04900655
000200 5f 6e 1b be 0b 1a e0 bd 50 47 0e bd 97 4c 65 3d
       -0.15178822 -0.10942467 -0.034735978 0.055981245
000210 23 25 a8 bd 79 fc 95 bd 34 37 64 b8 05 85 ee 3d
       -0.08210208 -0.07323546 -5.4410848e-05 0.11646465
000220 fd 14 5b be 7b e3 c2 3d 54 89 3c bc 24 98 c7 3c
       -0.21394725 0.09516045 -0.011507351 0.024364538
000230 0e bb 15 3e c7 dd 54 3d 4c 35 f5 3d 93 a7 a3 bd
       0.14622137 0.051969316 0.11973056 -0.079909466
000240 33 99 78 be f1 b1 96 be 02 f9 79 bd fe d2 1a 3e
       -0.24277191 -0.29432634 -0.061028488 0.1511955
000250 92 82 6e 3d 4f c8 2b 3e c4 c0 82 3d ea b9 a4 3d
       0.05822999 0.1677563 0.063844234 0.08043273
000260 b2 4f 72 bd cc f5 43 3e 71 d9 0d 3d a5 8a 35 3e
       -0.059158035 0.19136733 0.034631196 0.1772867
000270 0c b4 52 bd 7e 86 3c 3d c4 d2 e8 3d 12 cc b5 bd
       -0.051441237 0.0460267 0.11368325 -0.08876814
000280 cb 5d cc bd 98 e7 c4 3c 81 77 a2 bc 60 94 8d bd
       -0.09978827 0.024036214 -0.019832375 -0.06913066
000290 32 c4 16 3e 3e 1e 43 3e 5e a3 a9 bd c7 41 04 bc
       0.1472328 0.19054505 -0.08283113 -0.008072323
0002a0 cc 68 09 be 25 04 d6 3d e6 c2 73 be 39 ad a8 bd
       -0.13418883 0.10450009 -0.23804817 -0.082361646
0002b0 9f 55 c3 3d 41 dc 75 bb b1 64 d0 bd d4 eb d6 3d
       0.09537815 -0.0037515315 -0.10175455 0.104941994
0002c0 bd 80 ff bd f0 c2 17 bd 45 6b 12 be 63 1c 29 3e
       -0.12475727 -0.03705114 -0.14298733 0.16514735
0002d0 6e bc 91 3e 1f d4 06 be 9e 49 3d 3d 4d 50 4f be
       0.28464073 -0.13166855 0.046212785 -0.20245476
0002e0 85 83 e3 bd b8 4c 52 bd d0 54 23 bd 66 5f af 3d
       -0.1110907 -0.051342696 -0.039875805 0.08563118
0002f0 bd 5d ae 3d 6a 86 78 be e0 5a 9c bc a3 83 fa bd
       0.08513973 -0.24270025 -0.019086301 -0.12232139
000300 b8 9f 3f bd 52 1d 8e 3d bc 92 04 bf 9e 2a 53 3d
       -0.04678318 0.06939186 -0.517864 0.051554315
000310 a6 d2 dc bc 5b 74 3a be 98 ee 39 bd 38 f4 91 3c
       -0.026955914 -0.18208449 -0.045393556 0.017816648
000320 8f 3b 38 be 5f ca f6 3d 3f f9 0b 3a 87 7d 33 be
       -0.1799147 0.12050318 0.000533957 -0.17528354
000330 db 06 15 3a 2a 1b d3 bd 3c d5 e0 3d 7a 22 82 be
       0.00056849205 -0.103079155 0.10978171 -0.2541693
000340 c6 3c 58 3e d8 f0 35 be fd 75 b8 3c f5 99 cb 3c
       0.21116933 -0.17767656 0.022517199 0.024853686
000350 14 2b 8f 3d a8 f7 19 be 59 75 bb 3c 96 73 0d be
       0.069906384 -0.1503588 0.022883104 -0.13813624
000360 a4 4e 91 3d 82 53 b5 be c7 15 02 3e 98 e5 eb bd
       0.07095078 -0.35415274 0.1270362 -0.11518401
000370 07 0a 29 be bd 12 3e 3d c0 ae 75 3e 0b 28 26 be
       -0.16507731 0.04640459 0.23992443 -0.16226213
000380 52 85 66 3d 19 25 7c be bf 8f d2 bd f8 b8 07 3e
       0.056279488 -0.24623527 -0.10281324 0.13254154
000390 3b 37 b4 3d f0 24 40 bd 77 e4 cf 3d a2 40 94 3c
       0.08799597 -0.046910226 0.10150998 0.018097226
0003a0 e5 94 4c bc b1 9f f2 bd 88 ad a2 bd ff d8 ed bd
       -0.012486671 -0.11846865 -0.07943255 -0.11613654
0003b0 55 b1 d8 bd a0 10 56 3d 45 61 e6 bd e9 83 0b be
       -0.105806984 0.05226195 -0.112490214 -0.13624538
0003c0 e5 3b a7 3c 29 25 5d 3e db 20 38 3e 57 1f e2 bd
       0.020414302 0.21596207 0.17981283 -0.11041134
0003d0 36 18 88 3e 49 90 04 be 2c 3b a8 3c c7 ac 7d 3e
       0.2658097 -0.12945665 0.020536028 0.2477294
0003e0 25 96 e2 3d 02 3f f7 3d 02 d4 be 3d 57 74 39 3e
       0.11063794 0.12072565 0.09317781 0.18110786
0003f0 95 14 37 3d 9b 45 1a 3e 68 41 e9 bb ca 37 b4 bd
       0.044697363 0.15065615 -0.0071183927 -0.087997034

lstm.bias_ih_l0 f4 [512]
000000 95 c4 70 bd bc ee 00 be 9f c8 2c bc 55 87 f5 bc
       -0.058781225 -0.1259107 -0.010545879 -0.029971758
000010 4b 0b 0b bd 56 dc f1 3c ba 6b 1d be 72 4b 17 3d
       -0.033946317 0.02952401 -0.15373126 0.036937185
000020 54 7d 78 bc 98 7d c9 bd 09 40 8e 3d 92 81 34 be
       -0.015166599 -0.09838408 0.069458075 -0.17627552
000030 45 03 9b bb 75 80 95 3c 90 32 20 3e 9e 9b d2 bc
       -0.0047306144 0.01824973 0.15644288 -0.02570897
000040 c1 75 48 3d b6 8d c4 3c 3e bc 74 bb 86 a9 fa bd
       0.048940424 0.023993354 -0.0037343646 -0.12239365
000050 d3 e3 ec bd f6 29 9d bd 39 35 d5 bd ed 5a 5a 3c
       -0.115668915 -0.07674019 -0.10410542 0.013327342
000060 1f 49 74 3d b8 9e 57 be 29 09 72 bc c9 bc e1 bd
       0.059640046 -0.2105664 -0.014772692 -0.11022336
000070 17 e7 89 bd 97 35 46 3d 94 77 e3 bd 07 75 6c bc
       -0.0673353 0.04839095 -0.11106792 -0.014432198
000080 57 8d 8a bd 06 2c b2 bd cf 35 db 3c a6 70 0c be
       -0.0676524 -0.08699803 0.026759056 -0.13714847
000090 b3 df be bc 5d 87 01 be c2 35 de bd 6d a9 48 bd
       -0.023300027 -0.12649293 -0.10850097 -0.048989702
0000a0 6e 2c be 3c 29 39 58 be 83 fd 23 be 38 88 84 bd
       0.023214545 -0.21115555 -0.16014676 -0.06471294
0000b0 70 89 e1 bc ec 56 78 3d 9f 61 2d bd 92 b8 58 bc
       -0.027531356 0.06062977 -0.042329427 -0.013227599
0000c0 e5 41 46 bc 0b d2 e7 bd e3 1b 14 bd e7 99 70 3e
       -0.012100671 -0.113193594 -0.036159407 0.23496209
0000d0 ca 1a b4 bd f7 41 51 bc d1 b1 cb 3c 68 cb ef bd
       -0.08794172 -0.012772075 0.024865063 -0.117087185
0000e0 fa f4 91 bd 36 d1 88 bd 08 cc 13 be a2 0e 59 3c
       -0.07126804 -0.06680529 -0.144333 0.013248118
0000f0 23 66 76 bc d0 79 f5 bc 60 45 05 be 36 2f 8d bd
       -0.015039 -0.029965311 -0.13014746 -0.068937704
000100 21 29 50 bb 8e 52 53 bd d6 84 62 3e 77 88 45 bd
       -0.0031762796 -0.051592402 0.22120985 -0.048225846
000110 70 46 ad bd e0 1b be bd e4 e7 90 3c 96 bf ac 3d
       -0.084607005 -0.092826605 0.017688699 0.084349796
000120 eb fc 46 bc 30 d7 ef bd 88 c4 3b be 97 1b 27 3d
       -0.012145261 -0.11710966 -0.1833669 0.040797796
000130 25 fe 09 be 02 32 80 bd 31 4d 99 3c 7b 97 24 3e
       -0.13475855 -0.06259538 0.018713566 0.1607341
000140 9b 75 27 bd e8 03 ca 3c 6d b8 84 bc 1e f7 c3 bc
       -0.04088364 0.024660066 -0.016201222 -0.023921546
000150 6e 59 a5 bd 46 72 da bd e6 cb 29 bd 5d 53 cf bd
       -0.08073698 -0.10666327 -0.04145422 -0.10123322
000160 8c 0f ef ba f5 16 45 3d f2 75 da bd 42 0b 59 bc
       -0.0018238886 0.048117597 -0.106670275 -0.013247313
000170 2d 62 0f bd 84 49 10 be 72 d0 9c bd 2f 7d d3 bd
       -0.035005737 -0.14090544 -0.07656945 -0.10326611
000180 8c cf ee 3a 83 6d ab bb 82 f1 03 be d7 95 10 be
       0.0018219813 -0.0052315607 -0.12885097 -0.1411966
000190 fc 15 97 3d 7c 70 54 bd 64 ad a8 bd e0 75 c7 bd
       0.0737724 -0.051865086 -0.08236197 -0.0973928
0001a0 84 74 9f 3d 7a f9 11 be 2e 16 d9 bd cd 7e 5a 3d
       0.077858955 -0.14255324 -0.105999336 0.053343583
0001b0 25 33 05 be f5 59 82 3d c5 52 c3 bc 2e 80 23 be
       -0.13007791 0.06364814 -0.023843179 -0.15966865
0001c0 e9 97 b6 bc 14 2c 5a bd 32 3a b0 bd 21 e5 98 3c
       -0.022289233 -0.053264692 -0.0860485 0.018663945
0001d0 ea b8 12 bd 0c f5 e3 bd f6 d4 a5 bd cb fd 3c bd
       -0.03582088 -0.11130723 -0.0809726 -0.046140473
0001e0 e4 58 97 bd 4e 0b 2b bc 90 63 28 bd a2 52 55 3d
       -0.073900014 -0.010439707 -0.041110575 0.052080758
0001f0 68 58 f8 bd ef 7c 99 bd 86 52 9c 3c f5 e1 18 bd
       -0.12126237 -0.07494532 0.019082319 -0.037324864
000200 44 dd b4 3c 3c 08 03 be b9 1c 91 bc c8 5d 63 bd
       0.022078164 -0.1279611 -0.017713891 -0.05550936
000210 7c 8c 57 bc 23 f1 4c bc 5d f9 e5 bd 89 2a 09 bd
       -0.013156053 -0.012508663 -0.11229203 -0.03348783
000220 05 3a 71 bd d9 d6 93 3c ba a8 2b 3d 15 13 8c bd
       -0.058893222 0.018046783 0.041908957 -0.06839577
000230 1d a9 2e bd f0 fc ca bc a5 cb 4f be 31 5a f5 bd
       -0.042641748 -0.024778813 -0.20292528 -0.11980093
000240 37 29 db 3c fe 8f 57 be c5 ec 32 be 47 8f bd bd
       0.026753051 -0.21051022 -0.17473133 -0.092558436
000250 65 84 da bd 50 34 7b 3c b6 62 9f bd da d5 90 3d
       -0.106697835 0.0153322965 -0.077824995 0.07072039
000260 61 ca c1 bd 51 ea c8 bd 2a c3 29 be 74 ba f3 bd
       -0.09462429 -0.09810317 -0.16578355 -0.119007975
000270 2d f6 b0 bd e5 a9 2c bd b3 0f ba bd 82 7a 14 bc
       -0.08640704 -0.04215421 -0.09085026 -0.009062411
000280 f3 6b d7 bc b9 a0 6e bd 28 b7 24 3b 97 10 1f 3c
       -0.026296591 -0.058258746 0.0025133584 0.009708545
000290 35 a1 11 be 40 7e 07 be c8 df 26 bc 73 a0 db bd
       -0.14221652 -0.13231754 -0.01018519 -0.10723963
0002a0 ec e9 0e be be b9 2f be 89 e1 aa bd 25 0f 40 bd
       -0.13956422 -0.17160699 -0.08343799 -0.046889443
0002b0 ba b6 ec bd 15 aa 40 bc 21 50 c2 3c 70 54 c6 bd
       -0.1155829 -0.011759301 0.023719849 -0.09684074
0002c0 26 5f e8 bc 27 c5 0e be 7c 45 61 be 40 51 92 be
       -0.028365683 -0.13942395 -0.21999162 -0.28577614
0002d0 e5 db b3 3b 63 0c 56 bd b5 78 e5 bd 79 69 39 bd
       0.00548886 -0.052257907 -0.11204664 -0.045266602
0002e0 1a e9 18 be af 09 10 3d c1 3e 56 bd 34 d1 b8 bc
       -0.14932671 0.035165485 -0.05230594 -0.022560693
0002f0 af f5 c8 bd 03 08 a6 be 0e 81 7d bd a3 b8 38 bd
       -0.098124854 -0.32427987 -0.061890654 -0.04509796
000300 8c 40 16 3c eb 2d 69 3c d3 c9 a0 be 2e 40 96 bd
       0.009170663 0.014232139 -0.3140398 -0.0733646
000310 9a 44 b0 bd e0 58 a8 bd 09 15 06 be 3f 85 06 be
       -0.08606835 -0.082200766 -0.13093962 -0.13136767
000320 9b b1 6a bd f1 bf ea bd ac f8 d7 bd a4 2b d8 3c
       -0.057298284 -0.11462391 -0.10545477 0.026387997
000330 68 59 6d be 0b d3 85 bd eb 37 92 bd 1e 15 b3 be
       -0.23178637 -0.06534394 -0.07139572 -0.3497705
000340 f0 97 b4 bd d8 da c0 bd af 83 90 bd 51 0f 13 be
       -0.08818042 -0.09416741 -0.07056367 -0.14361311
000350 82 17 68 bd cc d1 1f be 86 d9 fd 3c 61 c5 0c 3c
       -0.056663044 -0.15607375 0.030987512 0.008591981
000360 f2 52 cf bd 2c 11 5a bd cb bd a2 bd 94 1d a8 bc
       -0.101232424 -0.053239033 -0.079463564 -0.020521916
000370 c7 06 09 3d 1e e8 a3 3c e6 5f bc bd 2b ae c8 bd
       0.03345373 0.020008143 -0.09197979 -0.09798845
000380 c9 cf 08 be 4e 9b b2 be b1 89 2d bd 3f f2 1a 3d
       -0.13360514 -0.34884113 -0.04236764 0.03782868
000390 4a 4b a6 bd 52 dc 0c bd af 60 02 bd 6b e8 71 be
       -0.08119829 -0.0343898 -0.031830486 -0.23623817
0003a0 7e 00 b3 3c 1f 86 57 be 16 43 1f be e2 0a 7b 3d
       0.02185082 -0.21047257 -0.15552935 0.061289676
0003b0 30 a6 d8 bd 6d 74 97 bd 20 0f 41 be e7 53 94 bd
       -0.10578573 -0.07395253 -0.18853426 -0.072425656
0003c0 84 53 94 3b 7a 11 a1 bd 18 2d 00 be 9d 66 00 be
       0.0045265574 -0.078646615 -0.12517202 -0.12539144
0003d0 fe 04 38 be ef 01 da bb a3 3d 06 be e9 62 14 be
       -0.17970654 -0.0066530625 -0.1310945 -0.14490856
0003e0 f4 15 74 be be b3 c8 bd db 84 3c bc 97 ac 9f bd
       -0.238365 -0.09799908 -0.011506285 -0.07796591
0003f0 32 42 c2 bd 4c b3 9c bd 21 8e c6 3c 86 2b 4b bd
       -0.09485282 -0.07651386 0.024237694 -0.049602054

lstm.bias_hh_l0 f4 [512]
000000 a0 e7 b4 3c 3b 50 8a bd 3d 50 fe 3c 19 3b b9 bd
       0.022083104 -0.06753584 0.03104412 -0.09044475
000010 53 85 3b bd 02 5e 68 bd 7a 7c b1 bd 8b cc 80 bd
       -0.045781445 -0.056730278 -0.0866632 -0.062890135
000020 da 5b 9f 3b 3d 60 b2 bd 88 04 85 3c 25 d9 07 be
       0.0048632445 -0.08709762 0.016237512 -0.13266428
000030 a0 8c b1 bd 48 5a 6d bc ea e1 78 3e 7e 65 d6 39
       -0.086694 -0.014486857 0.2430493 0.00040892878
000040 7c 78 d1 bd fd 2b 3f 3c df ac 0e 3e 29 3a 87 bd
       -0.10228059 0.0116682025 0.13933133 -0.0660289
000050 71 20 21 bd 83 96 f4 bc 8e 89 bd bc 61 e3 03 3d
       -0.03933758 -0.029856926 -0.02313688 0.032199267
000060 b5 ee 78 bc 88 c9 a7 bd 9e 00 ac bd 01 5e d3 bd
       -0.015193631 -0.08192736 -0.08398555 -0.10320664
000070 83 28 24 bd bf 09 8e bd cc f2 af bd 92 10 d6 bd
       -0.040077697 -0.06935453 -0.08591232 -0.10452379
000080 d3 16 cd bd 52 f4 c7 bc f2 86 34 3b 6c d8 7d bb
       -0.10014119 -0.024408493 0.0027546254 -0.0038733734
000090 1a 93 7d bd d1 3e 0f bd 1d 5e 3d bc 1f cc f3 3c
       -0.061907865 -0.034972016 -0.011558083 0.029760418
0000a0 6c 8b ac 3b 70 ca 40 be c3 61 27 bc 95 6d 9c 3c
       0.005265644 -0.18827224 -0.010216179 0.019095222
0000b0 f5 23 e5 bd 04 68 b6 bd 96 0c bf bd c8 10 e3 bc
       -0.11188499 -0.08906558 -0.093285725 -0.027717963
0000c0 07 82 03 bd d4 d2 85 3c 56 c3 e1 bd ed fd 50 3e
       -0.032106426 0.016335882 -0.110235855 0.20409365
0000d0 9a 96 d3 3c 6e ca ea bb 2a 10 77 bc 00 2b f2 bd
       0.025828648 -0.007165245 -0.015079537 -0.11824608
0000e0 24 7d 2f bc ba 44 0e 3b cf 8d 77 bd f7 b3 88 bd
       -0.010710988 0.0021708445 -0.060437974 -0.066749506
0000f0 cf a6 d1 bd d6 fe 6c 3d 81 84 8d bb 00 99 9c bc
       -0.10236894 0.057860218 -0.004318774 -0.019115925
000100 fa fa fe bb c2 79 89 bd 0e 49 3a 3e f8 dd a6 3c
       -0.0077813836 -0.067126766 0.1819193 0.020369515
000110 ed ee e3 bd c7 49 e0 3b 0b 77 a2 bd 27 56 80 3d
       -0.11129556 0.0068447324 -0.07932862 0.06266432
000120 37 ed 65 3d 8d 41 88 bd f6 e4 1e be 6c 5d 07 bd
       0.05613443 -0.06653128 -0.15517029 -0.03304808
000130 33 cf e8 bd 30 0a 4f be 6c f7 26 3d ca 4d 9d 3d
       -0.11367645 -0.2021873 0.040763304 0.07680853
000140 8a a5 3b bd 0b 93 ae bd 6a 6c ee bd e1 18 0b be
       -0.045812167 -0.0852414 -0.11641772 -0.1358371
000150 25 28 55 bd af 35 ae bd 35 31 d0 3b 30 8f 04 be
       -0.052040238 -0.08506333 0.006353522 -0.12945247
000160 e5 ea cb bd c0 90 e9 bd 4e 6b e8 bd 46 fa 6b bd
       -0.09956912 -0.11404562 -0.11348592 -0.057611726
000170 c2 de 07 bd 24 08 8e bd e0 cc 3b bd 7f 97 da bc
       -0.033171423 -0.069351465 -0.04584968 -0.026683567
000180 44 93 b6 bd 73 8e 04 3e 44 73 8c bd 48 7b 2f be
       -0.089148074 0.12944965 -0.06857923 -0.17136872
000190 ba 3b 2f 3d cc 89 50 3d e2 a6 35 bd dc f6 d1 bd
       0.04278157 0.050912663 -0.044348605 -0.10252163
0001a0 16 d8 13 bd 47 6d 6e bd a5 2f 26 be 4e 9f 1b 3d
       -0.036094747 -0.058209684 -0.16229112 0.03799372
0001b0 f5 48 9f bd 57 64 85 3d a7 b5 50 3d 22 61 3c bd
       -0.07777587 0.06513279 0.050954487 -0.04599107
0001c0 3e 24 45 bd b7 cc de bd 60 b7 bb bd 60 1a c9 bd
       -0.048130266 -0.1087889 -0.091658354 -0.09819484
0001d0 42 24 e7 bb 71 c8 2d bd fd 0e 1e be 38 57 07 be
       -0.007053883 -0.042427484 -0.15435405 -0.13216865
0001e0 c7 71 dd 3c a1 d9 eb bd 3f 34 da 3c ae 74 b0 3d
       0.027031792 -0.11516119 0.026636241 0.08616005
0001f0 2d 1a 7f bd 4a 87 9f bd bb 66 44 bb 95 2e c4 3d
       -0.062280823 -0.07789476 -0.0029968459 0.09579197
000200 b8 60 9a bd ef b2 3f be 88 b2 b6 3c ab b9 cc 3c
       -0.07537979 -0.18720601 0.022301927 0.024990877
000210 6f a6 a7 bd c4 77 03 be 44 50 53 bd 6c 39 e9 bd
       -0.081860416 -0.12838656 -0.05159022 -0.113879055
000220 96 9c 00 be d6 a9 c3 bd bf 55 ef 3c 29 95 48 be
       -0.12559733 -0.09553878 0.029215692 -0.1958815
000230 c0 3c 21 be e6 dd b7 bd db 4c 3f be 61 b9 69 be
       -0.1574583 -0.08977871 -0.18681662 -0.22824623
000240 b9 24 cb bd 5b 88 58 be be 80 8a be 28 56 72 bc
       -0.09919114 -0.21145765 -0.27051347 -0.014791049
000250 d4 54 ef bd 54 81 00 3c 0b 50 fb bd 93 da ed bc
       -0.116861016 0.007843334 -0.12271126 -0.029034888
000260 e2 e7 0d bd 66 66 9e bd 06 2b 23 be f4 99 4c bd
       -0.03464497 -0.07734375 -0.15934381 -0.04995151
000270 3d 34 03 be f6 03 de bd b5 35 1b be b1 17 a9 bd
       -0.12812896 -0.10840599 -0.15157206 -0.08256472
000280 63 c8 1e be 40 4e a3 bd fd 8e d1 bd 88 2b 1f bd
       -0.15506129 -0.079739094 -0.10232351 -0.038859874
000290 87 bf 99 3c 7a 04 ea 3c 0b 24 67 bd eb 67 1b 3d
       0.018768085 0.028566588 -0.056430858 0.0379409
0002a0 3d 7b 0f be 9f b6 08 be b1 ae fd bd 78 c9 a8 bd
       -0.14011855 -0.13350914 -0.12386835 -0.08241552
0002b0 5b 9d 4d 3d 60 b1 f4 bd 4e 12 2f bd 86 1e 32 be
       0.050198894 -0.11947894 -0.042742066 -0.17394456
0002c0 cf 0c 98 bd 0f 32 37 be 9c d9 33 be 44 f5 88 be
       -0.07424318 -0.1789019 -0.1756348 -0.26749623
0002d0 0e 09 a8 3c 7e a2 8a 3c b5 1e 93 bd 46 13 3c be
       0.02051213 0.016923185 -0.07183591 -0.18366727
0002e0 ca 63 17 be ba a2 dc 3c 02 58 90 bd 8e 37 ba 3a
       -0.1478416 0.026933063 -0.07048036 0.001420723
0002f0 62 e5 bb bd 20 d6 cf be d8 0b 28 be 5c 36 18 be
       -0.09174611 -0.40593052 -0.16410768 -0.14864486
000300 f1 06 7c ba fd 25 01 be ee cd af be 2e 0c 28 bd
       -0.00096140715 -0.12612148 -0.343368 -0.04102724
000310 9b 07 18 bd 04 a0 30 be 5d 78 b4 bd 34 78 47 bc
       -0.03711663 -0.17248541 -0.0881202 -0.012174655
000320 55 c3 87 3c 53 1a 11 be f2 4f 15 bc dc 20 f0 3c
       0.016572634 -0.14170198 -0.009113299 0.029312544
000330 ae 69 d1 bd c7 de 41 be c9 3e 63 bc 83 0e ca be
       -0.10225235 -0.18932639 -0.01386995 -0.39464197
000340 88 17 15 be 57 61 0d 3d 8f 66 80 bc 75 2c df bd
       -0.14559758 0.03451666 -0.015673904 -0.108971514
000350 2c 5f aa bd e7 4c e8 bc e4 65 0f bd 1f 6f 44 bd
       -0.08318934 -0.028356982 -0.03500928 -0.047957536
000360 e3 13 25 3a 22 b5 bd 3c 4e 67 1c be 7a e1 00 be
       0.0006297214 0.02315766 -0.15273783 -0.12586012
000370 50 81 25 3d f4 c1 3f bd 45 83 39 be 54 70 ff bd
       0.040406525 -0.046815827 -0.18116482 -0.12472597
000380 b3 18 41 be 9b 06 cb be 4e fe ea bd e3 fc 2e bd
       -0.18857078 -0.39653477 -0.11474286 -0.04272164
000390 d2 de 8d bd 05 13 1e 3d 37 d2 93 bd 92 c6 1b be
       -0.06927265 0.038592357 -0.0721783 -0.15212467
0003a0 32 da 2c 3d 12 bd 26 be 03 75 00 be 51 ba 4b 3d
       0.042200275 -0.16283062 -0.12544636 0.049738232
0003b0 1f 53 04 bd f7 04 6d bb 2e 57 f3 bd 5a 1d 89 bd
       -0.032305833 -0.003616629 -0.118818626 -0.066950515
0003c0 80 e9 11 be e8 b8 75 bc 15 6f 8d bd ea 0b e6 bd
       -0.1424923 -0.014997698 -0.06905953 -0.11232741
0003d0 0f 1f 23 bc 5e a2 33 bc 3d b2 0b bd 09 93 45 be
       -0.009956135 -0.010964004 -0.03410553 -0.1929437
0003e0 2c 6e 95 be e2 97 0f be cf a2 4f 3c e2 61 d5 bd
       -0.29185617 -0.14022782 0.012673094 -0.1041906
0003f0 86 eb ab bd 90 31 0a 3d a0 39 33 bd cb 05 1c be
       -0.08394532 0.033738673 -0.043756127 -0.15236585

lstm.weight_ih_l1 f4 [512, 128]
000000 b0 e4 35 bd 35 78 88 bd 4e a6 7e 3d 50 73 0a 3e
       -0.044407547 -0.06663553 0.06217032 0.1352055
000010 65 d2 13 be 44 87 7b bd 45 16 19 3e 85 2f e3 3d
       -0.14435728 -0.061408296 0.14949901 0.11093048
000020 e0 77 38 3e bb 07 69 3d 38 82 27 3c 44 6e ae 3d
       0.18014479 0.056892138 0.010223918 0.08517125
000030 ba b7 64 3d 27 6c 8e 3d ec f0 6f be 5d e2 88 3d
       0.055839278 0.06954222 -0.23431748 0.066838
000040 15 42 8d ba 4d 50 8c 3d 36 c9 ad 3e 5c ba 8b ba
       -0.001077714 0.06851254 0.33942574 -0.0010660398
000050 3f e2 25 3d e7 aa 6d 3e 51 6f b4 3c a4 61 84 bc
       0.04049897 0.23209725 0.022025736 -0.01615984
000060 ef 57 65 3c 49 63 a5 bc e8 7b 25 3d 7d 43 2f 3d
       0.013998016 -0.020188944 0.04040137 0.04278897
000070 d0 fd 08 3e 95 fc c3 bd 34 22 dd 3c 0c 5b fe bd
       0.13378072 -0.095696606 0.026993848 -0.124197096
000080 33 e3 85 bd dc 2d df bc 13 20 95 3c 10 00 5d bd
       -0.065374754 -0.027243547 0.01820377 -0.053955138
000090 b8 98 a1 3d bf 2a 56 3d 95 af 88 bd a0 2c 2b bd
       0.07890457 0.05228686 -0.066741146 -0.041790605
0000a0 23 c2 08 3e 4a ea 41 3e 71 3a 5c bd 17 79 c2 3e
       0.13355307 0.1893703 -0.05376667 0.3798301
0000b0 a2 39 19 3e 7c 81 b8 bd e6 66 23 bd f3 f1 fd 3c
       0.14963391 -0.09009072 -0.039893053 0.03099916
0000c0 68 11 7c bd cf 66 82 bc ae 99 8f bd fb a7 4e be
       -0.061540037 -0.015918164 -0.07011734 -0.20181267
0000d0 e6 8c 06 3e 14 dd 0c be f5 b6 32 be 98 ec 42 3d
       0.13139686 -0.1375621 -0.17452605 0.047588915
0000e0 4f 0a e6 bd ea 95 b8 3d f6 0b 7c 3c a3 b4 b6 3c
       -0.11232435 0.09012969 0.015383711 0.022302931
0000f0 d7 d5 13 3d 49 10 bd 3e 12 df d7 3d 31 77 dd 3d
       0.036092605 0.36926487 0.10540594 0.108137496
000100 c5 74 32 be 6f 86 3c 3d d6 f9 30 3f f9 29 a6 bd
       -0.17427357 0.046026643 0.6913122 -0.081134744
000110 cc bf 8f bd 4d 90 3f bd b8 24 e0 3c e9 94 5b be
       -0.07019004 -0.046768475 0.027361259 -0.21443523
000120 2c c4 6c be 2c d1 df ba 99 85 06 3e 2a 3e 33 3c
       -0.23121709 -0.0017075888 0.13136901 0.010940114
000130 9b e6 21 be 1f c3 af 3d 7b b3 5c bd 38 b1 c3 3e
       -0.15810625 0.08582138 -0.053882103 0.38221145
000140 5d 86 25 3e 32 9a 98 bd 4d e7 cc bd 1f 42 b5 3d
       0.16164537 -0.074512854 -0.100050546 0.08850502
000150 1e 11 cf bd fa 33 a8 bd f9 64 97 3d 03 f3 4e bc
       -0.10110687 -0.08213039 0.07392306 -0.012631181
000160 c2 b4 b0 bd e4 b0 32 bd 8e 2d 08 3e 89 71 a7 bd
       -0.08628227 -0.043625727 0.13298628 -0.08175952
000170 8f 88 cb bd aa 45 bb bd 99 a5 03 bf 6e 2c 03 be
       -0.09938156 -0.09144147 -0.51424557 -0.12809917
000180 97 b1 88 bc ff e5 99 3e 7d 95 f0 bd 22 c9 5d 3e
       -0.016686244 0.30058286 -0.117472626 0.21658757
000190 09 fc 92 3e 70 05 85 bd d4 95 66 3e af 43 69 3e
       0.28707913 -0.06495178 0.22518092 0.22779725
0001a0 9b f3 59 bd 48 86 23 3e 6f a1 aa bd 68 fa a2 bd
       -0.053210836 0.15969193 -0.08331572 -0.079579175
0001b0 28 51 29 3c 80 6d c0 bd d2 da 17 bd 4c 59 21 3e
       0.010334291 -0.093958855 -0.037073918 0.1575672
0001c0 93 2a 7c bd 2f 48 9c bc db 1a ce 3d b6 8a d3 bb
       -0.06156404 -0.019077389 0.10063716 -0.0064557446
0001d0 74 b7 ac 3d 93 3e e9 bc 60 ea 12 bd 0f 82 cf 3d
       0.084334284 -0.02847222 -0.03586805 0.101322286
0001e0 e3 a7 59 3e d7 56 70 3e 6d 15 3f 3c 2a c6 8f be
       0.2125545 0.23470627 0.011662823 -0.28080875
0001f0 78 07 a4 3d e9 7f 0f 3b a8 2a 40 3d ab 64 19 be
       0.08009237 0.0021896309 0.04691568 -0.14979808
000200 b8 59 be bb c3 72 a9 3c 0c 14 1b bd 81 25 b3 bd
       -0.005809035 0.020684605 -0.037860915 -0.08747388
000210 37 c9 83 bd 7e 6b 10 bb ca 3a 55 3e 1a 78 5d bd
       -0.06434863 -0.0022036727 0.20823207 -0.054069616
000220 b9 d3 81 be ea b4 82 ba 8a da 2d 3d d9 63 74 3c
       -0.25356844 -0.000997213 0.042444743 0.014916384
000230 c1 8b dc 3c c0 c5 ee bc b6 bb aa bd 1b 2e 73 be
       0.026922109 -0.029147029 -0.08336584 -0.23748057
000240 d0 aa 1a be 9d a8 15 3e 0c 2f b9 3d 91 02 73 3d
       -0.15104222 0.14615102 0.090421766 0.05932862
000250 01 90 11 3e eb 29 0e be ae 41 8d 3e 48 74 f2 3d
       0.1421509 -0.13883178 0.27589172 0.11838585
000260 88 77 b3 bd 73 e1 81 bd 9a aa 81 3e ac 81 59 3e
       -0.08763033 -0.06341829 0.2532547 0.21240872
000270 bd 7f a9 bd 22 64 86 be ec 05 0a bd c0 4a e4 3d
       -0.08276317 -0.2624827 -0.033697054 0.1114707
000280 c6 a5 0c 3e 38 8b fe bc d0 04 ad bd 83 63 96 bd
       0.13735113 -0.031072244 -0.084481835 -0.07343199
000290 70 70 ab 3d aa f3 56 3e 4b 41 89 bd 4b 55 15 3e
       0.08371055 0.20991388 -0.06701907 0.14583318
0002a0 74 ba e9 3d e0 cc bd bd dd f5 1a 3d 3c 96 1a 3e
       0.11412516 -0.092675924 0.03783213 0.15096372
0002b0 2d ee e5 bc 46 40 6f be 6d 9d 2c bd 15 b5 3b 3e
       -0.028067673 -0.23364362 -0.04214232 0.18330796
0002c0 da 8d 5c be 06 d6 af bc 3f 46 86 3d e6 b9 b3 3d
       -0.21538487 -0.021464359 0.06556367 0.08775692
0002d0 05 d8 7f 3d 57 fd 00 bd 39 76 89 3e 6e f6 62 bb
       0.06246187 -0.031491604 0.2684801 -0.0034631747
0002e0 0e a9 27 bd be 32 cd bd 1c ac 23 be b6 bd 88 bd
       -0.040932707 -0.10019444 -0.15983623 -0.066768095
0002f0 1e bb d7 bd b8 7e 84 bd f0 0d 3a bd 74 e2 f9 3d
       -0.10533737 -0.06469482 -0.045423448 0.12201396
000300 5e 99 98 3d d9 01 1c bc 79 2e c1 bd 92 b0 13 3d
       0.074511275 -0.009521925 -0.09432692 0.036057062
000310 8d ff 97 3e c5 77 a1 bc 65 e4 95 3d 58 77 6f 3e
       0.29687157 -0.01971043 0.073189534 0.2338537
000320 21 bf 06 3e a1 c6 52 bd a4 d7 0b bd b3 0f fa bd
       0.13158847 -0.05145896 -0.034141198 -0.12210026
000330 10 08 db 3c 0a b2 02 3e 45 1a 13 3e 4c 57 0e 3e
       0.026737243 0.12763229 0.1436549 0.13900489
000340 dc ef 69 3c 01 f5 a4 3d ee ec 5d bd ab 0a 23 bd
       0.014278378 0.08054543 -0.054181032 -0.039805096
000350 3c ce a9 3d e5 4e 08 3d 75 f9 0b bd ae 84 39 3d
       0.08291289 0.033278365 -0.034173448 0.04529255
000360 6e 5d 1c 3e d9 a0 f7 bc 5f 43 03 3e 32 cf 5a 3d
       0.15270016 -0.030228065 0.12818669 0.053420253
000370 6c 4f d0 ba 60 7c d6 bd bc a6 f1 3d 8d 23 ae bc
       -0.001589281 -0.104729414 0.1179938 -0.021257186
000380 a2 bd c5 3d 28 d8 95 bd b0 d9 62 3d de f4 34 3d
       0.0965531 -0.07316619 0.055383384 0.044178836
000390 0b 36 e1 bc d5 d1 74 be ef 6d fd 3c b3 c6 be be
       -0.02749159 -0.2390817 0.03093621 -0.3726097
0003a0 74 1d ef bd fb 24 08 3e fd 95 2e 3d 86 14 55 be
       -0.116755396 0.13295357 0.04262351 -0.2080861
0003b0 cd b7 32 3e 1b 56 1f 3e 7f 35 95 be e5 c4 61 be
       0.17452927 0.1556019 -0.29142377 -0.22047766
0003c0 66 59 07 3d cd 39 f1 3d cd 4c 8c bd 42 1b fa 3c
       0.03304424 0.11778603 -0.06850586 0.030530576
0003d0 87 cc 4b 3d 1b 17 97 bd ae 73 34 3d 26 20 78 3e
       0.0497556 -0.07377454 0.044055633 0.24231014
0003e0 28 eb 15 3b fc 65 05 3d c0 e6 ba 3d 9b ca e6 3d
       0.002287576 0.032567963 0.09126043 0.11269113
0003f0 fd ee 44 be 69 ef 01 bd 03 c0 63 3d c5 3e 30 be
       -0.19231792 -0.03172246 0.05560304 -0.17211445

lstm.weight_hh_l1 f4 [512, 128]
000000 8b 34 18 be 8d 9c 26 bc 38 78 c7 3d 64 20 20 bf
       -0.14863794 -0.010169161 0.09739727 -0.62549424
000010 1f d6 06 be 35 f1 13 bd 37 d0 ff 39 19 cd af 3d
       -0.13167618 -0.036118705 0.00048792522 0.08584041
000020 d9 8b f4 3b b0 3f 3e bd d3 21 be bd 58 fb d5 bd
       0.00746296 -0.046447456 -0.09283795 -0.10448331
000030 a3 e5 16 3d 47 91 2b 3e ec d7 15 3e 29 ce 80 3c
       0.036840092 0.16754638 0.14633149 0.015723305
000040 18 77 bf bc 13 7b c3 3d fa 76 ae 3b 17 50 a7 bd
       -0.023372218 0.09544959 0.0053242417 -0.08169573
000050 9d ef 05 be 87 4e f2 bc a5 c4 2f be 28 5a b5 3c
       -0.13079686 -0.02957846 -0.17164858 0.022137716
000060 b5 ea 0a be 89 84 02 bd 7e 6c 96 bc 11 89 61 bd
       -0.13566096 -0.031864677 -0.01836228 -0.055062357
000070 af fb e2 3d b7 7d fe bc 8a 59 00 3d 4d dc 25 bd
       0.11083161 -0.031065805 0.03133539 -0.0404933
000080 45 56 00 3e 92 60 8d 3e 60 c1 1c 3e 78 e7 21 3c
       0.12532909 0.2761274 0.15308142 0.009881847
000090 3b 49 3f bd cf 0f af bd 41 2e 8a bd 48 31 ed bd
       -0.046700697 -0.08547937 -0.067471035 -0.11581665
0000a0 3a 9d cf bd 1b bb dd 3c d2 a4 14 3d 73 ac 7f 3d
       -0.101374105 0.027066758 0.036289997 0.06242032
0000b0 7c 52 1a 3e 14 0a c4 3d 48 41 15 be 38 5a c6 3d
       0.15070528 0.09572235 -0.14575684 0.096851766
0000c0 b5 c2 c7 bd ed 58 55 bc 65 1d b7 bb 74 80 46 be
       -0.09753934 -0.01302169 -0.005588221 -0.19384938
0000d0 72 62 9c bd f5 95 90 bd 38 13 01 bd 31 91 c2 3d
       -0.076359645 -0.07059852 -0.03151247 0.09500349
0000e0 0f 54 b5 3d ce 54 35 3d ed 0d 04 be 71 04 30 be
       0.088539235 0.04427033 -0.12895937 -0.17189194
0000f0 77 1f 04 3d 8a 53 ec bd 76 d1 c0 bc 52 b9 13 3d
       0.03225657 -0.11539371 -0.023537379 0.036065407
000100 24 50 6b bd 20 76 a9 3c bf b0 1d 3e 5f f7 9a bd
       -0.057449475 0.02068621 0.15399455 -0.075667135
000110 6a 5d 31 be 1a d3 d7 bd 16 a5 97 be 34 a4 c4 3d
       -0.17320791 -0.10538311 -0.29618138 0.09601632
000120 5f da 9b 3d 3f 39 77 bc 6b 9a f9 3d 91 34 38 3d
       0.0761001 -0.015089332 0.12187656 0.044972006
000130 f0 e2 20 3e 71 f9 d0 3d e9 f1 e9 3d e7 32 04 3e
       0.1571157 0.10203827 0.11423094 0.12910043
000140 ac ef 78 bd 07 82 0d 3e e3 ff a8 bc 2f 1f 37 3e
       -0.060775444 0.13819133 -0.020629829 0.1788299
000150 e5 36 dd bd e6 16 b4 3a 37 62 23 be 0c a1 b7 3c
       -0.10801486 0.0013739734 -0.15955435 0.02241566
000160 90 ff 24 3d 63 96 73 3c 77 21 55 3d b1 0e 4f bd
       0.040282786 0.014867398 0.052033868 -0.05055112
000170 74 2f 06 3c 96 3c 9b bb ba 92 ad bd 9d c8 06 be
       0.008190025 -0.004737447 -0.084752515 -0.13162465
000180 a3 6d 01 3e 02 66 1a be 4b 62 1f 3c be 28 db 3d
       0.1263948 -0.15077975 0.009728025 0.1070113
000190 44 27 76 3d 63 62 09 bc 38 48 d5 be 7c 49 ca 3c
       0.06009604 -0.008385274 -0.4165666 0.024693243
0001a0 ec dd 7e bd 17 3c 8e 3c 0a 6e 39 3e ca 94 2d bd
       -0.06222336 0.017362637 0.18108383 -0.042378224
0001b0 70 34 aa 3b ce f7 02 3e 71 38 54 3d 4d d9 4e 3e
       0.0051942393 0.12789842 0.05181164 0.20200081
0001c0 b3 a3 34 3d 2c 2e 75 3c 58 38 11 3e ec 5b 43 bc
       0.04410143 0.0149646215 0.1418165 -0.011923771
0001d0 7b d1 43 3c 0f eb f1 3d 0f a0 2c 3d 50 22 85 3d
       0.0119517995 0.11812412 0.04214483 0.06500685
0001e0 c3 16 94 bc 14 26 2e 3e 05 2e ab bc 9a 87 93 bd
       -0.01807726 0.17006713 -0.020895967 -0.07203598
0001f0 53 cd 81 bd d4 41 0a 3d a5 11 d1 3d d4 41 15 3e
       -0.063379906 0.033754185 0.102084436 0.14575893
000200 e7 37 1f be 81 1d ad bb 02 b6 0e 3e 63 05 7d 3d
       -0.15548669 -0.005283058 0.13936618 0.061772715
000210 8f 27 1c bc b4 10 94 3c 9f f7 a8 3e 83 bf 25 be
       -0.009530916 0.01807437 0.3300142 -0.16186337
000220 1d c1 b3 3d 71 9d bb bd 68 54 7b be 38 71 2c bd
       0.08777068 -0.09160889 -0.24543917 -0.04210016
000230 ad 8e eb bd 1c a3 67 3d f6 c9 e2 3c 9a 0d 08 bd
       -0.115018226 0.056552038 0.027684193 -0.033216096
000240 02 af 1e 3e 84 07 f1 3d e6 79 83 bc 9b ff 05 bd
       0.15496448 0.117690116 -0.016049337 -0.032714467
000250 91 ec 52 bd 3e b9 5e be 74 7f 11 be d2 63 84 bd
       -0.05149514 -0.21750352 -0.14208776 -0.06464352
000260 8d 01 dc bd 76 43 5c bd ce a7 00 3e 26 9c 07 be
       -0.10742483 -0.053775273 0.12564012 -0.1324316
000270 ad c3 fb 3d c4 3b 0f 3d 0e bb 01 3e db 0c 61 3d
       0.122931816 0.034969106 0.12669012 0.0549439
000280 1d 60 01 3e b9 e9 96 3e 5a 4d d7 3c 06 c8 0d 3d
       0.1263432 0.2947519 0.026282001 0.034614585
000290 fa d1 02 3e a7 ae 5b 3c e4 97 89 bc 7d 30 6e 3c
       0.12775412 0.01340834 -0.01679606 0.014537928
0002a0 05 47 cc 3c 85 16 a8 bd 24 47 94 3d 82 e5 99 3c
       0.024936209 -0.0820742 0.072401315 0.018786196
0002b0 21 b4 0c 3e c1 a9 1f 3e 1d a8 15 be 34 02 44 3e
       0.13740589 0.155921 -0.14614911 0.19141465
0002c0 5f c9 37 be 0c 98 d8 bd 78 d1 37 bd 44 7b 8a ba
       -0.1794791 -0.10575876 -0.0448775 -0.00105653
0002d0 63 bd 13 be 71 be 39 be d6 35 b5 bd 6c 25 11 3e
       -0.14427714 -0.18139054 -0.08848159 0.14174432
0002e0 11 3a cc 3d f8 1a b6 bb 06 dd 23 be 7a ec 20 be
       0.09972013 -0.005557414 -0.16002283 -0.15715209
0002f0 05 3b fa bd 68 76 49 be ec d1 6e bc e7 67 37 3d
       -0.12218288 -0.19674075 -0.014576416 0.044776823
000300 d8 e6 f9 3c 92 75 dd 3d 10 2f 42 3d 64 e7 53 3d
       0.030505583 0.108134404 0.047408164 0.051734343
000310 ca 92 3e be 81 e9 08 be 98 29 2a be e3 61 07 3e
       -0.18610683 -0.13370325 -0.1661743 0.13220935
000320 f8 06 bd 3d 8f 0c 27 be 15 5a ff 3d f2 7e 03 3e
       0.09229845 -0.16313384 0.12468354 0.12841395
000330 2d d9 fe 3d 27 e9 de 3d 1a 8a f9 3d da 6b 33 3e
       0.12443767 0.10884314 0.12184544 0.17521611
000340 98 64 83 3d ca 0f 5d 3e 5d 1b 04 3a 8b 12 54 3e
       0.06415671 0.21588054 0.0005039478 0.20710199
000350 7e 8b df bd ac 18 c3 3d 5e 36 08 bd c1 70 ca 3d
       -0.10915278 0.0952619 -0.033254974 0.09884787
000360 08 3c ea bc 5d bc 0b be b7 f8 41 3e d3 f0 a6 bd
       -0.028593078 -0.13646074 0.18942533 -0.08151402
000370 a5 8b 82 be 37 15 24 be 3f 71 bd bd de bd bd bd
       -0.25497165 -0.16023718 -0.092501156 -0.0926473
000380 2b 45 23 3e 22 e3 5e be 7e d8 21 bc be aa c9 3d
       0.15944354 -0.21766332 -0.009878276 0.098470196
000390 c2 0f 9c 3d 79 ce 02 be d6 08 ed bc 59 8b 2c be
       0.07620193 -0.12774076 -0.028934877 -0.16850032
0003a0 d1 e5 1b 3e f3 27 3b 3e 23 b0 16 3e 12 5b 03 3d
       0.15224387 0.18276958 0.14715628 0.032069273
0003b0 92 7d 00 be d2 75 a8 bd f9 b0 54 3d 0c 45 8f 3d
       -0.12547901 -0.082255974 0.051926587 0.069955915
0003c0 8a 89 af 3e 27 bb 77 bd 05 d8 cb 3d 24 b9 34 3c
       0.3428462 -0.060481217 0.09953312 0.011030469
0003d0 ff 58 eb 3d b0 51 13 3c a8 32 45 3d 18 98 9b 3d
       0.11491584 0.008991644 0.048144013 0.07597369
0003e0 65 5b bf ba 44 71 8c bc 49 ef ae bd f1 5a 34 bc
       -0.0014599381 -0.017143853 -0.08541734 -0.01100801
0003f0 09 a7 33 3d 28 19 73 3d 1c 23 44 3c 7f 22 5f bd
       0.04386047 0.059350163 0.011971261 -0.054476257

lstm.bias_ih_l1 f4 [512]
000000 dd a5 19 be 66 7b a5 bd ea 6e 87 3d 90 79 3c be
       -0.15004678 -0.08080177 0.06612952 -0.18405747
000010 d0 36 76 bb 3d b3 15 bd 95 7a 4b bd 09 2f f8 bd
       -0.0037569292 -0.036547888 -0.04967745 -0.12118346
000020 f2 bc b2 3d f5 cd 10 be 98 b2 01 be d6 6f bd bd
       0.08727445 -0.14141066 -0.12665784 -0.09249847
000030 9b 5c 5a bd 3d 20 ab bd 4f b8 55 bd 06 ca 89 3b
       -0.05331097 -0.08355758 -0.052177723 0.0042049913
000040 02 71 d7 bd 8b be f2 bc 9b 41 ad 3c 90 20 b8 3d
       -0.105196014 -0.029631874 0.021149447 0.08990586
000050 f6 00 49 bd bc 38 eb bd c0 b1 89 3d 03 12 86 3d
       -0.049073182 -0.114854306 0.06723356 0.06546404
000060 85 b7 ce bd 01 c3 87 3d ba 28 a7 bd 26 e2 e8 3b
       -0.10093597 0.06628991 -0.08162065 0.007107037
000070 bf 2d 61 be d4 7a 29 be 4c b0 b7 bd 08 b2 c3 3b
       -0.21990107 -0.16550761 -0.08969173 0.0059721507
000080 29 bb 2f bd f1 4c 11 be 67 8c 13 bd d2 39 21 bc
       -0.0429031 -0.14189507 -0.03602257 -0.009840446
000090 f7 2e 0e bc da 81 47 bd b5 cf 88 be f7 b7 db bc
       -0.0086781895 -0.04870782 -0.26720968 -0.02682112
0000a0 ac 9a 0b 3d 3c 1d 3c bd 5d ef 4c bd 8e 18 43 be
       0.034083053 -0.045926318 -0.050032962 -0.19052336
0000b0 5a 57 f5 3b cf 5b 5b bd d0 33 46 bc 55 1d 91 bd
       0.0074872198 -0.053554352 -0.012097314 -0.07085673
0000c0 0d 7b 76 bd 9d 28 9e bc d0 5c 45 bd 92 64 4c bb
       -0.060175944 -0.019306475 -0.048184216 -0.0031187874
0000d0 10 82 ec bd 69 93 46 bd eb c8 8c bd 3c 3b 4b bd
       -0.11548245 -0.048480425 -0.068742596 -0.049617037
0000e0 0f 7f 3b 3d d9 81 41 3d 90 94 22 be c3 fa 54 bd
       0.04577547 0.047242973 -0.15876985 -0.051996958
0000f0 49 14 67 bd 81 e3 19 be a0 99 21 3d 12 dc 8d bd
       -0.05641583 -0.15028192 0.03945315 -0.06926741
000100 b3 92 7b 3d c6 8c 76 bd d6 ee a6 3c 39 a5 7d bc
       0.0614192 -0.060192846 0.020377558 -0.015481287
000110 26 a3 a2 bd 5f fd a5 bd 36 ab f5 bc 60 78 c7 ba
       -0.07941274 -0.08104967 -0.029988866 -0.001521837
000120 3d 74 ee bd 23 b7 5d 3d 9f ca 65 3c c2 43 12 be
       -0.116432644 0.05412973 0.014025359 -0.1428366
000130 04 6d 19 be 25 a5 f0 bc 18 55 56 3c 29 25 de bd
       -0.14982992 -0.029375622 0.013081811 -0.108469315
000140 00 65 d4 bd 40 c3 62 bb 06 65 b8 3a 8d c9 93 bc
       -0.10370827 -0.0034601241 0.0014068193 -0.018040443
000150 5d 9f 69 bc 4b b8 73 bd 4f ad 1d be d5 d4 21 3d
       -0.014259187 -0.059501927 -0.15398143 0.039509613
000160 c8 f0 aa bd c5 d5 d6 bc bf 32 9a 3d 31 d6 8d bc
       -0.08346707 -0.02622498 0.0752921 -0.017314048
000170 15 ce 85 3c 4f 0c 16 bc 6b 41 6b bc bb 9a 84 3b
       0.01633362 -0.009158208 -0.014358859 0.0040467656
000180 f5 39 0f 3d 2a 29 1e bd 49 b1 0b be 0e 37 32 be
       0.03496738 -0.038613476 -0.13641848 -0.17403814
000190 07 a3 b3 bc 76 4f a1 bd 73 f0 01 be ca a4 ed bc
       -0.021928323 -0.07876484 -0.1268938 -0.029009242
0001a0 32 e2 ba bb ec 3c 17 be d7 83 a6 b9 64 1b 7c bd
       -0.005703234 -0.14769334 -0.00031760216 -0.06154956
0001b0 a2 e1 b4 bd 4f 78 a2 bd 64 a0 e8 bc 82 c7 05 bc
       -0.088320985 -0.07933103 -0.028396793 -0.008165242
0001c0 09 e6 27 3d 6c 9c c7 3c a6 b0 cf 3b 1e ba d4 3c
       0.040990863 0.02436658 0.006338197 0.025967654
0001d0 33 82 88 bd c7 07 36 bd 91 cf a3 bd 1b 47 bf bd
       -0.066654585 -0.04444101 -0.079985745 -0.09339734
0001e0 c2 a0 27 3d b8 72 f3 bd 9c d5 39 be 1f 39 df bd
       0.040924795 -0.11887115 -0.18147892 -0.10899567
0001f0 93 42 36 be a1 61 08 bd ec 31 a2 3c 3a d7 2e be
       -0.17798834 -0.03329623 0.019799195 -0.1707429
000200 dd 1e f2 bd a4 f6 66 3d fa 85 4f bd 94 3a 13 be
       -0.11822293 0.05638756 -0.05066488 -0.14377815
000210 cd fb 43 3d 09 18 22 3c c2 95 59 bc a3 03 2a be
       0.047847558 0.009893426 -0.013280334 -0.1660295
000220 f6 6b 9e 3c 7b d6 3b 3d 3f 25 00 be 99 79 f1 bb
       0.01933859 0.04585884 -0.12514208 -0.007369232
000230 78 44 af bd 6e ac 44 be 37 26 54 3d 91 fd 1e 3d
       -0.08557981 -0.19206402 0.051794257 0.03881604
000240 d7 40 93 bd 4d cd ad 3d 75 ed 6f bd 13 f9 48 39
       -0.071901016 0.08486424 -0.058576066 0.00019166274
000250 96 96 12 bd c0 fd 67 3d 42 35 80 3d c3 0a 66 3b
       -0.03578814 0.05663848 0.06260158 0.003510163
000260 29 ab 03 ba 7c a3 fd 3c 46 ee 56 3c 4b 25 a0 3d
       -0.0005022758 0.030961744 0.013118332 0.07819613
000270 cc 84 47 be da 32 ce bd d6 1b 40 3c 06 d6 4b bc
       -0.19484252 -0.10068293 0.011725387 -0.012441164
000280 7c 0d 8d bd 76 96 aa 3d 03 66 6c 3d d3 a2 80 bd
       -0.068873376 0.083294794 0.057714473 -0.06281056
000290 14 18 08 be b0 cf d6 3d 6d 67 24 be 95 c7 e2 bd
       -0.13290435 0.10488832 -0.16055079 -0.110732235
0002a0 79 17 90 3d 4c 6a 80 bb d5 15 89 3c b9 28 4e bc
       0.07035727 -0.0039189216 0.016734043 -0.012582951
0002b0 b1 ea 96 3c 55 e5 25 3c b8 4d 48 bd f6 2e ce bd
       0.018422456 0.010125478 -0.048902243 -0.10067551
0002c0 85 97 f2 bb f8 5e 9c bd 72 ef 76 bd 28 5d ff bd
       -0.0074033164 -0.07635301 -0.060286947 -0.1246894
0002d0 2b 43 f0 bc 02 2c ed 3c 41 17 c2 bd 81 e7 cb bd
       -0.029328903 0.028951649 -0.094770916 -0.09956265
0002e0 b1 6c 02 3e 25 bc e4 3c 5a d4 b4 bc da f4 85 3c
       0.12736775 0.027921746 -0.022073913 0.016352106
0002f0 d9 02 94 bd b4 0c be bd b7 75 c1 ba 23 33 05 bd
       -0.07227106 -0.09279767 -0.0014759813 -0.03251947
000300 1e 67 90 bd b0 20 12 3c 9a 4b a3 bd b4 d9 58 3d
       -0.07050918 0.008918926 -0.07973404 0.052941993
000310 20 41 35 bd ea 08 19 bd 65 7d 1f be 70 18 73 3d
       -0.04425156 -0.037362017 -0.15575178 0.059349477
000320 02 c2 09 be 28 79 2c 3d 53 68 fb 3a 5a ca 11 3d
       -0.13452914 0.04210773 0.0019180871 0.035593368
000330 9b cd 2e be 18 dd 91 3d 2a 61 ab 3d 8f 22 fd bd
       -0.1707062 0.071222484 0.08368142 -0.12360107
000340 58 e6 dd 3c 85 3c b1 be b8 81 33 bd 96 a7 3d 3e
       0.027087376 -0.34616485 -0.04382488 0.1852096
000350 c4 5b 27 3c 80 9f bc 3d 89 20 73 3d cb 58 87 bd
       0.01021475 0.0921011 0.0593572 -0.06608733
000360 7c 14 14 be 5f a4 a8 3d 25 9c 90 3d 9e 4e e8 bd
       -0.14460939 0.08234476 0.07061032 -0.1134312
000370 01 3f 66 be a9 55 1d 3b 20 fa 1e bd 89 ed 4e 3d
       -0.22484972 0.0024007356 -0.038812757 0.0505195
000380 16 b9 2f bd 83 1c f5 bd 2d 14 ac bc 3b 73 b3 bd
       -0.04290112 -0.11968329 -0.021005714 -0.08762213
000390 ab 4d 54 bd de 39 9a bd 34 10 56 be 0d 48 6a bd
       -0.051831882 -0.075305685 -0.20904619 -0.05719762
0003a0 64 4b a0 bd 7c 73 ca 3c da f7 15 bd 54 91 cf 3d
       -0.078268796 0.02471327 -0.036613323 0.10135141
0003b0 a6 83 08 bd 86 58 ac bd 70 7d 3f bd 0f f5 0a be
       -0.033328675 -0.08415322 -0.046750486 -0.13570045
0003c0 8d e5 e9 3c 87 c8 26 bd 08 9b 41 bd 94 21 69 3c
       0.028551841 -0.04071858 -0.04726699 0.014229197
0003d0 ff f2 5d bd e0 9f c1 3d d4 8c 45 bc 76 59 f5 bd
       -0.054186817 0.09454322 -0.012057502 -0.11979954
0003e0 c6 e7 3c 3d 09 22 3a be 76 dd 49 be ef 2f 93 3c
       0.046119474 -0.18177046 -0.19713387 0.017967192
0003f0 3a ed 27 be d4 c6 df bd 6e 2d 31 3d 15 45 12 be
       -0.16399089 -0.10926595 0.043256216 -0.14284165
