data/Checkpoints/Model_v1_Iter_5/best_tf.pt (torch, 407004 bytes, 200 tensors)

model.encoder.value_embedding.value_projection.weight f4 [32, 31]
0.04288786 0.06856413 0.13496308 0.13838175 -0.018267898 -0.09407433 -0.0031742493 -0.02540292
4.92409e-40 4.92936e-40 -4.94499e-40 -4.93284e-40 0.016320052 0.014272583 0.117991835 0.084917665
-0.03670357 -0.018552113 0.008780894 -0.18782054 -0.031585693 -0.13968144 0.026182063 0.018379163
-0.0037304522 -0.014117614 -0.012430406 0.017126966 -0.00090145797 -0.006514657 -0.00993917 0.027512807
0.08008447 0.15717334 0.1053107 -0.010113871 -0.0467306 0.0060398895 -0.0029262681 4.94522e-40
4.92065e-40 4.90623e-40 4.95454e-40 -0.11134747 -0.133199 0.111177094 0.0799085 0.009826567
-0.06058099 -0.0026551809 -0.18168846 -0.01778179 -0.13156506 0.003737936 0.019870473 -0.01968709
0.08894295 -0.001094965 0.016637899 -0.016167844 -0.04530353 0.0080792 -0.0064824903 -0.009596809
0.03330039 -0.00075853814 -0.019628609 0.015239547 -0.009614229 0.006354273 -4.94667e-40 4.94038e-40
4.90673e-40 -4.9331e-40 -0.047921564 0.00717622 0.1218614 0.11393799 -0.047113433 -0.040374033
0.0042181597 -0.17486988 -0.057108395 -0.092971064 -0.022595169 0.02006975 0.030793887 0.0029562123
-0.01791456 -0.02752906 -0.045252647 0.01559468 0.023690017 -0.03733068 -0.06850492 -0.14661387
-0.14121945 0.0038095368 0.1268345 -0.0053190878 -0.019046357 -4.96137e-40 -4.91154e-40 -4.94422e-40
4.95471e-40 0.084765404 0.047127895 -0.074016556 -0.12799476 -0.0042884797 0.008384189 0.0039964537
0.19928806 0.032931592 0.17228135 -0.033426836 -0.0379956 0.008737064 0.017187988 0.014511561
-0.0097206 0.015548669 0.054507047 -0.010358378 -0.04564942 0.028711779 -0.1280274 -0.034989215
-0.028745921 -0.023265162 -0.012118291 0.01756471 4.93868e-40 4.92551e-40 -4.92513e-40 4.93142e-40
0.00434984 0.040142797 -0.1591914 -0.12890373 0.0023164232 0.02732502 0.007269968 0.20657766
0.013110349 0.101772666 0.01901828 -0.0014665994 -0.017890694 -0.07927209 -0.026196819 0.019309962
-0.0016074278 0.020557864 -0.031633344 -0.020354196 0.04637066 0.04216243 0.02461962 -0.010342255
-0.00024370727 -0.016260201 -0.03641282 -4.90463e-40 4.92484e-40 4.94539e-40 -4.96844e-40 -0.08870082
-0.028112411 0.17055632 0.15863226 -0.049927693 -0.036963362 -0.0033923357 -0.1593523 -0.023595322
-0.14148855 -0.037524216 -0.02599099 0.05069671 0.022260018 -0.04426251 -0.032453567 -0.019802708
-0.059057567 0.030905113 0.008307488 0.0133793885 -0.061902612 -0.030539008 0.019487701 -0.104673825
0.012174392 0.018744482 -4.93683e-40 -4.91189e-40 -4.94656e-40 -4.93854e-40 -0.0011395562 0.00023472375
-0.071020275 0.011812637 0.006170163 -0.034551043 0.0071236985 0.13141976 0.015389285 0.091346726
-0.03874257 -0.041710127 0.011888575 -0.06969672 0.0013995493 -0.028415041 0.03431345 -0.09593471
-0.02516255 0.025985572 0.01969817 0.12968223 0.12143149 0.0028750591 -0.17987984 0.011857801
0.0006948208 4.92172e-40 -4.93274e-40 4.94607e-40 -4.92189e-40 -0.008255912 -0.11001139 0.14580274
0.106283545 -0.026602278 -0.055732604 0.00946855 -0.091844834 -0.007982411 -0.10763174 -0.06151554
0.024700064 -0.028250348 0.011329677 -0.006799855 -0.02273893 -0.017165454 -0.15537044 -0.011944432
0.028320441 0.01871617 0.077078946 0.11433059 -0.013102087 -0.11158777 -0.011045634 -0.0030401344
00000000: 2eab 2f3d 5a6b 8c3d c333 0a3e f2b3 0d3e
00000010: 8fa6 95bc 0baa c0bd 1107 50bb c919 d0bc
00000020: a35c 0500 1b5e 0500 7662 0580 135f 0580
00000030: a1b1 853c 8dd7 693c b4a5 f13d 50e9 ad3d
00000040: 7c56 16bd 9afa 97bc bddd 0f3c 0754 40be
00000050: 0060 01bd a708 0fbe c47b d63c e68f 963c
00000060: 9a7a 74bb 914d 67bc e7a8 4bbc da4d 8c3c
00000070: d24f 6cba e778 d5bb e7d7 22bc 8a62 e13c
00000080: 5403 a43d 0cf2 203e 23ad d73d a6b4 25bc
00000090: 9668 3fbd 44ea c53b a2c6 3fbb 8762 0500
000000a0: ad5b 0500 a857 0500 2065 0500 240a e4bd
000000b0: 5265 08be d1b0 e33d 11a7 a33d 9cff 203c
000000c0: c623 78bd 8b02 2ebb 8a0c 3abe 1eab 91bc
000000d0: feb8 06be 29f8 743b 67c7 a23c d246 a1bc
000000e0: b927 b63d ee84 8fba 344c 883c 6d72 84bc
000000f0: 3290 39bd 9f5e 043c 126b d4bb ef3b 1dbc
00000100: fd65 083d a2d8 46ba 2dcc a0bc 4baf 793c
00000110: 0085 1dbc 8137 d03b ee62 0580 2d61 0500
00000120: cc57 0500 265f 0580 6749 44bd 7f26 eb3b
00000130: 7892 f93d 5258 e93d 04fa 40bd 3e5f 25bd
00000140: 7d38 8a3b 1711 33be 7eea 69bd 9d67 bebd
00000150: 8119 b9bc 5169 a43c 7643 fc3c 03bd 413b
00000160: 8ec1 92bc a084 e1bc d75a 39bd d480 7f3c
00000170: 9111 c23c 0ee8 18bd 4f4c 8cbd f221 16be
00000180: d59b 10be 6ca9 793b e7e0 013e be4b aebb
00000190: 1b07 9cbc 0767 0580 2359 0580 3f62 0580
000001a0: 2c65 0500 7c99 ad3d 2e09 413d fe95 97bd
000001b0: 0f11 03be 6086 8cbb d65d 093c aff4 823b
000001c0: 2b12 4c3e 47e3 063d 866a 303e 94ea 08bd
000001d0: 46a1 1bbd e725 0f3c d3cd 8c3c e6c1 6d3c
000001e0: 2743 1fbc d8bf 7e3c c842 5f3d 30b6 29bc
000001f0: e3fa 3abd f734 eb3c 9d19 03be da50 0fbd
00000200: 917c ebbc 9596 bebc cc8b 46bc dee3 8f3c
00000210: b460 0500 085d 0500 ed5c 0580 ae5e 0500
00000220: 1a89 8e3b c66c 243d 1203 23be 57ff 03be
00000230: 22cf 173b b8d8 df3c e938 ee3b 1889 533e
00000240: cacc 563c 306e d03d 39cc 9b3c e93a c0ba
00000250: 818f 92bc 6859 a2bd b69a d6bc ed2f 9e3c
00000260: 54b0 d2ba f768 a83c f791 01bd d8bd a6bc
00000270: 29ef 3d3d 83b2 2c3d 16af c93c 9072 29bc
00000280: ac8b 7fb9 1d34 85bc 9c25 15bd 3657 0580
00000290: d85c 0500 9362 0500 0069 0580 c7a8 b5bd
000002a0: 004c e6bc 51a6 2e3e 7f70 223e fb80 4cbd
000002b0: e566 17bd f351 5ebb 402d 23be fa4a c1bc
000002c0: 60e2 10be feb2 19bd 0feb d4bc 5aa7 4f3d
000002d0: a45a b63c 9b4c 35bd 08ee 04bd 4a39 a2bc
000002e0: 59e6 71bd b82c fd3c 211c 083c 3935 5b3c
000002f0: 988d 7dbd f12c fabc aca4 9f3c 3b5f d6bd
00000300: 1a77 473c 078e 993c 3060 0580 3c59 0580
00000310: e662 0580 aa60 0580 295d 95ba 2d20 7639
00000320: 1473 91bd ca89 413c 142f ca3b 6585 0dbd
00000330: ea6d e93b e792 063e 5723 7c3c fe13 bb3d
00000340: 87b0 1ebd 3dd8 2abd 4cc8 423c 27bd 8ebd
00000350: 1571 b73a a9c6 e8bc 438c 0c3d 6b79 c4bd
00000360: b121 cebc b2df d43c 0e5e a13c 6bcb 043e
00000370: 13b1 f83d 7d6b 3c3b 6c32 38be 3947 423c
00000380: a224 363a fa5b 0500 0c5f 0580 c362 0500
00000390: 065c 0580 ce43 07bc a74d e1bd 504d 153e
000003a0: 30ab d93d 05ed d9bc df47 64bd fa21 1b3c
000003b0: 2519 bcbd a9c8 02bc 086e dcbd b8f7 7bbd
000003c0: ca57 ca3c 466d e7bc 1ca0 393c 51d1 debb
000003d0: fe46 babc 919e 8cbc 6e19 1fbe 94b2 43bc
000003e0: 4500 e83c a752 993c 91db 9d3d 2826 ea3d
000003f0: 23aa 56bc 2188 e4bd bff8 34bc fe3c 47bb

model.encoder.embed_positions.weight f4 [29, 32]
0.0 0.0 0.0 0.0 0.0 0.0 0.0 0.0
0.0 0.0 0.0 0.0 0.0 0.0 0.0 0.0
1.0 1.0 1.0 1.0 1.0 1.0 1.0 1.0
1.0 1.0 1.0 1.0 1.0 1.0 1.0 1.0
0.84147096 0.53316844 0.3109836 0.17689219 0.099833414 0.056204498 0.031617507 0.017781857
0.009999833 0.0056233834 0.0031622723 0.0017782785 0.0009999998 0.0005623413 0.00031622776 0.00017782794
0.5403023 0.84600914 0.95041525 0.9842302 0.9950042 0.9984193 0.99950004 0.99984187
0.99995 0.9999842 0.999995 0.9999984 0.9999995 0.9999998 0.99999994 1.0
0.9092974 0.9021307 0.5911271 0.34820527 0.19866933 0.112231314 0.063203394 0.03555809
0.019998666 0.011246589 0.0063245133 0.0035565514 0.0019999987 0.0011246824 0.0006324555 0.00035565588
-0.41614684 0.43146282 0.8065784 0.9374183 0.9800666 0.9936821 0.9980007 0.9993676
0.9998 0.99993676 0.99998 0.9999937 0.999998 0.99999934 0.9999998 0.99999994
0.14112 0.9932532 0.8126489 0.50853616 0.29552022 0.1679033 0.09472609 0.05332308
0.029995501 0.016869439 0.009486691 0.005334813 0.0029999956 0.0016870232 0.0009486832 0.0005334838
-0.9899925 -0.11596614 0.5827536 0.86104065 0.9553365 0.9858035 0.99550337 0.9985773
0.99955004 0.9998577 0.999955 0.99998575 0.9999955 0.99999857 0.9999995 0.9999999
-0.7568025 0.77847177 0.95358074 0.652828 0.38941833 0.22304448 0.12615407 0.07107121
0.039989334 0.022491757 0.012648773 0.0071130577 0.0039999895 0.0022493633 0.0012649107 0.0007113117
-0.6536436 -0.62767965 0.30113748 0.7575062 0.921061 0.9748083 0.99201065 0.9974713
0.9992001 0.99974704 0.99992 0.9999747 0.999992 0.9999975 0.9999992 0.99999976
-0.9589243 0.3239352 0.99994653 0.77652997 0.47942555 0.27748054 0.15745589 0.08879686
0.04997917 0.028113361 0.01581073 0.00889128 0.0049999794 0.002811703 0.0015811381 0.0008891396
0.2836622 -0.94607925 -0.010342319 0.6300803 0.87758255 0.96073127 0.987526 0.99604976
0.99875027 0.99960476 0.999875 0.9999605 0.9999875 0.99999607 0.99999875 0.9999996
-0.2794155 -0.23036748 0.94714814 0.8757406 0.5646425 0.33103934 0.18860029 0.106494434
0.059964005 0.03373408 0.018972527 0.010669474 0.005999964 0.0033740415 0.0018973654 0.0010669675
0.96017027 -0.9731037 -0.32079646 0.482782 0.8253356 0.943617 0.98205394 0.9943133
0.99820054 0.99943084 0.99982 0.9999431 0.999982 0.99999434 0.9999982 0.9999994
0.6569866 -0.71372116 0.80042166 0.9473307 0.64421767 0.38355157 0.2195561 0.12415834
0.06994285 0.03935373 0.022134136 0.012447635 0.006999943 0.003936379 0.0022135926 0.0012447953
0.75390226 -0.7004299 -0.5994374 0.32025698 0.7648422 0.92351943 0.9755999 0.9922624
0.997551 0.9992253 0.999755 0.9999225 0.9999755 0.99999225 0.99999756 0.9999992
00000000: 0000 0000 0000 0000 0000 0000 0000 0000
00000010: 0000 0000 0000 0000 0000 0000 0000 0000
00000020: 0000 0000 0000 0000 0000 0000 0000 0000
00000030: 0000 0000 0000 0000 0000 0000 0000 0000
00000040: 0000 803f 0000 803f 0000 803f 0000 803f
00000050: 0000 803f 0000 803f 0000 803f 0000 803f
00000060: 0000 803f 0000 803f 0000 803f 0000 803f
00000070: 0000 803f 0000 803f 0000 803f 0000 803f
00000080: a46a 573f ba7d 083f 3e39 9f3e 3a23 353e
00000090: 7675 cc3d b036 663d 5c81 013d 42ab 913c
000000a0: 57d6 233c 5c44 b83b 203e 4f3b 2015 e93a
000000b0: 6d12 833a 166a 133a 5fcb a539 5377 3a39
000000c0: 4051 0a3f 0e94 583f 6a4e 733f 83f6 7b3f
000000d0: 98b8 7e3f 6898 7f3f 3cdf 7f3f a3f5 7f3f
000000e0: b9fc 7f3f f7fe 7f3f acff 7f3f e5ff 7f3f
000000f0: f8ff 7f3f fdff 7f3f ffff 7f3f 0000 803f
00000100: b7c7 683f 0af2 663f 1b54 173f f647 b23e
00000110: f96f 4b3e 88d9 e53d c870 813d 5ca5 113d
00000120: 3ed4 a33c 9d43 383c dd3d cf3b 0815 693b
00000130: 6912 033b 146a 933a 5fcb 253a 5377 ba39
00000140: 3311 d5be b2e8 dc3e ec7b 4e3f a5fa 6f3f
00000150: a5e5 7a3f f361 7e3f f97c 7f3f 8ed6 7f3f
00000160: e5f2 7f3f dbfb 7f3f b0fe 7f3f 96ff 7f3f
00000170: deff 7f3f f5ff 7f3f fdff 7f3f ffff 7f3f
00000180: c381 103e d745 7e3f c209 503f 6d2f 023f
00000190: 6d4e 973e d8ee 2b3e c1ff c13d 4d69 5a3d
000001a0: 20b9 f53c c731 8a3c 116e 1b3c a8cf ae3b
000001b0: 939b 443b 1b1f dd3a 0db1 783a 7ed9 0b3a
000001c0: 2670 7dbf a87f edbd 572f 153f 296d 5c3f
000001d0: ef90 743f 9e5d 7c3f 4fd9 7e3f c3a2 7f3f
000001e0: 83e2 7f3f adf6 7f3f 0dfd 7f3f 11ff 7f3f
000001f0: b5ff 7f3f e8ff 7f3f f8ff 7f3f feff 7f3f
00000200: cfbd 41bf ed49 473f de1d 743f bc1f 273f
00000210: d761 c73e c665 643e 882e 013e c88d 913d
00000220: dbcb 233d a240 b83c cd3c 4f3c a714 e93b
00000230: 5812 833b 0e6a 133b 5ccb a53a 5277 3a3a
00000240: 3055 27bf 9daf 20bf b12e 9a3e edeb 413f
00000250: a7ca 6b3f 098d 793f 69f4 7d3f 475a 7f3f
00000260: 94cb 7f3f 6cef 7f3f c2fa 7f3f 58fe 7f3f
00000270: 7aff 7f3f d6ff 7f3f f3ff 7f3f fcff 7f3f
00000280: 107c 75bf d6da a53e 7ffc 7f3f abca 463f
00000290: 4477 f53e ee11 8e3e 1e3c 213e 21db b53d
000002a0: f5b6 4c3d fe4d e63c 8185 813c bbac 113c
000002b0: ded6 a33b 8c44 383b 313e cf3a 2615 693a
000002c0: 2c3c 913e 4032 72bf d472 29bc f14c 213f
000002d0: 40a9 603f 7cf2 753f 81ce 7c3f 1efd 7e3f
000002e0: 19ae 7f3f 19e6 7f3f cff7 7f3f 69fd 7f3f
000002f0: 2eff 7f3f beff 7f3f ebff 7f3f f9ff 7f3f
00000300: 8c0f 8fbe 74e5 6bbe 4d78 723f 8930 603f
00000310: 698c 103f fd7d a93e 6f20 413e c119 da3d
00000320: d19c 753d bf2c 0a3d 466c 9b3c 04cf 2e3c
00000330: 599b c43b 061f 5d3b 05b1 f83a 7dd9 8b3a
00000340: b8cd 753f 531d 79bf 6f3f a4be 342f f73e
00000350: 3249 533f e290 713f e367 7b3f 518b 7e3f
00000360: 128a 7f3f b3da 7f3f 34f4 7f3f 45fc 7f3f
00000370: d2fe 7f3f a1ff 7f3f e2ff 7f3f f6ff 7f3f
00000380: 4630 283f 6eb6 36bf 6fe8 4c3f 4484 723f
00000390: 73eb 243f df60 c43e 50d3 603e ba46 fe3d
000003a0: 323e 8f3d 6031 213d a652 b53c 2af1 4b3c
000003b0: c75f e53b befc 803b ec11 113b 6628 a33a
000003c0: bdff 403f 604f 33bf bb74 19bf b9f8 a33e
000003d0: b3cc 433f c56b 6c3f eac0 793f e904 7e3f
000003e0: 815f 7f3f 3bcd 7f3f f2ef 7f3f ecfa 7f3f
000003f0: 65fe 7f3f 7eff 7f3f d7ff 7f3f f3ff 7f3f

model.encoder.layers.0.self_attn.k_proj.weight f4 [32, 32]
-0.03378562 -0.11451843 -0.083268404 0.014020631 -0.017659592 -0.03923036 0.0019786558 -0.061038166
0.14295048 0.013686863 0.034388717 -0.012951057 0.039521556 -0.056936193 0.094022825 0.047530726
0.17856364 0.06507236 -0.08819773 0.04799036 -0.042648718 -0.021522865 0.059206106 0.013062176
-0.021511808 -0.10710015 -0.009956088 0.0646541 0.13518657 -0.08130994 -0.04094013 -0.021382185
-0.004434522 0.11024243 0.09409252 -0.013800421 -0.002350683 0.038242854 -0.009331859 0.0733501
-0.1598187 -0.004400053 -0.017626425 0.024336226 -0.026214229 0.068494104 -0.09737347 -0.03171372
-0.17268743 -0.055605892 0.086708255 -0.065834224 0.024903147 -0.003099545 -0.06699111 -0.0124167
0.057587918 0.1133204 -0.00021243883 -0.059483398 -0.13099602 0.099331684 0.054250773 -0.018095803
0.022898648 0.109406315 0.057238225 -0.07126313 0.00785175 0.031927504 0.024978861 0.095556065
-0.17928508 -0.039859742 -0.013023936 0.032005776 -0.04602407 0.06486352 -0.1154968 -0.043808382
-0.17088327 -0.0466975 0.042302057 -0.006517467 0.04112321 0.010118045 -0.038864587 -0.014292097
0.012465586 0.09460166 -0.020028204 -0.05307056 -0.124234885 0.099095374 0.066545255 -0.028329527
0.019614529 0.14080238 0.08677688 -0.030759836 0.008060385 0.03635097 0.002873539 0.048928853
-0.18042944 -0.028673362 -0.019637365 -0.002305731 -0.030865418 0.05101871 -0.11141702 -0.023079896
-0.13799523 -0.044468563 0.07252678 -0.052041877 0.02625983 0.013504511 -0.06496132 -0.03006789
0.039403 0.092510976 0.0014631181 -0.06445236 -0.14059235 0.069396585 0.026942037 -0.029430533
-0.014504951 -0.08145559 -0.09527939 0.034434576 -0.01567763 -0.044190083 0.0026332934 -0.07068584
0.14426607 0.023559472 0.05215119 -0.0063170055 0.029173907 -0.05980385 0.09658233 0.043203037
0.14352372 0.041521747 -0.053598106 0.021840941 -0.027039675 -0.006251596 0.08044524 0.04121454
-0.057199012 -0.09785516 -0.0017303525 0.068993144 0.12165028 -0.080280095 -0.051872954 0.020540085
-0.035750873 -0.07094611 -0.05168819 0.013386844 -0.00054729806 -0.07292814 -0.010423906 -0.09678486
0.1598786 -0.0038030501 -0.005122182 -0.04625616 0.115000606 -0.059454743 0.08600097 0.02154065
0.1782617 0.05597567 -0.082091354 0.06014863 -0.008743111 0.027983388 0.03518679 0.013516404
-0.014474808 -0.07468482 -0.0049150116 0.0149562275 0.11620524 -0.06696056 -0.04766389 0.03493741
-0.019692877 -0.13580072 -0.093277946 0.029355446 0.012833335 -0.030458026 -0.019805135 -0.07113177
0.17541632 0.014638463 0.019246321 -0.024006596 0.05737197 -0.06729069 0.1075909 0.031239312
0.18170647 0.06409543 -0.08538312 0.03219809 -0.045781314 0.0068650544 0.05375223 0.024743758
-0.04605474 -0.09742126 -0.0045057195 0.0839962 0.09992619 -0.0933457 -0.028437568 0.027056403
-0.023503125 -0.12223721 -0.080553755 0.029771188 0.0014260756 -0.0550236 -0.006905297 -0.07979296
0.12209106 0.025081148 0.01924683 -0.009465709 0.019932615 -0.067997575 0.105885565 0.020468459
0.15885288 0.05335024 -0.076842435 0.056675836 -0.03911892 0.00094860827 0.064235575 0.043123916
-0.058396176 -0.11776833 0.02831517 0.0575289 0.12538376 -0.08699495 -0.028725106 0.020765722
00000000: ca62 0abd a388 eabd a088 aabd cab6 653c
00000010: d9aa 90bc 04b0 20bd 56ac 013b 2803 7abd
00000020: 9c61 123e dd3e 603c 2fdb 0c3d ac30 54bc
00000030: 5be1 213d ed35 69bd 0a8f c03d 94af 423d
00000040: 63d9 363e a844 853d 03a1 b4bd 8a91 443d
00000050: 6cb0 2ebd b850 b0bc 1a82 723d bd02 563c
00000060: 8839 b0bc 5357 dbbd dc1e 23bc 5e69 843d
00000070: 596e 0a3e d385 a6bd d6b0 27bd b129 afbc
00000080: 774f 91bb c8c6 e13d 94b3 c03d 291b 62bc
00000090: eb0d 1abb 8aa4 1c3d a7e4 18bc 9438 963d
000000a0: 83a7 23be 522e 90bb 4b65 90bc c45c c73c
000000b0: 39bf d6bc a346 8c3d be6b c7bd 3fe6 01bd
000000c0: f9d4 30be 01c3 63bd 1994 b13d 18d4 86bd
000000d0: af01 cc3c bc21 4bbb a332 89bd 6a6f 4bbc
000000e0: 4fe1 6b3d 8714 e83d 1dc2 5eb9 dda4 73bd
000000f0: d223 06be 696e cb3d 0f36 5e3d a63d 94bc
00000100: f295 bb3c 6b10 e03d a172 6a3d 67f2 91bd
00000110: a0a4 003c 6ac6 023d 78a0 cc3c e6b2 c33d
00000120: 8296 37be f843 23bd 5962 55bc 7d18 033d
00000130: bc83 3cbd 2ad7 843d 9689 ecbd 6b70 33bd
00000140: 06fc 2ebe e145 3fbd ec44 2d3d 7a90 d5bb
00000150: d070 283d 28c6 253c 7930 1fbd 6629 6abc
00000160: 753c 4c3c 84be c13d 3012 a4bc 8460 59bd
00000170: dc6e febd 84f2 ca3d e148 883d 5313 e8bc
00000180: a6ae a03c 802e 103e 14b8 b13d 0dfc fbbc
00000190: b40f 043c c1e4 143d fc51 3c3b 9f69 483d
000001a0: 7fc2 38be 66e4 eabc 8ade a0bc bf1b 17bb
000001b0: 79d9 fcbc fff8 503d 9b2e e4bd 0d12 bdbc
000001c0: 9f4e 0dbe ab24 36bd ec88 943d dd29 55bd
000001d0: db1e d73c 0642 5d3c 710a 85bd f050 f6bc
000001e0: 0a65 213d 6576 bd3d 19c6 bf3a 99ff 83bd
000001f0: 71f7 0fbe cc1f 8e3d 8cb5 dc3c 4d18 f1bc
00000200: 2da6 6dbc 30d2 a6bd d721 c3bd 450b 0d3d
00000210: 606e 80bc a900 35bd 5593 2c3b bdc3 90bd
00000220: 7cba 133e cbff c03c 7c9c 553d e2fe cebb
00000230: 1efe ee3c e2f4 74bd f5cc c53d abf5 303d
00000240: e2f7 123e b512 2a3d b089 5bbd c6eb b23c
00000250: 4f82 ddbc 30da ccbb 79c0 a43d 94d0 283d
00000260: 8349 6abd 4968 c8bd ffcc e2ba 474c 8d3d
00000270: c823 f93d e469 a4bd bc78 54bd ae43 a83c
00000280: 826f 12bd 324c 91bd ffb6 53bd 7e54 5b3c
00000290: 8d78 0fba 595b 95bd 08c9 2abc 2437 c6bd
000002a0: 37b7 233e 983c 79bb fad7 a7bb 1977 3dbd
000002b0: 7085 eb3d d186 73bd 4721 b03d 0476 b03c
000002c0: 3c8a 363e bf46 653d 831f a8bd 695e 763d
000002d0: 443f 0fbc 6b3d e53c 0620 103d e873 5d3c
000002e0: bf27 6dbc 5bf4 98bd 1b0e a1bb f70a 753c
000002f0: 03fd ed3d 9e22 89bd 363b 43bd 881a 0f3d
00000300: f552 a1bc 580f 0bbe 8208 bfbd d57a f03c
00000310: e942 523c 1c83 f9bc 613e a2bc 89ad 91bd
00000320: 56a0 333e 2ad6 6f3c 76aa 9d3c 7ba9 c4bc
00000330: dffe 6a3d b4cf 89bd 9e58 dc3d 96e9 ff3c
00000340: 4311 3a3e 7744 833d 58dd aebd 25e2 033d
00000350: 3085 3bbd 40f4 e03b 4c2b 5c3d 6cb3 ca3c
00000360: e5a3 3cbd cc84 c7bd b7a4 93bb 3306 ac3d
00000370: 1aa6 cc3d 082c bfbd e7f5 e8bc 64a5 dd3c
00000380: a089 c0bc 8157 fabd 5ef9 a4bd b5e2 f33c
00000390: 28eb ba3a 6d60 61bd d445 e2bb 7e6a a3bd
000003a0: e10a fa3d fb76 cd3c 87ab 9d3c 1016 1bbc
000003b0: b949 a33c 5042 8bbd 88da d83d 78ad a73c
000003c0: 54aa 223e c885 5a3d 915f 9dbd ec24 683d
000003d0: 293b 20bd 06ac 783a f18d 833d b4a2 303d
000003e0: d430 6fbd 8630 f1bd 37f5 e73c 6da3 6b3d
000003f0: 9a64 003e 692a b2bd ea50 ebbc e01c aa3c

model.encoder.layers.0.self_attn.k_proj.bias f4 [32]
-3.109076e-07 4.262563e-07 5.458412e-07 5.8436575e-07 -5.004097e-07 -1.3286454e-07 -3.3174595e-07 -3.9751743e-07
2.27442e-07 -3.544373e-07 -6.859658e-08 -5.6329446e-07 1.0390986e-06 6.2562194e-08 -1.0733818e-07 6.2306736e-07
1.5189826e-06 5.867374e-07 6.739917e-07 -4.006046e-07 8.8723095e-07 -7.7175577e-07 4.1560583e-07 -3.5208004e-08
-1.5298692e-06 9.982828e-07 -3.373019e-07 5.435431e-07 1.401338e-07 -1.525735e-06 -1.0705052e-07 -1.3356821e-06
00000000: d1ea a6b4 38d8 e434 ec85 1235 4fdd 1c35
00000010: e553 06b5 87a9 0eb4 d11a b2b4 616a d5b4
00000020: c836 7434 7e49 beb4 5e4f 93b3 4d35 17b5
00000030: 2877 8b35 ee59 8633 ca81 e6b3 dd40 2735
00000040: d8df cb35 4a80 1d35 5bec 3435 ad12 d7b4
00000050: 0c2a 6e35 a72a 4fb5 6e20 df34 9c37 17b3
00000060: e855 cdb5 bcfc 8535 6c16 b5b4 ffe7 1135
00000070: b077 1634 dbc7 ccb5 a5e3 e5b3 b045 b3b5

model.encoder.layers.0.self_attn.v_proj.weight f4 [32, 32]
-0.019263059 0.051653728 0.031801064 -0.05601201 0.004663853 -0.0039231195 0.029007278 0.033398207
0.047225296 -0.00051690044 -0.0017889787 -0.07461335 -0.10055529 -0.013378142 0.06518752 0.003769926
-0.046887916 0.06444775 0.106037304 0.0029360421 -0.025704976 -0.001697572 -0.08483418 -0.01348142
0.08308871 -0.052631762 0.00013576991 -0.020676687 0.09353117 -0.012435412 0.08925929 -0.004215437
-0.049052406 0.020170126 -0.08590973 -0.0014209097 0.07228536 -0.0034327235 0.006959666 -0.060823634
0.037105307 -0.038167465 -0.094823405 -0.07276111 0.056152046 -0.06511446 0.027460862 0.06395054
0.0029502707 -0.05318399 -0.106870465 -0.04398323 -0.010638476 -0.025186088 0.022275832 -0.018109381
0.078948885 0.06869445 0.09244887 0.007902978 0.029310321 0.0730382 0.032338098 0.044090666
0.058990132 0.08954133 0.040406913 -0.026880622 0.0054912767 -0.049946662 0.04867864 0.041348994
-0.005212812 0.0019491826 0.04423322 0.0034461422 -0.027661357 0.0022960657 -0.019634776 -0.016265225
-0.06416763 -0.029191358 0.15123494 0.006553387 0.04441636 0.012934148 -0.035241168 0.013327055
0.015823543 -0.0999884 -0.09762126 0.01280605 0.01346743 -0.054837804 0.05590169 0.0061167977
-0.027265782 -0.08056199 -0.06991924 0.009733405 -0.004997761 0.02806595 0.03841747 -0.081528544
0.06548394 -0.019496465 -0.0088812895 0.025726872 0.038970318 0.009330111 0.06596729 -0.018279314
0.038070872 0.017169494 -0.088459894 -0.04870046 -0.04111484 -0.06103156 0.027424823 -0.028144874
0.0050206557 0.117820285 0.059605524 -0.024883399 0.0076705907 0.05914656 -0.04872377 0.041984625
-0.007528937 0.02942555 0.0030679023 -0.029923549 -0.034773085 -0.02844683 0.03651454 0.013261421
0.028781695 0.04451977 0.0011476082 -0.045733094 -0.06430373 0.030714761 -0.017722113 0.002834235
-0.036514446 0.030482661 0.13117656 0.060777202 -0.027503842 0.014131026 -0.032269496 0.0128337275
0.01748859 -0.07124148 -0.020669097 -0.007841169 0.068853036 -0.031460904 0.071633734 -0.00443996
0.028391594 -0.046077963 0.037983645 0.052465703 -0.041470893 0.039035782 0.004210424 0.064792745
-0.001360159 0.031673037 0.06463584 0.03203314 -0.053972322 0.0436088 -0.005995313 -0.04649483
0.0080936365 0.062011637 0.08626837 0.023768546 -0.013274014 0.0129712345 -0.01925197 -0.030747728
-0.055415846 -0.06324644 -0.04456792 -0.0086392835 1.8273001e-06 -0.11462498 -0.017132793 0.0126990825
0.017995376 0.012183136 -0.018584672 0.019063631 0.03541634 -0.03612907 0.02157229 -0.03307882
0.0041747643 0.0037195769 -0.023102634 0.06902429 0.029368548 0.029170977 0.04064348 -0.024651678
0.031171871 -0.014528362 -0.028380841 0.020833855 -0.021544749 -0.0067370497 0.027329845 -0.026412563
-0.06621162 0.03988282 -0.027344061 0.010649288 -0.070872806 -0.009250106 -0.054485448 0.039576553
-0.044375584 -0.025737762 -0.0185442 -0.049875986 -0.0010462181 0.012992194 0.009361061 0.07652061
0.06719609 -0.0043412014 0.00815288 -0.043161154 0.02343434 -0.070874974 0.021927286 0.045566678
0.00060715684 0.022216499 0.061287183 -0.0011491348 0.0026780034 -0.021212252 -0.050322272 0.020453801
0.026511213 -0.107322775 0.03986325 -0.04199716 0.06543327 -0.05436627 0.012651769 -0.024801502
00000000: 90cd 9dbc dc92 533d d541 023d d96c 65bd
00000010: 3cd3 983b 838d 80bb aca0 ed3c 8fcc 083d
00000020: 506f 413d 9a80 07ba 2a7c eaba e2ce 98bd
00000030: efef cdbd ff2f 5bbc 0981 853d dd10 773b
00000040: 8b0d 40bd 2ffd 833d 162a d93d 9d6a 403b
00000050: 3e93 d2bc 1081 deba 8bbd adbd 2de1 5cbc
00000060: 6a2a aa3d 6794 57bd 755d 0e39 2862 a9bc
00000070: 458d bf3d e6bd 4bbc 93cd b63d a621 8abb
00000080: 2deb 48bd d23b a53c 71f1 afbd d13d baba
00000090: 590a 943d 8bf7 60bb e90d e43b 3422 79bd
000000a0: bcfb 173d 7d55 1cbd c632 c2bd c703 95bd
000000b0: b0ff 653d bb5a 85bd 9af5 e03c 80f8 823d
000000c0: 5459 413b 75d7 59bd e7de dabd c227 34bd
000000d0: 014d 2ebc 0e53 cebc ce7b b63c 205a 94bc
000000e0: f4af a13d adaf 8c3d d555 bd3d 7e7b 013c
000000f0: 331c f03c 0d95 953d f474 043d 6a98 343d
00000100: a39f 713d 7261 b73d b881 253d c034 dcbc
00000110: 2bf0 b33b df94 4cbd 4163 473d 905d 293d
00000120: 3dd0 aabb b77b ff3a e52d 353d acd8 613b
00000130: 129a e2bc 9779 163b 1cd9 a0bc a63e 85bc
00000140: 526a 83bd b722 efbc 55dd 1a3e cbbd d63b
00000150: eeed 353d c0e9 533c 0b59 10bd b859 5a3c
00000160: 60a0 813c b8c6 ccbd a8ed c7bd 77d0 513c
00000170: 7fa6 5c3c 9b9d 60bd 2cf9 643d 6b6f c83b
00000180: 7d5c dfbc affd a4bd d231 8fbd dc78 1f3c
00000190: 42c4 a3bb 90ea e53c a35b 1d3d 70f8 a6bd
000001a0: 721c 863d 0db7 9fbc d482 11bc 29c1 d23c
000001b0: 579f 1f3d 52dd 183c dc19 873d 80be 95bc
000001c0: 34f0 1b3d 0aa7 8c3c 762a b5bd 227a 47bd
000001d0: 0968 28bd 3bfc 79bd 06aa e03c 1490 e6bc
000001e0: 5084 a43b c34b f13d ec24 743d 45d8 cbbc
000001f0: 9459 fb3b aa43 723d 9392 47bd 12f8 2b3d
00000200: 4db5 f6bb da0d f13c dc0e 493b 3b22 f5bc
00000210: 396e 0ebd 5409 e9bc 4590 153d 6e46 593c
00000220: 97c7 eb3c 5d5a 363d 576b 963a a052 3bbd
00000230: adb1 83bd 869d fb3c f72d 91bc 93be 393b
00000240: 2c90 15bd c6b6 f93c 2653 063e 84f1 783d
00000250: bd4f e1bc d285 673c 052d 04bd 8e44 523c
00000260: 3b44 8f3c 0ee7 91bd 3d52 a9bc 3f78 00bc
00000270: d202 8d3d 26dd 00bd b5b4 923d 157d 91bb
00000280: 7d95 e83c 3fbc 3cbd bd94 1b3d 47e6 563d
00000290: 62dd 29bd fce3 1f3d 99f7 893b 0fb2 843d
000002a0: 5d47 b2ba 96bb 013d cc5f 843d 2f35 033d
000002b0: 1512 5dbd 249f 323d 5574 c4bb 5d71 3ebd
000002c0: 2c9b 043c eaff 7d3d 79ad b03d 41b6 c23c
000002d0: 407b 59bc 4d85 543c 4fb6 9dbc a9e2 fbbc
000002e0: bafb 62bd 5987 81bd da8c 36bd c88b 0dbc
000002f0: 8e41 f535 80c0 eabd 125a 8cbc d00f 503c
00000300: 0a6b 933c c79b 473c e23e 98bc 552b 9c3c
00000310: b910 113d 13fc 13bd 5fb8 b03c a87d 07bd
00000320: 76cc 883b 25c4 733b bc41 bdbc 9b5c 8d3d
00000330: 4f96 f03c f9f7 ee3c c779 263d 51f2 c9bc
00000340: 275c ff3c 5e08 6ebc f07e e8bc c3ab aa3c
00000350: 9d7e b0bc 78c2 dcbb d7e2 df3c 295f d8bc
00000360: f599 87bd 2b5c 233d a700 e0bc 5a7a 2e3c
00000370: c325 91bd c28d 17bc 222c 5fbd 061b 223d
00000380: 2cc3 35bd 00d8 d2bc 02ea 97bc c34a 4cbd
00000390: 4121 89ba 36dd 543c 235f 193c d6b6 9c3d
000003a0: 1b9e 893d a340 8ebb a893 053c c0c9 30bd
000003b0: 5ff9 bf3c e626 91bd daa0 b33c 20a4 3a3d
000003c0: 9b29 1f3a 60ff b53c 4508 7b3d 919e 96ba
000003d0: 7181 2f3b 51c5 adbc ba1e 4ebd bb8e a73c
000003e0: 0b2e d93c 0bcc dbbd a647 233d 3705 2cbd
000003f0: e101 863d 2aaf 5ebd 5e49 4f3c 852c cbbc

model.encoder.layers.0.self_attn.v_proj.bias f4 [32]
0.00066663465 0.0060771727 0.025554804 -0.023967734 -0.010310915 -0.047919385 -0.047659624 0.028533632
0.034404006 0.029066574 0.042672187 0.033548027 0.025740499 -0.042041723 0.007063126 0.011364103
-0.069256894 -0.01385339 0.048070334 0.020470215 -0.032557543 -0.07575663 -0.029241651 -0.05472979
-0.005820389 -0.03440038 -0.032580033 0.02919313 0.053687416 -0.02870897 0.027506836 0.05162688
00000000: 18c1 2e3a 0523 c73b 4f58 d13c fb57 c4bc
00000010: 1def 28bc 1e47 44bd bd36 43bd 5dbf e93c
00000020: 37eb 0c3d 061d ee3c 08c9 2e3d a869 093d
00000030: bddd d23c f133 2cbd cc71 e73b 8130 3a3c
00000040: 8fd6 8dbd 54f9 62bc 66e5 443d 27b1 a73c
00000050: 0f5b 05bd 4b26 9bbd 308c efbc 582c 60bd
00000060: f6b8 bebb 6ae7 0cbd a472 05bd 6e26 ef3c
00000070: 56e7 5b3d 132f ebbc 0456 e13c b576 533d

model.encoder.layers.0.self_attn.q_proj.weight f4 [32, 32]
-0.09836063 -0.08454921 0.13824038 -0.049555387 -0.011109436 -0.044404052 -0.030211413 0.03967042
-0.030043159 0.11400959 0.14464144 0.072590895 0.0027161336 0.14503512 -0.048564155 0.02493293
0.07812957 0.07101656 -0.023166895 -0.19000444 -0.14259818 -0.06708094 0.02407415 0.1706974
-0.003625181 0.12358565 -0.050401207 -0.013598722 -0.042659193 -0.018108832 -0.17552227 0.105220504
0.1290836 0.046334576 -0.15581442 0.039818555 0.0014699942 0.044616837 0.010962318 -0.004493845
0.08495093 -0.12614644 -0.12227047 -0.046800867 0.024128176 -0.1369077 0.07879183 -0.043610927
-0.06320453 -0.029462762 0.026588485 0.16456346 0.14095505 0.08823379 -0.05699533 -0.156437
0.044409584 -0.16465303 0.046611488 0.071379036 0.04587983 0.04654889 0.18881544 -0.11343844
0.09255254 -0.01690727 -0.06587135 -0.013208659 -0.013193245 -0.009772132 -0.01105012 -0.012302551
0.10741025 -0.13124545 -0.086133055 -0.08976999 0.046493553 -0.08316003 0.058281988 -0.08651851
-0.0291754 0.021338291 0.11148811 0.1759208 0.1505452 0.079594605 -0.014686953 -0.15430063
-0.004645071 -0.13040006 0.020749675 0.063652255 0.055002827 0.032132473 0.24769494 -0.16626357
0.09505404 0.02389338 -0.14801474 0.032868747 0.0054807225 0.024335925 0.028501576 -0.03945411
0.07102952 -0.1049549 -0.09450887 -0.039313033 0.02589543 -0.114060044 0.09468778 -0.036864743
-0.05145598 0.0067692692 0.020545539 0.13289288 0.1297632 0.08666505 -0.10630552 -0.13599057
0.06872909 -0.17228058 0.027147984 0.052447397 0.059542168 0.0650629 0.20527421 -0.105155006
-0.12143611 -0.036915578 0.12746388 -0.045378838 -0.02419426 -0.02885469 -0.04729577 0.052216712
-0.04369718 0.11672428 0.09636446 0.10166686 -0.011133302 0.11049922 -0.060606983 0.05387748
0.055002082 0.033648044 -0.039902452 -0.12406516 -0.15000097 -0.11422613 0.012353263 0.11876628
-0.025524128 0.14223425 -0.0033470364 -0.028542226 -0.059366588 -0.047234364 -0.18950425 0.10062464
-0.10388816 -0.017726755 0.04871359 0.022812316 0.040155586 -0.012707174 0.057892036 0.00053613546
-0.1267005 0.13648616 0.0688339 0.031498276 -0.106499135 0.076431975 0.021953402 0.06927633
0.02219568 0.017223286 -0.1326856 -0.11981918 -0.16123131 -0.10419567 -0.009840148 0.12120788
0.02132524 0.13820304 -0.049543664 -0.06864029 -0.053907692 -0.033992603 -0.1522477 0.16562755
-0.13025469 -0.038017243 0.15213324 -0.034981497 0.0045567085 -0.023198511 -0.016902605 0.024551675
-0.091910355 0.15191357 0.085774414 0.08763771 -0.038514733 0.11903767 -0.05614673 0.05088001
0.054381415 0.0087233735 -0.07859973 -0.173874 -0.16820978 -0.10096156 0.037665877 0.14670597
-0.049764547 0.16977246 -0.01061914 -0.05398258 -0.06474479 -0.062396348 -0.2285724 0.16347058
-0.09556652 -0.020374643 0.14042772 -0.02388738 0.009764514 -0.0040414827 -0.008482918 0.034139566
-0.078229964 0.116046205 0.079577446 0.039788578 0.0040895566 0.109011576 -0.08710025 0.05511329
0.06566357 -0.01641284 -0.052698873 -0.13594697 -0.12965061 -0.11928279 0.09483321 0.14194633
-0.05429801 0.1639021 -0.022218795 -0.087331794 -0.02534912 -0.025939222 -0.22678103 0.1248238
00000000: 4c71 c9bd 2328 adbd e38e 0d3e 97fa 4abd
00000010: 5a04 36bc 06e1 35bd ed7d f7bc 737d 223d
00000020: 121d f6bc dc7d e93d e31c 143e 89aa 943d
00000030: 2901 323b 1684 143e 35eb 46bd 2540 cc3c
00000040: 6502 a03d 2171 913d 80c8 bdbc 8690 42be
00000050: 4205 12be bb61 89bd 2737 c53c 4dcb 2e3e
00000060: 7294 6dbb 791a fd3d 7f71 4ebd 2dcd 5ebc
00000070: 68bb 2ebd f958 94bc 1cbc 33be d97d d73d
00000080: 7e2e 043e 53c9 3d3d d18d 1fbe c818 233d
00000090: d2ac c03a 25c0 363d 4b9b 333c 1b41 93bb
000000a0: c1fa ad3d 882c 01be f168 fabd 44b2 3fbd
000000b0: 74a8 c53c 8831 0cbe 9c5d a13d 5fa1 32bd
000000c0: 6071 81bd e45b f1bc 18d0 d93c 5383 283e
000000d0: 8556 103e ebb3 b43d ef73 69bd 0531 20be
000000e0: d3e6 353d ce9a 28be b0eb 3e3d 2c2f 923d
000000f0: 7dec 3b3d 0daa 3e3d d658 413e 6a52 e8bd
00000100: 308c bd3d 1d81 8abc 8fe7 86bd 2269 58bc
00000110: 7b28 58bc 4b1b 20bc 900b 35bc a490 49bc
00000120: e8f9 db3d 3565 06be 8766 b0bd 54d9 b7bd
00000130: 0670 3e3d ce4f aabd 18b9 6e3d 9e30 b1bd
00000140: 4001 efbc a4cd ae3c e153 e43d 9524 343e
00000150: 8528 1a3e 7f02 a33d 8ca1 70bc fc00 1ebe
00000160: ae35 98bb 9887 05be 39fb a93c 1d5c 823d
00000170: a54a 613d 579d 033d bea3 7d3e ff40 2abe
00000180: b1ab c23d 0dbc c33c 2d91 17be 61a1 063d
00000190: a297 b33b 225c c73c 237c e93c a29a 21bd
000001a0: ed77 913d 98f2 d6bd de8d c1bd b406 21bd
000001b0: a722 d43c 5098 e9bd abeb c13d 7cff 16bd
000001c0: 81c3 52bd bfd0 dd3b 1e4f a83c 1215 083e
000001d0: a5e0 043e 727d b13d b5b6 d9bd 1d41 0bbe
000001e0: d6c1 8c3d 526a 30be 7365 de3c 15d3 563d
000001f0: 7de2 733d b33f 853d 6733 523e 825b d7bd
00000200: 7fb3 f8bd ca34 17bd e485 023e 29df 39bd
00000210: 0a33 c6bc ac60 ecbc 36b9 41bd 31e1 553d
00000220: d0fb 32bd 240d ef3d bb5a c53d b736 d03d
00000230: 7468 36bc 6a4d e23d 073f 78bd a2ae 5c3d
00000240: dd49 613d 88d2 093d c170 23bd e015 febd
00000250: db99 19be 64ef e9bd 5765 4a3c bc3b f33d
00000260: fa17 d1bc dba5 113e f459 5bbb 63d1 e9bc
00000270: 612a 73bd d278 41bd 670d 42be 4b14 ce3d
00000280: 51c3 d4bd b337 91bc e787 473d e5e0 ba3c
00000290: 2f7a 243d c031 50bc 3320 6d3d 718b 0c3a
000002a0: c7bd 01be 07c3 0b3e caf8 8c3d 5604 013d
000002b0: 381c dabd 5e88 9c3d 9fd7 b33c c0e0 8d3d
000002c0: b7d3 b53c d917 8d3c bcde 07be c263 f5bd
000002d0: d219 25be 8a64 d5bd 9238 21bc d63b f83d
000002e0: 45b2 ae3c 1985 0d3e 4cee 4abd 4893 8cbd
000002f0: 50ce 5cbd d43b 0bbd d2e6 1bbe 459a 293e
00000300: 7c61 05be f8b7 1bbd d1c8 1b3e c248 0fbd
00000310: 7150 953b ce0a bebc 5577 8abc 9820 c93c
00000320: 7f3b bcbd 3b8f 1b3e 7faa af3d 667b b33d
00000330: a0c1 1dbd 06ca f33d 1dfa 65bd 8f67 503d
00000340: 0cbf 5e3d 7bec 0e3c e5f8 a0bd 070c 32be
00000350: 2f3f 2cbe efc4 cebd 8947 1a3d 173a 163e
00000360: e9d5 4bbd d5d8 2d3e e7fb 2dbc d61c 5dbd
00000370: eb98 84bd 5093 7fbd e20e 6abe d564 273e
00000380: 61b8 c3bd b9e8 a6bc 49cc 0f3e 77af c3bc
00000390: 57fb 1f3c 6a6e 84bb f0fb 0abc eed5 0b3d
000003a0: 0837 a0bd a2a9 ed3d 80f9 a23d 59f9 223d
000003b0: b001 863b 7641 df3d 9e61 b2bd 79be 613d
000003c0: 9f7a 863d 3874 86bc c6da 57bd af35 0bbe
000003d0: 21c3 04be 894a f4bd ea37 c23d 615a 113e
000003e0: 9767 5ebd f4d5 273e 3104 b6bc 03db b2bd
000003f0: f5a8 cfbc 7e7e d4bc 4939 68be 9fa3 ff3d

model.encoder.layers.0.self_attn.q_proj.bias f4 [32]
0.1946662 -0.19177425 -0.18054518 -0.17444238 0.18184653 0.17687534 0.20330952 0.17235146
-0.21733113 0.20003459 0.19226518 0.19900136 -0.19538021 -0.18854596 0.18048933 -0.20835721
-0.0717001 -0.10124992 0.071321346 -0.092003115 -0.121034645 -0.044784717 -0.11605147 0.11360179
0.14298026 0.13921644 0.10465705 0.14217648 0.072593234 -0.14601713 0.10261442 0.11721698
00000000: 9456 473e 7860 44be d6e0 38be 06a1 32be
00000010: fa35 3a3e cf1e 353e 5f30 503e e77c 303e
00000020: 0d8c 5ebe ded5 4c3e 2ae1 443e 03c7 4b3e
00000030: c011 48be 3112 41be 32d2 383e 985b 55be
00000040: 81d7 92bd 1e5c cfbd ed10 923d 216c bcbd
00000050: 03e1 f7bd 2e70 37bd 65ac edbd 0ea8 e83d
00000060: 6b69 123e c18e 0e3e 6f56 d63d b696 113e
00000070: c3ab 943d 8485 15be 8227 d23d 750f f03d

model.encoder.layers.0.self_attn.out_proj.weight f4 [32, 32]
-0.065743916 0.047998715 -0.08338839 0.04150388 -0.057442036 -0.043816175 0.0171651 0.019108996
0.018228333 0.05279729 -0.045441218 -0.010137335 -0.015712796 -0.0075550326 0.054934442 0.090360284
-0.034742586 -0.015779868 -7.66974e-05 0.002771072 0.004196665 0.012661118 0.061060343 -0.05264286
-0.030981857 -0.0334031 -0.00020766845 0.0078011984 -0.01643538 -0.040401697 -0.004001871 0.03357478
0.040691487 0.023849424 -0.030645104 -0.0009353637 0.02703022 0.0054086233 -0.04015197 0.039288785
0.01541416 0.0066825985 0.030182658 0.045559358 0.030059146 -0.008133893 -0.015043759 0.019258348
0.017209139 -0.0036766748 0.0430995 -0.0015983686 0.0153063545 0.05306546 -0.0048164246 -0.007022887
-0.044499822 0.0063583003 -0.05425264 0.031851497 -0.023997681 -0.035542686 -0.00041895497 -0.005948429
0.048945945 0.041678824 -0.005328285 0.06930917 0.0036535978 -0.020950217 0.0076455087 -0.027855612
-0.10878291 0.016332673 -0.035067864 -0.0029059697 -0.076516055 0.0072068693 0.048487503 -0.045721076
-0.0033137563 1.9571984e-05 -0.10901314 -0.086454034 -0.063828856 0.07853324 -0.054717213 0.024927508
0.10485327 -0.041360714 0.08724768 -0.11279761 -0.0523957 0.09300822 -0.091205984 -0.05662611
0.05555825 -0.08284167 -0.005236813 0.009145647 0.08680004 0.04107761 -0.015134313 0.026084125
-0.00024126426 -0.11990369 0.040451717 -0.03058366 0.021148901 -0.0986271 -0.008140098 -0.05810797
-0.003130772 -0.00493406 0.07257823 0.09263526 0.10413306 -0.046279248 -0.009449851 0.02353809
-0.07136541 0.05921661 0.008254301 0.035096455 -0.017943213 -0.080153145 0.042310096 -0.026777446
-0.015001399 -0.042514164 0.028299682 -0.04580988 0.032669004 0.024918655 0.015348175 -0.040615734
0.030442923 -0.049315013 0.001459492 -0.03076645 0.020733846 -0.0141948955 -0.08084313 -0.03543875
0.053995274 -0.016967684 -0.012857744 -0.005936635 0.02490236 0.02533431 -0.058975004 -0.0021127323
0.0030729617 0.050551903 -0.02345576 0.012047813 -0.024728104 -0.0008624043 0.017555254 -0.02790647
-0.055297233 0.06337182 -0.05470406 0.051775273 -0.052090205 -0.013742063 0.0011196049 -0.039959542
-0.02454342 0.02945153 -0.05412852 -0.014043098 -0.04390158 0.02532718 0.00073362776 -0.0068228864
-0.023249704 -0.07505624 -0.011032471 -0.0023945053 -0.07469582 0.023152815 -0.023773689 -0.04295644
0.014829755 -0.06179037 -0.031121561 0.00015260452 0.019455351 0.009145579 0.040056493 0.019041047
-0.006741454 -0.10019044 0.06643856 -0.10217161 0.004376522 0.046096507 0.0034605698 0.005202982
0.07710857 -0.052762154 0.042218614 -0.028282799 0.08896607 0.008485267 -0.094037294 -0.031711157
0.0154439 0.042764056 0.07822116 0.10971311 0.06998912 -0.05027924 -0.00022468691 -0.0022441235
-0.07298262 -0.008498912 -0.035731554 0.10275579 0.023451867 -0.07333153 0.08066936 0.025150355
0.0043083644 -0.049926236 -0.00035575096 -0.0071139564 -0.011297924 0.06685976 -0.024853036 0.026040878
0.057582635 -0.02270935 0.053211953 0.05880493 0.08404637 0.058301453 -0.059931003 0.100551955
-0.06953582 0.108454965 0.033860926 0.05730944 0.019919395 -0.055532705 0.120683625 0.04589404
-0.040310487 -0.018698003 0.008672763 0.020237446 -0.0035843987 -0.03162448 0.032227952 0.015930811
00000000: bfa4 86bd 4d9a 443d 88c7 aabd f9ff 293d
00000010: 5748 6bbd 9778 33bd d39d 8c3c 788a 9c3c
00000020: 9653 953c f941 583d 9220 3abd 1117 26bc
00000030: 1fb8 80bc 3590 f7bb f002 613d d00e b93d
00000040: 3e4e 0ebd c844 81bc 9ad8 a0b8 e09a 353b
00000050: 2d84 893b 9470 4f3c 691a 7a3d 0aa0 57bd
00000060: aacd fdbc b0d1 08bd 93c1 59b9 32a1 ff3b
00000070: 7da3 86bc 407c 25bd 2122 83bb b585 093d
00000080: 1eac 263d de5f c33c 710b fbbc 3233 75ba
00000090: 7b6e dd3c d23a b13b 6476 24bd 47ed 203d
000000a0: ac8b 7c3c b3f9 da3b 9f41 f73c 739c 3a3d
000000b0: 993e f63c 0544 05bc 197a 76bc afc3 9d3c
000000c0: 2efa 8c3c 5ef4 70bb 1a89 303d 5a80 d1ba
000000d0: 81c7 7a3c 2b5b 593d 19d3 9dbb 3f20 e6bb
000000e0: 7245 36bd 4a59 d03b 0438 5ebd b776 023d
000000f0: c996 c4bc 3595 11bd 2fa7 dbb9 0aeb c2bb
00000100: 8b7b 483d 6ab7 2a3d e598 aebb f7f1 8d3d
00000110: 3371 6f3b ca9f abbc 2d87 fa3b 7431 e4bc
00000120: 93c9 debd 19cc 853c 52a3 0fbd 1572 3ebb
00000130: 73b4 9cbd 9a27 ec3b d59a 463d 0646 3bbd
00000140: 9b2b 59bb 842e a437 4842 dfbd d00e b1bd
00000150: b4b8 82bd 09d6 a03d 281f 60bd c634 cc3c
00000160: 50bd d63d da69 29bd e9ae b23d 6f02 e7bd
00000170: e09c 56bd 187b be3d 34ca babd c8f0 67bd
00000180: 0c91 633d e5a8 a9bd 9299 abbb a0d7 153c
00000190: 38c4 b13d ff40 283d e9f5 77bc 60ae d53c
000001a0: e2fb 7cb9 1190 f5bd b3b0 253d 958a fabc
000001b0: 7640 ad3c 01fd c9bd 0c5e 05bc 9f02 6ebd
000001c0: a32d 4dbb e5ad a1bb e5a3 943d 8eb7 bd3d
000001d0: b743 d53d 4f8f 3dbd 8cd3 1abc f4d2 c03c
000001e0: 0728 92bd 1e8d 723d 0c3d 073c 4dc1 0f3d
000001f0: a5fd 92bc 5527 a4bd 5a4d 2d3d 605c dbbc
00000200: 6ec8 75bc 5523 2ebd bcd4 e73c 24a3 3bbd
00000210: efcf 053d 3522 cc3c e976 7b3c af5c 26bd
00000220: 7063 f93c 8afe 49bd 6d4c bf3a ec09 fcbc
00000230: 07da a93c b591 68bc 1591 a5bd 3928 11bd
00000240: 262a 5d3d d0ff 8abc 49a9 52bc 1b88 c2bb
00000250: 0900 cc3c e689 cf3c c68f 71bd c475 0abb
00000260: be63 493b 830f 4f3d 4b26 c0bc 3164 453c
00000270: 9892 cabc f912 62ba 09d0 8f3c 1c9c e4bc
00000280: 5a7f 62bd 16c9 813d 5d11 60bd 4f12 543d
00000290: 8a5c 55bd 6426 61bc b5bf 923a 9eac 23bd
000002a0: 480f c9bc 5644 f13c deb5 5dbd 0615 66bc
000002b0: 25d2 33bd f27a cf3c ed50 403a 8592 dfbb
000002c0: 2a76 bebc 16b7 99bd 8ac1 34bc 22ed 1cbb
000002d0: 1ffa 98bd f9aa bd3c 0ac1 c2bc 18f3 2fbd
000002e0: 80f8 723c e617 7dbd a5f2 febc 7704 2039
000002f0: d460 9f3c 57d7 153c 4712 243d f8fb 9b3c
00000300: 6ae7 dcbb a530 cdbd f110 883d 593f d1bd
00000310: ed68 8f3b b1cf 3c3d baca 623b c77d aa3b
00000320: 19eb 9d3d 211d 58bd 6ded 2c3d 54b1 e7bc
00000330: d833 b63d ca05 0b3c a096 c0bd 8fe3 01bd
00000340: 6908 7d3c 5d29 2f3d 6a32 a03d 44b1 e03d
00000350: 7556 8f3d 9bf1 4dbd ef99 6bb9 2512 13bb
00000360: e977 95bd 053f 0bbc 405b 12bd a171 d23d
00000370: 211e c03c d72e 96bd fa35 a53d 1e08 ce3c
00000380: 2e2d 8d3b 747f 4cbd 1684 bab9 311c e9bb
00000390: ee1a 39bc c5ed 883d 9898 cbbc ae53 d53c
000003a0: c5db 6b3d f508 babc c7f4 593d 70dd 703d
000003b0: 8120 ac3d 81cd 6e3d 367a 75bd 2fee cd3d
000003c0: cc68 8ebd a31d de3d c1b1 0a3d 4ebd 6a3d
000003d0: 002e a33c 4376 63bd fa28 f73d 64fb 3b3d
000003e0: 9c1c 25bd 8e2c 99bc 3418 0e3c 00c9 a53c
000003f0: 3be8 6abb ac88 01bd 7501 043d 5581 823c

model.encoder.layers.0.self_attn.out_proj.bias f4 [32]
-0.06859191 0.011121481 -0.0032438189 -0.008017304 -0.014372567 -0.019080732 -0.0019759983 -0.0043198224
0.04240908 -0.018443277 -0.07291559 0.033098824 0.033835717 -0.0010223512 0.0470245 0.020222332
-0.0001181845 0.051794674 -0.05169112 0.06057388 -0.017858088 -0.019831253 -0.010794173 -0.011218536
0.06699658 0.03275208 -0.048465647 -0.023816675 -0.03909169 -0.07367896 -0.028333088 -0.019029502
00000000: ea79 8cbd df36 363c 4096 54bb 035b 03bc
00000010: ea7a 6bbc 324f 9cbc c07f 01bb 4c8d 8dbb
00000020: 25b5 2d3d 5b16 97bc c554 95bd a292 073d
00000030: 5297 0a3d 6a00 86ba c39c 403d 4ea9 a53c
00000040: d2d9 f7b8 a726 543d 11ba 53bd 511c 783d
00000050: 204b 92bc 2775 a2bc 0bda 30bc f3cd 37bc
00000060: 8135 893d 0c27 063d ea83 46bd 301b c3bc
00000070: 9c1e 20bd ffe4 96bd cb1a e8bc c2e3 9bbc

model.encoder.layers.0.self_attn_layer_norm.weight f4 [32]
0.78736895 0.8079952 0.71391886 0.81187046 0.7539525 0.75219077 0.7534931 0.859869
0.7007327 0.8324162 0.8441033 0.8720472 0.80711997 0.8586496 0.8288074 0.77768564
0.7528677 0.7500293 0.79533494 0.706097 0.7844429 0.86490726 0.84565705 0.8583106
0.84474164 0.8748356 0.890723 0.87346387 0.88845325 0.80076265 0.84225935 0.79425025
00000000: 0391 493f c6d8 4e3f 63c3 363f bed6 4f3f
00000010: 0803 413f 938f 403f ece4 403f 6020 5c3f
00000020: 3863 333f 3a19 553f 2717 583f 7c3e 5f3f
00000030: 6a9f 4e3f 76d0 5b3f b92c 543f 6816 473f
00000040: f0bb 403f ec01 403f 129b 4b3f c6c2 343f
00000050: 40d1 483f 906a 5d3f fb7c 583f 3eba 5b3f
00000060: fd40 583f 3af5 5f3f 6c06 643f 549b 5f3f
00000070: ac71 633f c8fe 4c3f 4f9e 573f fc53 4b3f

model.encoder.layers.0.self_attn_layer_norm.bias f4 [32]
-0.1546758 -0.06853151 0.06822155 0.043793276 -0.047035705 -0.039943524 -0.09029205 0.027123129
-0.02664241 0.10586155 0.040721074 0.13748197 0.07464962 0.0064943177 -0.016006028 0.038183566
0.040849928 0.061600957 -0.0222062 -0.008922928 -0.059260584 0.039473124 0.046258867 0.039484933
0.036432106 0.049500115 -0.15683572 -0.044631615 -0.11379958 -0.04899726 -0.08519999 0.089860976
00000000: 5563 1ebe 405a 8cbd bdb7 8b3d 9460 333d
00000010: 83a8 40bd d29b 23bd 0aeb b8bd 5331 de3c
00000020: 2f41 dabc f1cd d83d 24cb 263d 13c8 0c3e
00000030: e6e1 983d 49ce d43b 131f 83bc 5f66 1c3d
00000040: 4152 273d 4951 7c3d c7e9 b5bc 7931 12bc
00000050: 3abb 72bd 92ae 213d f079 3d3d f4ba 213d
00000060: d539 153d a2c0 4a3d 8b99 20be a4cf 36bd
00000070: c10f e9bd 5ab1 48bd 557d aebd 0809 b83d

model.encoder.layers.0.fc1.weight f4 [32, 32]
0.10880211 0.044018213 -0.0046063103 -0.020938056 0.032791853 0.13745254 0.009287366 0.13718352
0.09520723 -0.11763587 0.09947026 -0.06745891 -0.020709291 -0.0012134435 0.008523307 -0.09634209
-0.0073950505 0.09734101 -0.058724083 0.024256384 0.09669717 -0.0102777565 -0.11831966 -0.12819764
-0.0007504017 -0.12106028 0.015109777 -0.06629268 0.11912023 0.04121062 0.07995187 -0.1936699
0.013691749 -0.06237421 -0.06190349 0.059163515 0.014412804 0.031238375 -0.002293448 0.06482817
-0.075885154 -0.001499034 -0.09852734 -0.08565231 9.080712e-05 0.041169975 0.015919907 0.052567355
-0.010331327 -0.0011979576 -0.087062664 -0.06804124 0.013048948 0.015029836 0.018585179 -0.032102395
0.1944803 -0.010849303 -0.02441752 -0.021447234 -0.023525335 0.008619042 0.05575091 0.016773436
0.060168378 -0.022269608 0.007803233 -0.13612472 -0.070679374 0.0063333497 -0.07005333 0.14782229
0.0869486 -0.083127245 0.06326996 0.038331743 0.07193512 0.046824433 -0.07328333 0.027677055
0.0824769 0.03422883 0.015265556 -0.00849535 0.0025254264 0.11837115 -0.0038922173 0.06636918
0.12240466 -0.11624575 0.03538126 -0.103196174 0.004287321 -0.00919074 -0.003683195 -0.0651927
-0.064024985 -0.056747768 0.01100706 0.027512036 0.0131353345 0.029459251 0.0042259526 -0.10974839
0.06927937 0.03156168 -0.013818843 -0.0010207836 -0.015588016 0.08551591 0.08257575 -0.012442289
0.005625332 -0.0026230514 -0.0038749152 -0.01928441 -0.008904549 -0.15005577 -0.069313675 0.038509768
0.01243848 0.10675648 -0.019586204 -0.017853778 0.000859559 0.029948803 -0.0048513096 0.025435312
0.03776684 0.087358855 9.660077e-05 0.024024801 -0.018196046 0.008820473 -0.025784634 0.023426073
-0.02364714 0.001314943 -0.006240768 0.039500616 0.01334618 -0.11036642 -0.069037765 -0.026557129
-0.0106635885 0.0030911944 -0.030857485 0.04621756 0.0108461715 0.04959841 -0.043409072 0.025444763
-0.06725932 -0.10119922 -0.01155251 0.0020076467 0.02789232 -0.059267983 -0.0016987562 0.0002209737
0.04922128 0.12307709 -0.10187678 -0.07327085 0.03233915 0.019669473 0.08815633 0.030170111
-0.14544755 -0.034789998 0.046673138 -0.1562626 -0.15328094 -0.012620497 -0.14349775 0.06431529
-0.054356955 -0.06948518 -0.029358776 -0.040000442 0.018968195 -0.04628773 -0.05513353 0.039447237
0.050044987 -0.052053753 0.13505447 -0.13148692 0.14625537 0.06684083 0.07462432 0.026465945
-0.0801344 -0.119776115 -0.04158375 0.04840559 0.053132467 -0.044303402 0.07293889 -0.00055847276
-0.0012111078 0.018030604 0.0018610985 0.056874156 0.034993783 0.11055973 0.025119472 -0.033192437
0.06519161 0.034852494 -8.880318e-05 -0.047893044 -0.01847459 -0.044211034 0.032597233 -0.0071906876
-0.029010102 0.16438223 0.035510227 0.08817922 -0.037104607 0.04321424 -0.013618306 0.011426262
-0.018419707 0.045434687 -0.03198866 -0.020428691 -0.041273557 0.017425602 -0.0061144284 -0.04158641
-0.024876647 -0.019109845 -0.10187532 0.053876106 -0.021045411 -0.03190453 -0.0015422336 0.018725159
-0.02185982 0.02553956 0.00090237614 0.076236345 -0.018059755 -0.057835653 -0.023984065 0.06446205
0.019346945 0.034856223 0.0692672 -0.05882618 0.02131966 0.014177137 0.04727443 -0.007732678
00000000: a4d3 de3d 714c 343d 88f0 96bb 4986 abbc
00000010: c050 063d 5cc0 0c3e 092a 183c d679 0c3e
00000020: 02fc c23d 13eb f0bd 10b7 cb3d e627 8abd
00000030: 88a6 a9bc 680c 9fba 57a5 0b3c 004f c5bd
00000040: 2e52 f2bb b95a c73d aa88 70bd 53b5 c63c
00000050: 2a09 c63d 0964 28bc 9451 f2bd 3e46 03be
00000060: 9bb6 44ba 74ee f7bd 008f 773c 75c4 87bd
00000070: 4ff5 f33d 78cc 283d cebd a33d 6751 46be
00000080: 5c53 603c 1a7c 7fbd 848e 7dbd 7155 723d
00000090: ae23 6c3c 9fe7 ff3c ac4d 16bb a2c4 843d
000000a0: ad69 9bbd 3c7b c4ba b4c8 c9bd 7a6a afbd
000000b0: b46f be38 d9a1 283d 776a 823c de50 573d
000000c0: ba44 29bc c904 9dba e94d b2bd 3559 8bbd
000000d0: 41cb 553c b43f 763c f23f 983c cd7d 03bd
000000e0: d825 473e 46c1 31bc 4007 c8bc 1cb2 afbc
000000f0: 34b8 c0bc e236 0d3c 115b 643d 7268 893c
00000100: 1e73 763d c16e b6bc 43b2 ff3b 4764 0bbe
00000110: 59c0 90bd fd87 cf3b 1f78 8fbd ba5e 173e
00000120: 1c12 b23d 9e3e aabd ae93 813d bf01 1d3d
00000130: b852 933d faca 3f3d 9215 96bd feba e23c
00000140: a6e9 a83d 8833 0c3d 621c 7a3c 1530 0bbc
00000150: a081 253b 936c f23d 9214 7fbb 91ec 873d
00000160: 4baf fa3d 4012 eebd f1eb 103d 8458 d3bd
00000170: a87c 8c3b c294 16bc c261 71bb c083 85bd
00000180: 881f 83bd 5970 68bd f556 343c ec60 e13c
00000190: 9635 573c 8754 f13c dc79 8a3b c4c3 e0bd
000001a0: 58e2 8d3d d246 013d 6e68 62bc d0cb 85ba
000001b0: e164 7fbc f722 af3d 7a1d a93d beda 4bbc
000001c0: b454 b83b 80e7 2bbb 4af2 7dbb 57fa 9dbc
000001d0: 63e4 11bc 38a8 19be 54f4 8dbd 6bbc 1d3d
000001e0: c4ca 4b3c 24a3 da3d 3f73 a0bc 1642 92bc
000001f0: 0754 613a 3157 f53c bcf7 9ebb b75d d03c
00000200: 67b1 1a3d 33e9 b23d 2596 ca38 a9cf c43c
00000210: e00f 95bc bf83 103c 4c3a d3bc 09e8 bf3c
00000220: a6b7 c1bc 2a5a ac3a 5b7f ccbb 66cb 213d
00000230: f0a9 5a3c ca07 e2bd ac63 8dbd 568e d9bc
00000240: 55b6 2ebc a395 4a3b d6c8 fcbc a04e 3d3d
00000250: 24b4 313c b427 4b3d b6cd 31bd 8971 d03c
00000260: 41bf 89bd 8941 cfbd bd46 3dbc b992 033b
00000270: 6f7e e43c fcc2 72bd cda8 deba 2db5 6739
00000280: 419c 493d d70f fc3d c6a4 d0bd 070f 96bd
00000290: 0e76 043d e021 a13c 4e8b b43d 4f27 f73c
000002a0: 34f0 14be f57f 0ebd 552c 3f3d 4e03 20be
000002b0: aef5 1cbe 33c6 4ebc 13f1 12be bcb7 833d
000002c0: 66a5 5ebd 3f4e 8ebd d181 f0bc 81d7 23bd
000002d0: 3063 9b3c 3498 3dbd b2d3 61bd 6d93 213d
000002e0: f9fb 4c3d 5136 55bd b84b 0a3e 82a4 06be
000002f0: f8c3 153e d8e3 883d a3d4 983d 1ccf d83c
00000300: 811d a4bd 2e4d f5bd b953 2abd f144 463d
00000310: 6ea1 593d 7c77 35bd fc60 953d 7966 12ba
00000320: 09be 9eba ebb4 933c 1af0 f33a e0f4 683d
00000330: a455 0f3d 246d e23d 5ac7 cd3c cbf4 07bd
00000340: 2e83 853d 7dc1 0e3d d83b bab8 7f2b 44bd
00000350: 0658 97bc a116 35bd ad84 053d dc9f ebbb
00000360: 98a6 edbc d153 283e 2c73 113d 4f97 b43d
00000370: 00fb 17bd 6a01 313d 511f 5fbc 3735 3b3c
00000380: ede4 96bc b919 3a3d 8b06 03bd 125a a7bc
00000390: 760e 29bd 23c0 8e3c 8b5b c8bb 8356 2abd
000003a0: 1cca cbbc 408c 9cbc 02a4 d0bd 31ad 5c3d
000003b0: 6d67 acbc 53ae 02bd c624 caba 8165 993c
000003c0: 5d13 b3bc 5738 d13c 708d 6c3a cd21 9c3d
000003d0: 0df2 93bc 14e5 6cbd 3b7a c4bc ae04 843d
000003e0: 7c7d 9e3c 66c5 0e3d f6db 8d3d b8f3 70bd
000003f0: 91a6 ae3c 3947 683c d5a2 413d 6862 fdbb

model.encoder.layers.0.fc1.bias f4 [32]
-0.008787591 -0.033199534 -0.06932064 -0.00068515935 -0.049720973 0.010293644 0.008053443 -0.012855978
0.0111963535 -0.048729625 -0.045119468 0.018714858 0.009728296 -0.052733053 0.045019425 0.029448438
-0.014875529 0.02993875 0.022831162 -0.0076296483 -0.0101143755 0.0010527252 -0.05924868 0.02239608
-0.033783194 -0.048755337 -0.013891766 -0.057060882 -0.045053538 -0.0031840513 -0.0013209768 -0.009681634
00000000: d4f9 0fbc 3cfc 07bd fbf7 8dbd 449c 33ba
00000010: 38a8 4bbd aca6 283c 97f2 033c e1a1 52bc
00000020: e970 373c b798 47bd 31cf 38bd e74f 993c
00000030: 6e63 1f3c 9dfe 57bd 4a66 383d da3d f13c
00000040: 7eb8 73bc 1c42 f53c 6b08 bb3c 2102 fabb
00000050: c4b6 25bc 99fb 893a beae 72bd fc77 b73c
00000060: 3f60 0abd adb3 47bd 4a9a 63bc acb8 69bd
00000070: 0f8a 38bd 84ab 50bb a024 adba b79f 1ebc
