data/Checkpoints/Model_v1_Iter_5/last_tf.pt (torch, 407004 bytes, 200 tensors)

model.encoder.value_embedding.value_projection.weight f4 [32, 31]
000000 8f ec 32 3d ad c1 8d 3d bf de 0a 3e 88 4c 0e 3e
       0.04368263 0.06921706 0.13561533 0.13896382
000010 42 8d 92 bc c1 cd bf bd 1f 5e 8e bb d2 9d cf bc
       -0.017889623 -0.09365416 -0.004344716 -0.02534381
000020 a3 5c 05 00 1b 5e 05 00 76 62 05 80 13 5f 05 80
       4.92409e-40 4.92936e-40 -4.94499e-40 -4.93284e-40
000030 ba a8 73 3c fb 92 6e 3c d2 0a f2 3d 32 4f ad 3d
       0.0148717705 0.01456141 0.1181847 0.08462371
000040 c1 d2 15 bd 00 dd 98 bc 6e d8 11 3c 07 c4 41 be
       -0.036577944 -0.018660069 0.0089016985 -0.18922435
000050 49 c3 fd bc 11 28 11 be 92 62 d6 3c 76 5d 90 3c
       -0.030976908 -0.1417544 0.026170049 0.01762269
000060 2e 87 56 bb b4 55 6b bc 32 f9 40 bc 1a d9 8d 3c
       -0.0032734382 -0.014363695 -0.011778163 0.017315436
000070 82 46 37 ba 11 c5 bd bb 8c f3 23 bc d6 fc e5 3c
       -0.00069914025 -0.0057913144 -0.010006797 0.028074663
000080 f7 58 a5 3d a8 f6 21 3e 00 4f d9 3d fc ae 1c bc
       0.08073609 0.15816748 0.10610771 -0.009563204
000090 c9 1c 3d bd df 7d a6 3b ff 9b 35 bb 87 62 05 00
       -0.04617003 0.005080923 -0.002771139 4.94522e-40
0000a0 ad 5b 05 00 a8 57 05 00 20 65 05 00 0e 68 e8 bd
       4.92065e-40 4.90623e-40 4.95454e-40 -0.11347972
0000b0 7d bd 0b be 4f 2e e4 3d 8b 59 a3 3d 51 e0 24 3c
       -0.13646503 0.11141645 0.07976063 0.010063247
0000c0 05 17 79 bd 3d 46 2b bb a8 8a 3a be 46 85 8f bc
       -0.06081297 -0.0026134395 -0.18216956 -0.017519604
0000d0 fa ae 08 be cf 72 79 3b 13 2f 97 3c 95 e3 a1 bc
       -0.13347998 0.0038062816 0.018455064 -0.01976184
0000e0 01 4b b5 3d 5b 58 c0 b9 a8 0d 89 3c 46 b0 84 bc
       0.088521965 -0.00036686924 0.016730145 -0.016197335
0000f0 a1 cd 31 bd 37 ee 02 3c 54 eb d6 bb 83 75 1d bc
       -0.043408994 0.007991365 -0.006558815 -0.0096105365
000100 f8 f0 06 3d 2f 11 7b ba 0c ec 9f bc 59 3e 89 3c
       0.03294465 -0.00095774507 -0.019521736 0.016753362
000110 06 88 20 bc 3b 41 d8 3b ee 62 05 80 2d 61 05 00
       -0.0097980555 0.006599573 -4.94667e-40 4.94038e-40
000120 cc 57 05 00 26 5f 05 80 df d0 45 bd 1b c7 e6 3b
       4.90673e-40 -4.9331e-40 -0.048294898 0.007042778
000130 06 5a f9 3d 99 f1 e8 3d 0d 35 41 bd 26 bf 25 bd
       0.12175374 0.11374206 -0.047169734 -0.040465496
000140 13 a5 89 3b 25 a0 32 be 54 99 65 bd 28 cc bf bd
       0.0042005866 -0.17443903 -0.05605443 -0.093651116
000150 6d ca b9 bc 7c 2f a5 3c ea aa fc 3c c3 97 60 3b
       -0.022679532 0.020164244 0.030843217 0.0034270145
000160 4b 1b 99 bc 4d f5 e1 bc 35 82 39 bd 34 ca 73 3c
       -0.018689772 -0.027582789 -0.04529019 0.014879752
000170 cf 9b c1 3c 88 2f 1c bd f8 99 8d bd 47 bc 16 be
       0.023633866 -0.038131267 -0.06914133 -0.1472026
000180 86 20 11 be dd 18 66 3b ec b2 01 3e 28 06 9d bb
       -0.14172563 0.0035110035 0.1266591 -0.0047919936
000190 03 f7 9a bc 07 67 05 80 23 59 05 80 3f 62 05 80
       -0.018916612 -4.96137e-40 -4.91154e-40 -4.94422e-40
0001a0 2c 65 05 00 d3 3f af 3d ed df 44 3d e7 dd 97 bd
       4.95471e-40 0.085570954 0.048065115 -0.074153714
0001b0 1a d1 02 be d0 56 96 bb c0 07 0c 3c ac b4 83 3b
       -0.12775078 -0.0045879856 0.00854677 0.0040193405
0001c0 76 07 4d 3e 4e 8c 03 3d 88 90 32 3e fc 9e 08 bd
       0.20022377 0.032116227 0.17437947 -0.033354744
0001d0 cd 20 15 bd e1 a9 12 3c f4 0a 8a 3c f7 ef 6b 3c
       -0.036408234 0.008951635 0.016850926 0.014400474
0001e0 55 15 20 bc 23 45 7e 3c d8 97 5b 3d 7a 51 24 bc
       -0.009770711 0.015519413 0.053611606 -0.010029191
0001f0 38 c9 3b bd 1d 91 e9 3c f1 27 03 be 4f c1 0f bd
       -0.045846194 0.028511578 -0.12808205 -0.035096463
000200 6a 85 ec bc 55 58 c6 bc 45 d4 3d bc de 78 8e 3c
       -0.02887221 -0.024212042 -0.0115862535 0.017391618
000210 b4 60 05 00 08 5d 05 00 ed 5c 05 80 ae 5e 05 00
       4.93868e-40 4.92551e-40 -4.92513e-40 4.93142e-40
000220 99 2e a7 3b 12 b4 26 3d 15 aa 23 be f0 02 04 be
       0.0051019904 0.040699072 -0.1598285 -0.12891746
000230 1b 35 10 3b 50 a2 e0 3c 1d 04 ee 3b 66 6a 54 3e
       0.002200431 0.027421147 0.007263674 0.20743713
000240 78 ab 4d 3c f8 7a d3 3d 26 75 9b 3c a4 0f 60 b9
       0.012553088 0.10326189 0.01897676 -0.00021368131
000250 c9 44 94 bc b9 b6 a2 bd e6 e4 d6 bc 3b f5 9d 3c
       -0.018099206 -0.07945008 -0.026232194 0.019281974
000260 aa a1 d1 ba 12 b7 a4 3c d6 16 01 bd 29 ca a4 bc
       -0.0015993614 0.020106826 -0.03151592 -0.020115929
000270 47 e2 3e 3d 59 3d 2c 3d 12 6e ca 3c db 3c 28 bc
       0.046602514 0.042050693 0.024710689 -0.010268415
000280 c7 4b fd 39 2c 58 8b bc 6b 17 14 bd 36 57 05 80
       0.0004831238 -0.017009817 -0.036155146 -4.90463e-40
000290 d8 5c 05 00 93 62 05 00 00 69 05 80 f4 fb ba bd
       4.92484e-40 4.94539e-40 -4.96844e-40 -0.091300875
0002a0 0f 7f f1 bc e2 d2 2e 3e 52 2e 22 3e 99 44 4c bd
       -0.029479532 0.17072633 0.15837982 -0.049870107
0002b0 18 4a 18 bd 91 4b 5c bb 78 9c 22 be 15 7f c0 bc
       -0.037180036 -0.0033614377 -0.1588 -0.023498097
0002c0 8f 2f 12 be 85 e6 19 bd 6d f9 db bc e6 7b 51 3d
       -0.14275955 -0.037573356 -0.026852334 0.05114355
0002d0 38 18 b5 3c e5 d9 36 bd 70 dd 04 bd be 28 a2 bc
       0.022106275 -0.044641394 -0.03243774 -0.019794818
0002e0 f0 55 73 bd 80 dd fc 3c 9a 75 06 3c d0 3c 58 3c
       -0.05940813 0.030867338 0.008206749 0.013198093
0002f0 46 9e 7c bd 45 7c f8 bc ac a6 9d 3c 5d 67 d8 bd
       -0.06167438 -0.030332694 0.019244514 -0.1056659
000300 60 bf 4f 3c 61 c8 97 3c 30 60 05 80 3c 59 05 80
       0.012679905 0.018528165 -4.93683e-40 -4.91189e-40
000310 e6 62 05 80 aa 60 05 80 50 b3 e8 b9 6b 6f 95 3a
       -4.94656e-40 -4.93854e-40 -0.00044384087 0.0011401003
000320 fd 31 92 bd 83 29 47 3c 10 97 cb 3b 79 2c 0d bd
       -0.07138441 0.012155893 0.0062130764 -0.03446624
000330 ce 76 e9 3b 18 d4 06 3e ab 22 73 3c bf f2 bd 3d
       0.0071247583 0.13166845 0.014839808 0.09274816
000340 f6 2e 1f bd 21 12 2b bd fb 8b 43 3c b1 6d 90 bd
       -0.038863145 -0.041765336 0.011935229 -0.07052172
000350 d1 ab b6 3a 55 4d e9 bc 9a 76 0c 3d 26 1e c5 bd
       0.0013936703 -0.028479258 0.034292795 -0.09624891
000360 44 29 ce bc 37 09 d6 3c 57 66 a2 3c 03 83 05 3e
       -0.025166161 0.02612744 0.01982419 0.13038258
000370 6a 07 fa 3d fc 67 3d 3b 93 0f 38 be 45 04 40 3c
       0.12208445 0.002890109 -0.17974691 0.011719768
000380 2a 11 08 3a fa 5b 05 00 0c 5f 05 80 c3 62 05 00
       0.0005190546 4.92172e-40 -4.93274e-40 4.94607e-40
000390 06 5c 05 80 da 5d de bb 27 59 df bd 23 90 15 3e
       -4.92189e-40 -0.0067860903 -0.10905676 0.14605765
0003a0 f4 2a da 3d a5 64 d9 bc 61 04 63 bd 54 2a 1b 3c
       0.10652724 -0.026537249 -0.055424098 0.009470541
0003b0 87 cd ba bd ad 89 00 bc 08 23 e1 bd 6f 70 7f bd
       -0.091212325 -0.007845324 -0.1099301 -0.062363084
0003c0 70 4d c5 3c 91 c2 e9 bc 24 20 2b 3c 8f f9 c7 bb
       0.024084777 -0.02853516 0.010444675 -0.0061027477
0003d0 51 28 bd bc 13 ea 8c bc eb e1 1f be dd 22 44 bc
       -0.023090513 -0.017201459 -0.15613525 -0.011971203
0003e0 ef 5e eb 3c 48 bb 9b 3c 02 a5 9d 3d 80 a5 eb 3d
       0.028731791 0.019010201 0.07697488 0.11506176
0003f0 1a 9e 56 bc a3 06 e3 bd 02 11 3c bc d7 8e 31 bb
       -0.013099218 -0.1108525 -0.011478664 -0.0027093196

model.encoder.embed_positions.weight f4 [29, 32]
000000 00 00 00 00 00 00 00 00 00 00 00 00 00 00 00 00
       0.0 0.0 0.0 0.0
000010 00 00 00 00 00 00 00 00 00 00 00 00 00 00 00 00
       0.0 0.0 0.0 0.0
000020 00 00 00 00 00 00 00 00 00 00 00 00 00 00 00 00
       0.0 0.0 0.0 0.0
000030 00 00 00 00 00 00 00 00 00 00 00 00 00 00 00 00
       0.0 0.0 0.0 0.0
000040 00 00 80 3f 00 00 80 3f 00 00 80 3f 00 00 80 3f
       1.0 1.0 1.0 1.0
000050 00 00 80 3f 00 00 80 3f 00 00 80 3f 00 00 80 3f
       1.0 1.0 1.0 1.0
000060 00 00 80 3f 00 00 80 3f 00 00 80 3f 00 00 80 3f
       1.0 1.0 1.0 1.0
000070 00 00 80 3f 00 00 80 3f 00 00 80 3f 00 00 80 3f
       1.0 1.0 1.0 1.0
000080 a4 6a 57 3f ba 7d 08 3f 3e 39 9f 3e 3a 23 35 3e
       0.84147096 0.53316844 0.3109836 0.17689219
000090 76 75 cc 3d b0 36 66 3d 5c 81 01 3d 42 ab 91 3c
       0.099833414 0.056204498 0.031617507 0.017781857
0000a0 57 d6 23 3c 5c 44 b8 3b 20 3e 4f 3b 20 15 e9 3a
       0.009999833 0.0056233834 0.0031622723 0.0017782785
0000b0 6d 12 83 3a 16 6a 13 3a 5f cb a5 39 53 77 3a 39
       0.0009999998 0.0005623413 0.00031622776 0.00017782794
0000c0 40 51 0a 3f 0e 94 58 3f 6a 4e 73 3f 83 f6 7b 3f
       0.5403023 0.84600914 0.95041525 0.9842302
0000d0 98 b8 7e 3f 68 98 7f 3f 3c df 7f 3f a3 f5 7f 3f
       0.9950042 0.9984193 0.99950004 0.99984187
0000e0 b9 fc 7f 3f f7 fe 7f 3f ac ff 7f 3f e5 ff 7f 3f
       0.99995 0.9999842 0.999995 0.9999984
0000f0 f8 ff 7f 3f fd ff 7f 3f ff ff 7f 3f 00 00 80 3f
       0.9999995 0.9999998 0.99999994 1.0
000100 b7 c7 68 3f 0a f2 66 3f 1b 54 17 3f f6 47 b2 3e
       0.9092974 0.9021307 0.5911271 0.34820527
000110 f9 6f 4b 3e 88 d9 e5 3d c8 70 81 3d 5c a5 11 3d
       0.19866933 0.112231314 0.063203394 0.03555809
000120 3e d4 a3 3c 9d 43 38 3c dd 3d cf 3b 08 15 69 3b
       0.019998666 0.011246589 0.0063245133 0.0035565514
000130 69 12 03 3b 14 6a 93 3a 5f cb 25 3a 53 77 ba 39
       0.0019999987 0.0011246824 0.0006324555 0.00035565588
000140 33 11 d5 be b2 e8 dc 3e ec 7b 4e 3f a5 fa 6f 3f
       -0.41614684 0.43146282 0.8065784 0.9374183
000150 a5 e5 7a 3f f3 61 7e 3f f9 7c 7f 3f 8e d6 7f 3f
       0.9800666 0.9936821 0.9980007 0.9993676
000160 e5 f2 7f 3f db fb 7f 3f b0 fe 7f 3f 96 ff 7f 3f
       0.9998 0.99993676 0.99998 0.9999937
000170 de ff 7f 3f f5 ff 7f 3f fd ff 7f 3f ff ff 7f 3f
       0.999998 0.99999934 0.9999998 0.99999994
000180 c3 81 10 3e d7 45 7e 3f c2 09 50 3f 6d 2f 02 3f
       0.14112 0.9932532 0.8126489 0.50853616
000190 6d 4e 97 3e d8 ee 2b 3e c1 ff c1 3d 4d 69 5a 3d
       0.29552022 0.1679033 0.09472609 0.05332308
0001a0 20 b9 f5 3c c7 31 8a 3c 11 6e 1b 3c a8 cf ae 3b
       0.029995501 0.016869439 0.009486691 0.005334813
0001b0 93 9b 44 3b 1b 1f dd 3a 0d b1 78 3a 7e d9 0b 3a
       0.0029999956 0.0016870232 0.0009486832 0.0005334838
0001c0 26 70 7d bf a8 7f ed bd 57 2f 15 3f 29 6d 5c 3f
       -0.9899925 -0.11596614 0.5827536 0.86104065
0001d0 ef 90 74 3f 9e 5d 7c 3f 4f d9 7e 3f c3 a2 7f 3f
       0.9553365 0.9858035 0.99550337 0.9985773
0001e0 83 e2 7f 3f ad f6 7f 3f 0d fd 7f 3f 11 ff 7f 3f
       0.99955004 0.9998577 0.999955 0.99998575
0001f0 b5 ff 7f 3f e8 ff 7f 3f f8 ff 7f 3f fe ff 7f 3f
       0.9999955 0.99999857 0.9999995 0.9999999
000200 cf bd 41 bf ed 49 47 3f de 1d 74 3f bc 1f 27 3f
       -0.7568025 0.77847177 0.95358074 0.652828
000210 d7 61 c7 3e c6 65 64 3e 88 2e 01 3e c8 8d 91 3d
       0.38941833 0.22304448 0.12615407 0.07107121
000220 db cb 23 3d a2 40 b8 3c cd 3c 4f 3c a7 14 e9 3b
       0.039989334 0.022491757 0.012648773 0.0071130577
000230 58 12 83 3b 0e 6a 13 3b 5c cb a5 3a 52 77 3a 3a
       0.0039999895 0.0022493633 0.0012649107 0.0007113117
000240 30 55 27 bf 9d af 20 bf b1 2e 9a 3e ed eb 41 3f
       -0.6536436 -0.62767965 0.30113748 0.7575062
000250 a7 ca 6b 3f 09 8d 79 3f 69 f4 7d 3f 47 5a 7f 3f
       0.921061 0.9748083 0.99201065 0.9974713
000260 94 cb 7f 3f 6c ef 7f 3f c2 fa 7f 3f 58 fe 7f 3f
       0.9992001 0.99974704 0.99992 0.9999747
000270 7a ff 7f 3f d6 ff 7f 3f f3 ff 7f 3f fc ff 7f 3f
       0.999992 0.9999975 0.9999992 0.99999976
000280 10 7c 75 bf d6 da a5 3e 7f fc 7f 3f ab ca 46 3f
       -0.9589243 0.3239352 0.99994653 0.77652997
000290 44 77 f5 3e ee 11 8e 3e 1e 3c 21 3e 21 db b5 3d
       0.47942555 0.27748054 0.15745589 0.08879686
0002a0 f5 b6 4c 3d fe 4d e6 3c 81 85 81 3c bb ac 11 3c
       0.04997917 0.028113361 0.01581073 0.00889128
0002b0 de d6 a3 3b 8c 44 38 3b 31 3e cf 3a 26 15 69 3a
       0.0049999794 0.002811703 0.0015811381 0.0008891396
0002c0 2c 3c 91 3e 40 32 72 bf d4 72 29 bc f1 4c 21 3f
       0.2836622 -0.94607925 -0.010342319 0.6300803
0002d0 40 a9 60 3f 7c f2 75 3f 81 ce 7c 3f 1e fd 7e 3f
       0.87758255 0.96073127 0.987526 0.99604976
0002e0 19 ae 7f 3f 19 e6 7f 3f cf f7 7f 3f 69 fd 7f 3f
       0.99875027 0.99960476 0.999875 0.9999605
0002f0 2e ff 7f 3f be ff 7f 3f eb ff 7f 3f f9 ff 7f 3f
       0.9999875 0.99999607 0.99999875 0.9999996
000300 8c 0f 8f be 74 e5 6b be 4d 78 72 3f 89 30 60 3f
       -0.2794155 -0.23036748 0.94714814 0.8757406
000310 69 8c 10 3f fd 7d a9 3e 6f 20 41 3e c1 19 da 3d
       0.5646425 0.33103934 0.18860029 0.106494434
000320 d1 9c 75 3d bf 2c 0a 3d 46 6c 9b 3c 04 cf 2e 3c
       0.059964005 0.03373408 0.018972527 0.010669474
000330 59 9b c4 3b 06 1f 5d 3b 05 b1 f8 3a 7d d9 8b 3a
       0.005999964 0.0033740415 0.0018973654 0.0010669675
000340 b8 cd 75 3f 53 1d 79 bf 6f 3f a4 be 34 2f f7 3e
       0.96017027 -0.9731037 -0.32079646 0.482782
000350 32 49 53 3f e2 90 71 3f e3 67 7b 3f 51 8b 7e 3f
       0.8253356 0.943617 0.98205394 0.9943133
000360 12 8a 7f 3f b3 da 7f 3f 34 f4 7f 3f 45 fc 7f 3f
       0.99820054 0.99943084 0.99982 0.9999431
000370 d2 fe 7f 3f a1 ff 7f 3f e2 ff 7f 3f f6 ff 7f 3f
       0.999982 0.99999434 0.9999982 0.9999994
000380 46 30 28 3f 6e b6 36 bf 6f e8 4c 3f 44 84 72 3f
       0.6569866 -0.71372116 0.80042166 0.9473307
000390 73 eb 24 3f df 60 c4 3e 50 d3 60 3e ba 46 fe 3d
       0.64421767 0.38355157 0.2195561 0.12415834
0003a0 32 3e 8f 3d 60 31 21 3d a6 52 b5 3c 2a f1 4b 3c
       0.06994285 0.03935373 0.022134136 0.012447635
0003b0 c7 5f e5 3b be fc 80 3b ec 11 11 3b 66 28 a3 3a
       0.006999943 0.003936379 0.0022135926 0.0012447953
0003c0 bd ff 40 3f 60 4f 33 bf bb 74 19 bf b9 f8 a3 3e
       0.75390226 -0.7004299 -0.5994374 0.32025698
0003d0 b3 cc 43 3f c5 6b 6c 3f ea c0 79 3f e9 04 7e 3f
       0.7648422 0.92351943 0.9755999 0.9922624
0003e0 81 5f 7f 3f 3b cd 7f 3f f2 ef 7f 3f ec fa 7f 3f
       0.997551 0.9992253 0.999755 0.9999225
0003f0 65 fe 7f 3f 7e ff 7f 3f d7 ff 7f 3f f3 ff 7f 3f
       0.9999755 0.99999225 0.99999756 0.9999992

model.encoder.layers.0.self_attn.k_proj.weight f4 [32, 32]
000000 be 33 09 bd da 1a e9 bd 57 ca ac bd 5a 36 60 3c
       -0.03349661 -0.11382075 -0.08437031 0.013684833
000010 26 63 8b bc 85 3b 23 bd de b7 1f 3b 9f 0f 79 bd
       -0.017015051 -0.039851684 0.0024371068 -0.060805913
000020 2e 8d 12 3e fb 99 5f 3c a5 0d 0c 3d fa 56 5a bc
       0.14311668 0.013647552 0.0341927 -0.013326401
000030 e7 a3 1e 3d 43 ab 6f bd a5 5f c1 3d 19 5a 44 3d
       0.03873053 -0.058512937 0.09442071 0.047937486
000040 00 65 36 3e 4d 5e 84 3d dc 88 b4 bd 95 76 43 3d
       0.17811966 0.06463299 -0.08815166 0.04772051
000050 6a c9 30 bd cf f8 b4 bc 2c fd 74 3d 3b 4e 5f 3c
       -0.043160833 -0.022091297 0.059811756 0.013629491
000060 39 3e ae bc 54 cc d9 bd f8 e6 0e bc ce 16 83 3d
       -0.021269904 -0.106346756 -0.008722059 0.06400834
000070 b8 6c 0b 3e 08 5c a6 bd c6 d5 26 bd 14 8f aa bc
       0.13615692 -0.08123022 -0.040731214 -0.020820178
000080 98 c6 98 bb 0c f2 df 3d f0 1d c3 3d d4 8f 5b bc
       -0.004662346 0.10934839 0.095271945 -0.0134009905
000090 39 3c 46 bb 8a 3c 1f 3d 7a f6 20 bc 0d c5 95 3d
       -0.0030248298 0.038876094 -0.00982439 0.07312975
0000a0 ed eb 23 be c7 71 89 bb 38 66 8e bc 5d 8b cc 3c
       -0.16007967 -0.0041944715 -0.017382726 0.024968797
0000b0 c4 bc cf bc 94 e8 8f 3d 22 6e c8 bd 5f fb 03 bd
       -0.025358565 0.07026783 -0.09786631 -0.032222148
0000c0 13 44 30 be 4c d2 61 bd 63 71 b1 3d 75 20 86 bd
       -0.17213468 -0.055132195 0.08664205 -0.065491594
0000d0 98 9c d0 3c 5c d6 1e bb f1 41 8a bd 58 97 55 bc
       0.025465295 -0.0024236655 -0.067508586 -0.013036571
0000e0 fe 98 6a 3d b7 57 e6 3d 45 64 e9 ba 88 f1 6f bd
       0.05727481 0.11247199 -0.0017806372 -0.05857995
0000f0 0d 6d 07 be 21 0d cb 3d bb d7 5c 3d 49 d6 98 bc
       -0.13225193 0.099146135 0.053916674 -0.018656867
000100 1d cb ba 3c ad ea dd 3d e5 5a 6f 3d b3 3d 91 bd
       0.02280193 0.108357765 0.058436293 -0.07091846
000110 15 17 eb 3b 93 05 05 3d b8 19 c9 3c 78 66 c3 3d
       0.0071743825 0.03247602 0.024548396 0.09541029
000120 ef 0e 38 be 68 04 21 bd b1 23 4b bc 3b 7e 06 3d
       -0.17974447 -0.039310843 -0.012398646 0.032835227
000130 bc bf 39 bd d7 d0 88 3d 26 aa ed bd 3b c3 35 bd
       -0.045348868 0.06680458 -0.11604719 -0.04437564
000140 73 60 2e be b5 b3 3d bd 5b 5d 2d 3d e7 04 c8 bb
       -0.1702898 -0.04631396 0.04232536 -0.0061041
000150 1d 85 2a 3d e1 1e 31 3c 71 90 20 bd 8a 92 73 bc
       0.041630853 0.010810585 -0.03920025 -0.014866481
000160 97 3b 45 3c 2c 9e bf 3d f9 d1 b2 bc 18 2e 54 bd
       0.012038133 0.09356341 -0.021828638 -0.05180177
000170 3a 98 00 be 3a 61 ca 3d 8e 79 87 3d 63 30 ec bc
       -0.1255807 0.09881826 0.066149816 -0.028831666
000180 3f e4 9e 3c de 5b 0f 3e 0c 5b b4 3d cf 8f f8 bc
       0.019395946 0.13999888 0.08806428 -0.03034201
000190 7a 90 ef 3b ed 96 17 3d 32 b2 18 3b 1f 3b 47 3d
       0.007310924 0.03700917 0.0023299572 0.048640367
0001a0 9f e6 38 be 4b 6c ea bc 6a ed 9f bc c0 ae ec ba
       -0.18056725 -0.028616091 -0.019522388 -0.0018057451
0001b0 6a e5 f5 bc 54 5d 58 3d 33 04 e5 bd 3a 63 c1 bc
       -0.03001662 0.05282338 -0.111824416 -0.023606885
0001c0 70 c4 0c be ac 3a 34 bd 85 52 94 3d 5d 53 53 bd
       -0.1374681 -0.044001266 0.07242302 -0.051593173
0001d0 6a 1c dc 3c c0 63 68 3c 92 17 86 bd b0 b1 fb bc
       0.026869018 0.0141839385 -0.065474644 -0.030724376
0001e0 f3 11 20 3d 63 e3 bb 3d c6 f4 24 39 38 9f 82 bd
       0.039079618 0.0917423 0.00015731444 -0.06378025
0001f0 b4 15 11 be 4c b8 8d 3d 8e f1 d9 3c a7 18 f6 bc
       -0.14168435 0.069199175 0.02660444 -0.030041052
000200 d8 03 6a bc 5e 35 a5 bd 70 ad c5 bd 41 8c 0b 3d
       -0.014283143 -0.080668196 -0.09652221 0.034069303
000210 17 f4 74 bc 6a bc 37 bd ef b9 4e 3b 20 2d 90 bd
       -0.014950774 -0.04485742 0.003154393 -0.07039857
000220 2f e1 13 3e da 68 c1 3c e3 75 55 3d da 20 dc bb
       0.1444137 0.023609567 0.05211438 -0.0067177834
000230 a8 a5 e7 3c 41 a3 7c bd 7c a7 c6 3d 3a bb 32 3d
       0.028277233 -0.06167913 0.09699914 0.043635584
000240 55 7b 12 3e a1 3d 28 3d f3 4a 5b bd 19 e1 af 3c
       0.1430486 0.0410744 -0.053538274 0.02146964
000250 a0 3e e2 bc bb e3 e0 bb 17 17 a6 3d d4 5c 2b 3d
       -0.027617753 -0.006863085 0.08109873 0.041836575
000260 e7 42 69 bd 03 f0 c6 bd d9 57 e9 b9 ef 0d 8c 3d
       -0.05694857 -0.09713747 -0.00044506675 0.06838595
000270 58 5e fb 3d ba 37 a4 bd 44 7e 53 bd d3 3f ad 3c
       0.12273854 -0.080184415 -0.05163409 0.021148598
000280 c0 78 12 bd 3b 42 8e bd 9e dc 57 bd 25 17 55 3c
       -0.035759687 -0.06946226 -0.05270063 0.013006006
000290 4e a9 fe b7 49 46 96 bd 85 aa 25 bc b4 7d c6 bd
       -3.0357998e-05 -0.073376246 -0.010111456 -0.09691945
0002a0 80 e8 24 3e 43 d3 a1 bb da 4e cb bb 09 e7 43 bd
       0.16104317 -0.0049385144 -0.006204468 -0.047827754
0002b0 59 40 ea 3d 5e 3a 7a bd e0 e3 b1 3d a3 58 b6 3c
       0.114380546 -0.06109082 0.08686042 0.022259062
0002c0 d0 b8 35 3e 62 71 63 3d eb 55 a8 bd 27 4d 75 3d
       0.17746282 0.055528052 -0.082195126 0.05988803
0002d0 51 39 16 bc 53 93 de 3c 7e 4f 10 3d f7 58 66 3c
       -0.009168939 0.027169859 0.03523206 0.014059297
0002e0 df 9d 63 bc c2 63 96 bd 44 45 0d bb 1d 24 4c 3c
       -0.01389262 -0.07343246 -0.0021556178 0.012459782
0002f0 b7 ce f1 3d 75 3e 88 bd ca cc 40 bd 40 84 10 3d
       0.11807006 -0.06652538 -0.047070302 0.035282373
000300 d7 df 9f bc 5f 20 0a be 55 97 c1 bd d6 65 ed 3c
       -0.019515915 -0.13488911 -0.094526924 0.028979223
000310 e5 11 5e 3c dc b3 fe bc c0 1a 9e bc 13 2e 91 bd
       0.013554071 -0.031091623 -0.019299865 -0.07088866
000320 a2 e1 33 3e af f3 6c 3c bd af 9b 3c 57 80 c9 bc
       0.17566541 0.014462396 0.019004697 -0.02459733
000330 93 8a 67 3d 50 c9 8d bd 66 50 dd 3d 00 0a 02 3d
       0.05652864 -0.06923163 0.108063504 0.031747818
000340 90 82 39 3e 6c 5e 82 3d 47 c6 ae bd 2b 33 02 3d
       0.18116212 0.06365666 -0.08533912 0.03178708
000350 f5 d9 3d bd 5b 0c cb 3b 99 49 5e 3d e7 ca cf 3c
       -0.04635044 0.0061965412 0.054269407 0.025365306
000360 f7 4b 3b bd 20 cd c5 bd 19 20 44 bb 74 40 aa 3d
       -0.045726743 -0.09658265 -0.0029926358 0.08313075
000370 3d 30 cf 3d f7 c7 be bd fd 4d e6 bc 0a 60 e2 3c
       0.101166226 -0.09315484 -0.02811336 0.027633686
000380 91 42 bf bc f2 76 f8 bd fa 9d a7 bd e8 b5 f0 3c
       -0.023347171 -0.12132062 -0.081844285 0.029383615
000390 b8 e4 0d 3b 0a fd 63 bd 90 3c d1 bb 5c e1 a2 bd
       0.002165122 -0.05566124 -0.0063853934 -0.0795314
0003a0 ee 84 fa 3d eb 32 cc 3c 32 62 9c 3c 97 f9 24 bc
       0.122323856 0.024926623 0.019089792 -0.0100692725
0003b0 8d 40 9c 3c b3 4b 8f bd 95 cf d9 3d 53 e7 ab 3c
       0.019073749 -0.0699686 0.10635296 0.020984327
0003c0 5d 1e 22 3e c1 c1 58 3d 5f 42 9d bd b6 56 66 3d
       0.15831895 0.052919153 -0.07678675 0.056235038
0003d0 aa 9f 22 bd ea aa 90 39 80 a0 84 3d 62 3e 33 3d
       -0.03970305 0.0002759316 0.064759254 0.043760665
0003e0 7f d9 6d bd 97 84 ef bd 6a 06 f4 3c dc 4f 68 3d
       -0.05806875 -0.116952114 0.029788215 0.056716785
0003f0 c0 a6 01 3e d8 c4 b1 bd fe 97 e8 bc 22 e7 ae 3c
       0.12661266 -0.08680123 -0.028392788 0.021350447

model.encoder.layers.0.self_attn.k_proj.bias f4 [32]
000000 ec 50 47 34 54 d4 da 33 8c 39 78 33 71 3b 58 33
       1.8562758e-07 1.0190038e-07 5.7794338e-08 5.034548e-08
000010 7b 22 e4 b4 60 38 6c b4 18 a5 8b b4 ce d7 23 b5
       -4.2493397e-07 -2.1999722e-07 -2.601089e-07 -6.103627e-07
000020 f6 80 54 34 f4 2d 11 b5 f5 6c 9d b3 d8 4a 1a b5
       1.9790954e-07 -5.408358e-07 -7.3307014e-08 -5.747838e-07
000030 c4 d7 d9 34 0c a6 db 34 0d a2 92 31 96 8a 18 35
       4.057639e-07 4.0912744e-07 4.2675823e-09 5.682608e-07
000040 76 88 c7 34 0d ed 9c 32 f3 0d 31 b5 fc cc ec 34
       3.7165927e-07 1.8268588e-08 -6.5957937e-07 4.410757e-07
000050 dc de 47 35 3b 77 81 34 d2 42 37 b4 d6 81 b7 b5
       7.445758e-07 2.4114874e-07 -1.7067512e-07 -1.367235e-06
000060 d6 9b b1 35 1e 31 bb 34 41 fe bf b5 f5 1f a0 b5
       1.3232882e-06 3.4867202e-07 -1.4304607e-06 -1.193023e-06
000070 45 7e eb b5 ca 9d b0 35 53 c3 59 34 d7 46 7f b5
       -1.7545614e-06 1.3158945e-06 2.0280758e-07 -9.509799e-07

model.encoder.layers.0.self_attn.v_proj.weight f4 [32, 32]
000000 71 a6 9b bc e6 3a 57 3d 19 4b 05 3d 69 f4 66 bd
       -0.019000264 0.052546404 0.03254232 -0.05638543
000010 08 d2 88 3b bf ee 4a bb 6f 9d ed 3c 29 38 09 3d
       0.0041754283 -0.0030965058 0.029005734 0.033500824
000020 aa 98 42 3d a7 e3 54 ba 60 09 f9 ba a0 f8 98 bd
       0.047508873 -0.0008121081 -0.0018999986 -0.074692965
000030 79 31 cd bd ba cc 5e bc eb 4a 85 3d 35 c4 6e 3b
       -0.10019202 -0.013598615 0.0650843 0.0036432866
000040 98 b6 3d bd 76 4e 83 3d f3 0e d9 3d a0 72 f3 3a
       -0.046316713 0.064114496 0.105985545 0.001857359
000050 26 f2 d0 bc 06 ff c6 ba c0 b7 ae bd 33 8d 65 bc
       -0.02550609 -0.0015182204 -0.08531141 -0.014010715
000060 b6 f6 ab 3d 5c 74 57 bd 18 29 19 3a 2b f0 ab bc
       0.08396666 -0.052601203 0.000584261 -0.020988544
000070 cc 33 c0 3d 0a b4 44 bc 6f bf b6 3d 7d cf 8a bb
       0.093848795 -0.012005815 0.08923232 -0.0042361603
000080 bb f9 4a bd ed b6 a3 3c a1 a5 af bd 1d b6 c8 ba
       -0.049554568 0.019984687 -0.08576513 -0.0015313063
000090 5b 94 94 3d ee 7e 6d bb 84 80 e7 3b a3 0f 7a bd
       0.07254859 -0.0036238986 0.007064881 -0.06105007
0000a0 2a 61 18 3d 4c c6 1c bd 71 b7 c3 bd 8d e1 93 bd
       0.037202038 -0.038275048 -0.09556473 -0.07220755
0000b0 58 c1 67 3d bb 57 85 bd 0f 20 de 3c 65 59 84 3d
       0.05658087 -0.06510874 0.027114896 0.06462363
0000c0 bb 50 44 3b 2b 8d 5a bd 0c 6c d7 bd b2 2e 36 bd
       0.0029955346 -0.053357285 -0.10518655 -0.044478126
0000d0 db 48 39 bc 1c e1 d0 bc b5 52 b6 3c 91 0a 97 bc
       -0.011308874 -0.025497966 0.022256235 -0.018437656
0000e0 18 97 a2 3d 40 f5 8d 3d ee ba be 3d 5e 67 fe 3b
       0.07938975 0.06931543 0.09312998 0.007763787
0000f0 59 94 f2 3c 54 98 96 3d 46 5a 03 3d 0a 29 36 3d
       0.029611753 0.07353273 0.032068513 0.04447273
000100 bf d9 73 3d 5e 81 b9 3d 23 1a 27 3d ac 68 de bc
       0.05953383 0.09057878 0.04079641 -0.02714952
000110 d9 ef a7 3b 13 f1 4b bd 6e bb 48 3d 09 b8 2a 3d
       0.0051250276 -0.049790453 0.049006872 0.041679416
000120 10 6c a7 bb 48 b9 e0 3a 66 f9 36 3d ea f8 51 3b
       -0.0051093176 0.0017145062 0.04467144 0.0032039233
000130 1b 6f e1 bc 40 a4 06 3b 61 93 a1 bc 99 5d 88 bc
       -0.0275188 0.0020544678 -0.019723596 -0.016646193
000140 e4 c8 81 bd 52 ad f0 bc 49 12 1a 3e f2 5d e1 3b
       -0.06337145 -0.02937952 0.15046038 0.006877654
000150 38 73 38 3d 3a 45 5a 3c 8a cb 0f bd 0c f8 5f 3c
       0.045031756 0.013322169 -0.03510622 0.013669979
000160 c9 42 82 3c f5 a0 cd bd 4a 23 c8 bd 42 69 53 3c
       0.015900986 -0.10040466 -0.09772356 0.012903513
000170 27 48 5e 3c 21 b5 61 bd ab d7 64 3d 99 13 bf 3b
       0.013567007 -0.05510438 0.05586974 0.0058311936
000180 ed 1e e3 bc cd 24 a7 bd 15 be 8e bd 2d af 20 3c
       -0.027724707 -0.08161316 -0.06969849 0.00980739
000190 cd 60 a4 bb 97 13 e9 3c cf bf 1b 3d 70 98 a7 bd
       -0.0050164224 0.028451724 0.03802472 -0.08183372
0001a0 58 b8 86 3d 17 f1 9e bc 94 31 1a bc c5 1b d2 3c
       0.065781295 -0.01940207 -0.009411234 0.025648007
0001b0 71 10 1f 3d 86 87 1b 3c 8e 25 88 3d eb 9c 95 bc
       0.03883404 0.0094927605 0.06647788 -0.0182633
0001c0 cf 34 1c 3d 70 ad 8c 3c a7 57 b2 bd 35 68 48 bd
       0.0381363 0.017172545 -0.087081246 -0.048927505
0001d0 d0 3d 2d bd 68 6d 7c bd 07 43 e1 3c d2 3b ec bc
       -0.042295277 -0.061627775 0.027497781 -0.028837118
0001e0 f3 13 a5 3b 34 a0 f2 3d 17 eb 77 3d 8e 0d ce bc
       0.0050377785 0.118469626 0.060526934 -0.025152948
0001f0 5b 0d 06 3c ef e6 72 3d 99 cf 47 bd 27 da 2d 3d
       0.008181895 0.059302267 -0.048781965 0.042444374
000200 b7 45 ed bb da a6 f6 3c 3d d1 78 3b 29 22 f8 bc
       -0.0072409767 0.030108858 0.0037966513 -0.030289726
000210 f6 49 10 bd b8 f0 e4 bc 68 4f 16 3d d7 ba 5c 3c
       -0.035226785 -0.027946815 0.03669682 0.01347228
000220 49 26 f0 3c b3 0c 35 3d 17 c1 ae 3a e7 92 3c bd
       0.02931513 0.044201564 0.0013332692 -0.046038534
000230 e6 c0 83 bd fd 74 f9 3c d6 1e 90 bc 41 6b 25 3b
       -0.06433277 0.030451292 -0.017592829 0.002524093
000240 1a aa 11 bd 49 22 f7 3c 9c 15 06 3e b8 d9 77 3d
       -0.035562612 0.030167716 0.13094181 0.060510367
000250 c9 d3 de bc 6c 15 6b 3c 58 b6 03 bd 5c 95 50 3c
       -0.027200596 0.014348369 -0.03215632 0.012730923
000260 bb fc 91 3c 58 36 92 bd 45 38 a6 bc 4f 12 02 bc
       0.017820707 -0.071392715 -0.020290503 -0.007938935
000270 b8 bb 8d 3d 62 0c 01 bd f9 d2 92 3d bf c9 95 bb
       0.0692057 -0.03150595 0.07169146 -0.004571169
000280 4a fc ec 3c 3b fa 3c bd 17 39 1b 3d df 51 58 3d
       0.028928895 -0.046137076 0.037896242 0.052812453
000290 e6 ee 2a bd 90 d2 20 3d b9 b6 81 3b 51 fe 84 3d
       -0.041731738 0.039263308 0.00395855 0.064938195
0002a0 fa 1e c7 ba e1 a9 02 3d 54 3d 86 3d f9 38 01 3d
       -0.0015191727 0.03190029 0.06554666 0.031548474
0002b0 f6 79 5f bd 0d 47 33 3d 7c f2 ad bb 2e dc 41 bd
       -0.05455967 0.04376893 -0.0053084474 -0.04732912
0002c0 06 1d 01 3c c7 5b 7f 3d 93 8a ae 3d 0b a3 c5 3c
       0.007880455 0.062343385 0.08522525 0.024125597
0002d0 84 10 4f bc 79 9f 57 3c eb c6 9f bc 0a 86 fc bc
       -0.012638215 0.01316058 -0.019504031 -0.030825634
0002e0 5d 11 65 bd 01 03 83 bd 51 65 3a bd 1f 2b 0d bc
       -0.055924762 -0.06397057 -0.04550678 -0.008616238
0002f0 34 b3 df b9 7a 26 ec bd c8 0c 89 bc de 2f 49 3c
       -0.0004266739 -0.11530776 -0.016729727 0.012279479
000300 43 3b 96 3c f3 a3 42 3c d1 a8 98 bc bc 04 9b 3c
       0.018338805 0.011879909 -0.018635185 0.018923156
000310 ac f9 0f 3d 23 7a 14 bd 0a a1 af 3c 24 3c 06 bd
       0.035150215 -0.03624929 0.021439094 -0.0327722
000320 05 af 98 3b 84 70 69 3b 90 06 b8 bc a5 ab 8c 3d
       0.004659536 0.0035620043 -0.022464067 0.06868676
000330 90 19 ec 3c 1a 4b ed 3c 15 a5 28 3d 48 a8 cf bc
       0.028820783 0.028966475 0.04117306 -0.025348797
000340 1b 2a 02 3d 9c 09 70 bc 80 9d ec bc 24 ac b2 3c
       0.031778436 -0.014650729 -0.028883696 0.021810599
000350 07 4a ae bc 7b f4 d7 bb 12 99 e4 3c 9d 08 d6 bc
       -0.021275533 -0.0065904236 0.02790502 -0.026127154
000360 7c 63 88 bd 23 86 21 3d 71 63 e0 bc df 23 30 3c
       -0.066596 0.039434563 -0.027391167 0.01075074
000370 cd e5 90 bd df f3 21 bc ac dc 5f bd 53 2d 21 3d
       -0.07075081 -0.009884804 -0.05465381 0.039349865
000380 b1 99 38 bd 9d 64 d2 bc 0f 58 97 bc b9 99 4b bd
       -0.045068447 -0.025682742 -0.018474607 -0.04970715
000390 7d f7 7a ba 22 4b 5b 3c f3 8e 18 3c 1a 2a 9c 3d
       -0.0009573622 0.013384612 0.0093114255 0.07625218
0003a0 1a 4e 89 3d f9 12 8f bb aa 64 f5 3b 82 af 30 bd
       0.0670435 -0.0043662754 0.0074888067 -0.043136127
0003b0 1a 11 c1 3c 8e da 90 bd ae 87 b2 3c eb be 3c 3d
       0.023567725 -0.07072936 0.021793213 0.04608051
0003c0 fd f3 e1 39 18 17 b7 3c 28 5d 7d 3d d5 3f fa ba
       0.0004309713 0.02234988 0.06185642 -0.001909251
0003d0 c1 53 08 3b 8c 19 b0 bc 18 47 4f bd 28 c8 a4 3c
       0.0020801874 -0.021496557 -0.05060491 0.020114973
0003e0 88 dc da 3c ea ab da bd 78 c8 24 3d 37 60 2c bd
       0.026716486 -0.10677321 0.040230244 -0.042083945
0003f0 d4 2c 86 3d 76 8d 5c bd 51 78 50 3c 68 fe c8 bc
       0.06551519 -0.053845845 0.012723998 -0.024535373

model.encoder.layers.0.self_attn.v_proj.bias f4 [32]
000000 5b de 31 38 f7 09 c7 3b 24 0d d3 3c e0 1e c4 bc
       4.2407173e-05 0.006074186 0.025763102 -0.023940504
000010 0d f8 2a bc a8 b5 45 bd 47 69 3f bd 8e 92 e1 3c
       -0.0104351165 -0.048268944 -0.04673126 0.027535703
000020 a9 f6 0a 3d 05 00 f1 3c 31 80 2a 3d 34 85 06 3d
       0.03392664 0.029418955 0.04162616 0.032841876
000030 f9 d6 ce 3c 83 f0 2b bd 89 e0 e4 3b 87 6f 2f 3c
       0.025248991 -0.041977417 0.0069847745 0.010707743
000040 6d 8d 8c bd ae bd 64 bc 46 e9 41 3d f5 9f a3 3c
       -0.06862912 -0.013961239 0.047341608 0.019973734
000050 9c 04 07 bd be 5d 99 bd 3e fa f4 bc 7c 50 5d bd
       -0.03296338 -0.07488583 -0.029904481 -0.054031834
000060 a3 9a b0 bb 20 2c 0b bd 46 df 03 bd 77 46 ec 3c
       -0.005389528 -0.033977628 -0.032195352 0.028842194
000070 de dd 58 3d e0 82 e6 bc 0f d5 dc 3c 03 71 4f 3d
       0.052945964 -0.028138578 0.026957063 0.050644886

model.encoder.layers.0.self_attn.q_proj.weight f4 [32, 32]
000000 3b dc c9 bd 27 83 ad bd 0a 91 0d 3e 3a 5c 49 bd
       -0.09856459 -0.08472281 0.1382486 -0.04916022
000010 5d ce 36 bc 7c a5 33 bd ec 00 fe bc 32 6a 21 3d
       -0.011157599 -0.04385899 -0.031006299 0.039407916
000020 81 be f2 bc 0d 60 ea 3d a7 87 13 3e 88 05 95 3d
       -0.029631855 0.114441015 0.14407216 0.072764456
000030 e2 67 46 3b e6 d7 14 3e da bc 44 bd 25 83 ca 3c
       0.0030274321 0.14535484 -0.048031665 0.024720738
000040 9d ff a0 3d 90 79 91 3d 65 f2 b6 bc 8c 08 44 be
       0.07861254 0.07103264 -0.02233238 -0.19143885
000050 67 fc 11 be d9 bf 8b bd b4 dc c2 3c 60 13 2e 3e
       -0.1425644 -0.068237014 0.02378688 0.16999578
000060 35 94 52 ba 54 74 fe 3d 5e a5 50 bd b6 7b 68 bc
       -0.0008032949 0.124245316 -0.050938956 -0.014189651
000070 5a 76 2f bd ed d8 92 bc fe dc 33 be 3d 4a d8 3d
       -0.04283748 -0.017925704 -0.1756477 0.10561035
000080 79 2b 04 3e 7a c6 3e 3d 76 9c 1f be fe fc 21 3d
       0.12907209 0.046576 -0.15587029 0.039547913
000090 16 31 c1 3a 09 b8 34 3d a0 9e 40 3c df 86 8b bb
       0.001473936 0.044120822 0.011756569 -0.0042580212
0000a0 fd 0a ad 3d 68 c8 01 be 45 32 f9 bd b6 a2 40 bd
       0.084493615 -0.12674105 -0.12167791 -0.047030173
0000b0 c6 93 c2 3c cc 95 0c be 8f 39 a0 3d 45 f0 31 bd
       0.023752104 -0.13729018 0.078234784 -0.04344203
0000c0 4a 74 82 bd b0 87 f1 bc c7 31 d1 3c 1b 01 2a 3e
       -0.06369837 -0.029483646 0.025536431 0.16601984
0000d0 4e 65 10 3e 79 b6 b7 3d 80 25 68 bd 29 79 1f be
       0.14101145 0.08970351 -0.056676388 -0.15573563
0000e0 ac ac 27 3d 63 4d 29 be 7e 00 42 3d 6a 77 93 3d
       0.040936157 -0.16533427 0.04736375 0.07200511
0000f0 5b 2b 3d 3d 1f e4 3d 3d f3 7f 41 3e 88 4c e9 bd
       0.046183925 0.04636013 0.18896465 -0.1139155
000100 30 65 bd 3d 65 3c 89 bc f3 7e 86 bd f8 93 5e bc
       0.092478156 -0.016752431 -0.065671824 -0.013585083
000110 3d 05 59 bc 69 ea 28 bc da 0b 29 bc 67 b3 44 bc
       -0.013245878 -0.010309794 -0.010317767 -0.0120056635
000120 b1 7f db 3d bb 3f 07 be 9b 37 af bd 41 04 b8 bd
       0.107177146 -0.13207905 -0.08555528 -0.08985186
000130 bd a6 3d 3d 28 4f ab bd 9f 82 6c 3d f4 09 b1 bd
       0.046301592 -0.08364707 0.057741757 -0.086444765
000140 ca 00 f2 bc 59 50 ae 3c ff 66 e2 3d 83 c1 35 3e
       -0.029541392 0.021278547 0.11054801 0.177496
000150 53 1b 1a 3e 25 a5 a5 3d c6 75 6a bc 85 3e 1d be
       0.15049486 0.080881394 -0.014310306 -0.1535588
000160 c4 30 01 bc 8b 3d 06 be 6a 7e b0 3c f6 9a 83 3d
       -0.007885162 -0.13109414 0.021544654 0.06426041
000170 ab e1 61 3d 7e 82 02 3d 46 a3 7d 3e 4f a0 2a be
       0.055146854 0.03186273 0.24769315 -0.16662715
000180 02 20 c3 3d 3c a8 c5 3c 88 c0 17 be 45 78 05 3d
       0.095275894 0.024128072 -0.14819539 0.0325854
000190 f6 f9 b5 3b ac 07 c3 3c 19 66 f0 3c 08 af 20 bd
       0.0055534793 0.02380737 0.029345559 -0.039229423
0001a0 3b 61 90 3d 6e 87 d7 bd c1 64 c0 bd 3d 25 22 bd
       0.07049795 -0.10523878 -0.09394217 -0.039586294
0001b0 9e 95 d0 3c d1 31 ea bd 46 d9 c0 3d 62 fd 15 bd
       0.025461968 -0.11435283 0.094164416 -0.036618598
0001c0 37 df 54 bd e1 dc db 3b df 13 a1 3c 37 85 09 3e
       -0.051970687 0.0067096804 0.019662796 0.13429724
0001d0 00 ea 04 3e 68 01 b4 3d d2 19 d9 bd 83 85 0a be
       0.12979889 0.08789331 -0.10600628 -0.13527493
0001e0 35 20 87 3d d4 08 31 be 7c e4 e3 3c 41 33 59 3d
       0.0659794 -0.17288524 0.02781891 0.053027395
0001f0 19 2d 75 3d c3 f0 84 3d 10 66 52 3e 2a 44 d8 bd
       0.05985746 0.06491234 0.20546746 -0.10559876
000200 82 9c f9 bd 34 54 18 bd f9 ff 02 3e d8 c3 38 bd
       -0.121880546 -0.037189677 0.12792958 -0.045108646
000210 b4 a3 c7 bc 10 1e e8 bc 7d de 45 bd 37 01 55 3d
       -0.024370052 -0.028334647 -0.048307884 0.05200311
000220 3e 02 30 bd 9e 68 ef 3d 4c 1a c4 3d 92 fe d0 3d
       -0.04297089 0.11689876 0.09575328 0.102048054
000230 b4 cd 2c bc aa d8 e2 3d d3 10 76 bd d0 4a 5b 3d
       -0.01054709 0.11076482 -0.06007464 0.053538144
000240 58 da 63 3d ac bc 09 3d 2d c5 1f bd 9a 4e 00 be
       0.05562815 0.033627197 -0.0390064 -0.12529984
000250 74 a5 19 be 7f 96 ec bd 50 1f 47 3c 26 b3 f1 3d
       -0.15004522 -0.11552142 0.012153462 0.11801748
000260 22 23 ba bc 95 59 12 3e e0 3c 82 bb fe ea ee bc
       -0.02272183 0.14291985 -0.003974542 -0.029164787
000270 03 e1 74 bd f1 29 41 bd d4 64 42 be f1 05 cf 3d
       -0.0597849 -0.04715914 -0.18983775 0.10108555
000280 93 56 d5 bd ec 92 92 bc eb 8c 45 3d 3f dd be 3c
       -0.10416903 -0.017892323 0.048230093 0.023298858
000290 20 59 25 3d 05 f7 4a bc 95 c9 6a 3d be 7b 7a 39
       0.0403682 -0.012387996 0.05732115 0.00023887955
0002a0 1f 98 01 be 26 e6 0c 3e d2 ed 8b 3d 80 30 01 3d
       -0.12655686 0.1375967 0.0683247 0.031540394
0002b0 8f e3 d9 bd ab 8f 9d 3d 05 14 b8 3c b1 06 8e 3d
       -0.106391065 0.07693418 0.022470484 0.0693487
0002c0 56 2c b9 3c 8c 77 8d 3c cf 2c 07 be f7 25 f8 bd
       0.022604149 0.017268918 -0.13200687 -0.12116616
0002d0 14 10 25 be ac 90 d7 bd 65 31 26 bc e9 1e f7 3d
       -0.16119415 -0.10525641 -0.0101436125 0.120664425
0002e0 06 7a c6 3c 48 37 0e 3e 6e 42 4d bd 41 b7 8d bd
       0.024228107 0.13888276 -0.05011218 -0.069197185
0002f0 e1 12 5d bd 0e 13 0a bd 65 dd 1b be 35 3b 2a 3e
       -0.053973082 -0.03370958 -0.15221174 0.16624148
000300 77 82 05 be ca 7d 1c bd c0 dc 1b 3e 7e ad 0d bd
       -0.1303805 -0.0382059 0.15220928 -0.034589283
000310 06 0a 92 3b ac fb b8 bc 40 40 91 bc d7 25 c7 3c
       0.0044567613 -0.022580944 -0.017730832 0.024310036
000320 75 3b bb bd c1 d5 1b 3e 69 8d ae 3d c1 e4 b3 3d
       -0.091422 0.1521826 0.085230656 0.08783866
000330 dc 2d 1c bd e4 67 f4 3d 0b e5 63 bd 33 13 4f 3d
       -0.038129672 0.11933878 -0.055638354 0.05055542
000340 90 bb 60 3d 60 d0 0f 3c 29 37 9f bd 86 a6 33 be
       0.054866374 0.008777708 -0.07774193 -0.17543992
000350 39 35 2c be bb da d0 bd 85 16 19 3d 1a 7a 15 3e
       -0.16817178 -0.101979695 0.037374992 0.1459736
000360 cb b9 40 bd 6a 7a 2e 3e 63 5f 37 bc 07 69 5f bd
       -0.047052186 0.17038885 -0.011192176 -0.05454352
000370 ce f5 84 bd 22 e5 7e bd c5 36 6a be 96 9c 27 3e
       -0.06492196 -0.062230237 -0.22872455 0.16368327
000380 f5 44 c4 bd 33 15 a9 bc 26 14 10 3e 74 8a c1 bc
       -0.09583465 -0.020639991 0.14070186 -0.02362559
000390 61 4c 1e 3c 28 34 69 bb dc a0 19 bc b0 f3 0a 3d
       0.009661765 -0.0035584066 -0.009376731 0.033923805
0003a0 db f7 9e bd f1 22 ee 3d 1f c6 a1 3d b4 45 24 3d
       -0.077621184 0.11627758 0.07899117 0.040105537
0003b0 c8 b7 95 3b 25 da df 3d 1a 49 b1 bd c4 9a 60 3d
       0.0045690276 0.1093028 -0.08656521 0.054835096
0003c0 0e a6 87 3d fb 59 86 bc 87 13 54 bd 01 90 0c be
       0.06623469 -0.016400328 -0.051776435 -0.13726808
0003d0 9d d1 04 be 73 e6 f6 bd 34 aa c1 3d a8 a2 10 3e
       -0.12970586 -0.120556735 0.09456292 0.14124548
0003e0 06 8b 52 bd 08 80 28 3e 76 76 bb bc 53 15 b4 bd
       -0.051402114 0.1645509 -0.022883635 -0.0879313
0003f0 1f f6 d2 bc 9a 7d d3 bc bf 76 68 be 15 53 00 3e
       -0.025752125 -0.025816727 -0.22701548 0.12531693

model.encoder.layers.0.self_attn.q_proj.bias f4 [32]
000000 62 5b 47 3e e7 6e 44 be ee cc 38 be 94 bc 32 be
       0.19468454 -0.19182931 -0.18046924 -0.1745475
000010 81 6e 3a 3e 63 0d 35 3e de 34 50 3e 72 a3 30 3e
       0.18206216 0.17680888 0.20332667 0.1724985
000020 2a fd 5e be 0d dd 4c 3e 3f 5e 45 3e b6 c2 4b 3e
       -0.21776262 0.20006199 0.19274233 0.19898495
000030 c5 7d 48 be 59 96 41 be 9e 33 39 3e 9e a9 55 be
       -0.19579227 -0.1890501 0.18086097 -0.20865485
000040 16 cc 91 bd c7 d9 cd bd 84 b1 90 3d b0 22 bb bd
       -0.071190044 -0.10051303 0.070651084 -0.091374755
000050 0f aa f6 bd 6e 6b 35 bd c2 73 ec bd 95 b5 e7 3d
       -0.12044155 -0.044291906 -0.115455166 0.11313931
000060 b2 0b 12 3e 66 29 0e 3e 68 ad d5 3d c5 30 11 3e
       0.14262274 0.1388298 0.10433465 0.1417876
000070 57 73 93 3d b0 28 15 be 5b 20 d1 3d a3 a0 ee 3d
       0.07199734 -0.14566302 0.102112494 0.11651733

model.encoder.layers.0.self_attn.out_proj.weight f4 [32, 32]
000000 64 0f 87 bd d0 96 45 3d bc 6d ab bd 9a 19 2b 3d
       -0.065947324 0.04823953 -0.083705395 0.041772462
000010 b5 64 6b bd 7b c6 33 bd 24 63 8e 3c 1d 13 9c 3c
       -0.05746909 -0.043890458 0.017381258 0.019052083
000020 6d 8b 93 3c f2 e5 58 3d 62 55 3b bd ba d2 28 bc
       0.01801082 0.052953668 -0.045735724 -0.010304147
000030 34 34 82 bc 9b 1b fc bb 21 d7 62 3d 53 cc b8 3d
       -0.015894033 -0.0076937205 0.055380944 0.09023347
000040 39 5f 0c bd dd 20 76 bc f8 09 87 b9 d7 a3 30 3b
       -0.0342705 -0.015022484 -0.00025756634 0.0026953125
000050 c8 e8 8a 3b dc a7 4f 3c fb 7e 7a 3d 78 10 55 bd
       0.0042391755 0.012674298 0.061156254 -0.05201766
000060 c9 c8 fc bc 68 73 06 bd fd 88 eb 38 9f 11 fc 3b
       -0.03085746 -0.032824904 0.00011231189 0.0076925303
000070 69 7b 8a bc 26 3f 24 bd 47 78 8f bb 10 2e 08 3d
       -0.01690455 -0.040099286 -0.004378352 0.033247054
000080 f1 a5 26 3d ff aa c8 3c 79 bc fe bc b4 3c 2e ba
       0.040685598 0.0244956 -0.03109573 -0.0006646619
000090 44 7b de 3c aa 05 a7 3b 37 39 24 bd c2 70 20 3d
       0.027158387 0.0050971108 -0.040093627 0.039170034
0000a0 43 54 78 3c de a3 ea 3b 05 c7 f3 3c a6 87 3a 3d
       0.015156808 0.007160648 0.029757986 0.04553952
0000b0 49 f0 f3 3c 4d 19 04 bc 03 4a 6e bc 6d 12 9d 3c
       0.029777663 -0.008062673 -0.014544013 0.019173825
0000c0 5f bc 8e 3c 4e fa 6d bb 46 a4 2f 3d eb 97 f1 ba
       0.017423807 -0.0036312523 0.042881273 -0.0018432116
0000d0 cb 3e 76 3c 53 86 5a 3d 03 4f a2 bb 15 61 de bb
       0.015029619 0.053350758 -0.0049532666 -0.0067864754
0000e0 a8 d4 35 bd e7 24 cc 3b 2b 89 5d bd f7 c9 01 3d
       -0.044392258 0.006229985 -0.05408589 0.03168675
0000f0 26 8b c6 bc 40 ee 10 bd 31 de 24 ba e9 fd c6 bb
       -0.024236273 -0.035383463 -0.00062892126 -0.006072749
000100 c7 46 48 3d 14 4d 2a 3d 45 c8 b6 bb 67 c4 8e 3d
       0.048895624 0.041577414 -0.005578073 0.069710545
000110 a7 71 5b 3b ee f0 a8 bc 91 69 09 3c da 53 e8 bc
       0.003348449 -0.020622697 0.008386985 -0.028360296
000120 8b fd df bd 6f 21 7d 3c 40 18 10 bd 96 b7 80 bb
       -0.10937031 0.015449866 -0.035179377 -0.003928135
000130 9e 4f 9d bd a6 f9 cf 3b bf 9e 48 3d 8b 85 3f bd
       -0.076812014 0.006346899 0.048979517 -0.046758216
000140 ce 23 52 bb 4b 69 8e b9 57 eb df bd 46 b8 b1 bd
       -0.0032064798 -0.000271628 -0.109335594 -0.086777255
000150 ba 66 83 bd b8 99 a1 3d a9 7a 61 bd a8 bc cb 3c
       -0.06416078 0.07890648 -0.05504862 0.024870232
000160 1b ef d7 3d a5 b6 29 bd 7f 46 b3 3d 0e b8 e7 bd
       0.105436526 -0.04143395 0.087536804 -0.113144025
000170 6e e9 58 bd a7 34 bf 3d fa 0e bc bd 55 a6 6b bd
       -0.05295699 0.093362145 -0.09182544 -0.057531673
000180 df e9 64 3d 49 3c aa bd 79 da aa bb ad 95 15 3c
       0.0558871 -0.0831228 -0.0052140323 0.009129924
000190 46 b9 b1 3d ba ac 2a 3d 62 8b 7a bc 8d c4 d5 3c
       0.08677916 0.04166863 -0.0152920205 0.0260947
0001a0 1d 7b 51 b9 e1 28 f7 bd c1 0a 27 3d 50 78 f9 bc
       -0.00019977656 -0.12068344 0.04078174 -0.030452877
0001b0 bd 93 ad 3c 5d 1c ca bd 1d ec 02 bc be b7 6d bd
       0.021188611 -0.09868691 -0.007990864 -0.05803656
0001c0 10 23 6c bb 72 9a bc bb 5a ab 94 3d 64 67 bd 3d
       -0.003603164 -0.005755716 0.07259245 0.09248236
0001d0 51 9c d4 3d 7f 11 3d bd 93 a6 1c bc 90 2b bc 3c
       0.103813775 -0.046159264 -0.009561199 0.022969991
0001e0 d1 1b 92 bd 25 f7 6f 3d 77 81 03 3c 0d 89 0f 3d
       -0.07134212 0.058585305 0.008026472 0.03504281
0001f0 9f 11 90 bc 5d 8e a4 bd 03 30 2e 3d ac 7d d9 bc
       -0.017586527 -0.08034966 0.042526256 -0.026549183
000200 c7 1f 6f bc 9d 6c 2e bd 5e 5b ea 3c 7e d5 3c bd
       -0.014594979 -0.04258405 0.02860802 -0.04610204
000210 2c cc 07 3d 84 ff cb 3c 3c 2c 72 3c b5 14 25 bd
       0.033153698 0.024902113 0.014781054 -0.04030295
000220 4d 81 fc 3c a0 c8 49 bd 89 26 f2 3a 40 06 f9 bc
       0.030823374 -0.049263597 0.0018474619 -0.030398488
000230 09 02 ac 3c 4c fb 60 bc 7b bc a6 bd e1 72 0f bd
       0.020997064 -0.013731789 -0.081414185 -0.035021666
000240 1f 59 5b 3d b3 94 89 bc c3 f3 4e bc 6e 38 bb bb
       0.05355179 -0.016794538 -0.0126313595 -0.005713514
000250 23 09 ce 3c ef e0 cc 3c 6a 73 70 bd ce 24 1f bb
       0.025150841 0.0250096 -0.058703817 -0.0024283412
000260 dd 31 36 3b 62 8e 4e 3d 77 95 c1 bc 62 9d 48 3c
       0.0027800717 0.050428756 -0.02363084 0.012244554
000270 c0 97 c6 bc 05 9f 8d ba 21 b0 92 3c c2 7a e1 bc
       -0.024242282 -0.0010804838 0.01790625 -0.027524356
000280 cb 1b 63 bd a8 10 82 3d 10 66 60 bd 15 9f 54 3d
       -0.055446427 0.06350833 -0.054784834 0.051909525
000290 3f a9 55 bd 3c 3c 64 bc 5f 84 af 3a d9 27 25 bd
       -0.05216336 -0.013930377 0.001339089 -0.040321205
0002a0 21 77 cb bc fb 4a ee 3c ff e3 5e bd 92 18 6a bc
       -0.024837079 0.029088488 -0.054416653 -0.014288085
0002b0 27 ee 34 bd 4c 06 ce 3c b8 10 50 3a c3 cd eb bb
       -0.044172432 0.025149487 0.00079370616 -0.0071961596
0002c0 c2 19 bd bc 4f 3e 9c bd 3d f0 37 bc cf 68 2b bb
       -0.023083571 -0.07629072 -0.011226711 -0.0026155
0002d0 7a a8 99 bd 15 7c c1 3c ce d4 c6 bc cd 67 30 bd
       -0.075028375 0.023618737 -0.024271395 -0.043067742
0002e0 0d 27 77 3c 0f 2d 7f bd 5d 9e fe bc d7 97 4c b8
       0.015084994 -0.06229883 -0.031081373 -4.8778802e-05
0002f0 14 2d 9f 3c af d9 16 3c ca fd 23 3d c0 ec 9a 3c
       0.019430675 0.009207173 0.040036954 0.01891172
000300 0a 53 dc bb d4 ba cd bd 8e d5 88 3d 9c 0b d2 bd
       -0.006723766 -0.100454 0.06681357 -0.102561206
000310 28 ad 95 3b 6e db 3d 3d 12 49 3b 3b 15 5e b6 3b
       0.004567761 0.046351843 0.002857749 0.0055654147
000320 d3 c6 9e 3d 68 34 57 bd 15 68 2e 3d 58 18 e4 bc
       0.077527665 -0.052540213 0.04257973 -0.02784364
000330 fc 02 b7 3d 45 99 15 3c 7f ce c1 bd 43 09 ff bc
       0.08936116 0.009130781 -0.09463214 -0.031132346
000340 12 2a 78 3c 6d aa 31 3d cb db a0 3d 87 7b e1 3d
       0.015146749 0.04337542 0.07854422 0.11009889
000350 75 44 90 3d 3d 35 50 bd 96 c6 8a 39 99 88 14 bb
       0.07044307 -0.050832022 0.0002646937 -0.0022664426
000360 ef 50 96 bd 2f 8f 07 bc ad 1d 13 bd 2a 17 d3 3d
       -0.073396556 -0.008273884 -0.035916973 0.103071526
000370 12 a4 c3 3c 62 b1 96 bd 76 dd a5 3d 3b 25 d1 3c
       0.023881946 -0.07358052 0.08098881 0.025530448
000380 7d b5 94 3b 17 e3 4e bd 8c 9b ff b8 bf 9c ee bb
       0.0045382367 -0.05050954 -0.000121883204 -0.007281869
000390 8c 76 31 bc 4f d9 8b 3d a8 2d cc bc 2b fd d6 3c
       -0.010831486 0.06828558 -0.024924114 0.026243767
0003a0 b5 d5 6b 3d b9 e3 be bc 98 c6 5a 3d e3 0b 72 3d
       0.057576854 -0.023301946 0.05341205 0.059093367
0003b0 d0 b5 ac 3d e0 af 6e 3d 85 73 74 bd 69 3b ce 3d
       0.084331155 0.058273196 -0.05968048 0.10069925
0003c0 33 93 8e bd 46 28 e2 3d d9 48 0a 3d b5 7d 6b 3d
       -0.0696167 0.11042838 0.03376088 0.05749293
0003d0 41 78 a7 3c 69 e2 65 bd 0a b7 f8 3d 6d 8c 3f 3d
       0.020443084 -0.056124125 0.12144287 0.04676478
0003e0 9d 7d 25 bd 1a 1c 97 bc b7 71 18 3c bf e8 a4 3c
       -0.040402997 -0.018446017 0.0093044555 0.020130513
0003f0 9c 1b 80 bb 98 6f ff bc 2b 79 01 3d 63 a6 80 3c
       -0.0039095413 -0.031181142 0.031609695 0.01570434

model.encoder.layers.0.self_attn.out_proj.bias f4 [32]
000000 30 5b 8c bd d8 14 2b 3c 2b ae 59 bb 7c ed 0f bc
       -0.0685333 0.010441981 -0.0033215384 -0.008784648
000010 b2 e8 6b bc fb 1e 9f bc 64 22 fb ba 56 13 a0 bb
       -0.014398741 -0.019423952 -0.001916003 -0.0048851175
000020 72 4b 2c 3d 3a 3f 94 bc 5b 40 95 bd 14 8e 09 3d
       0.042064138 -0.018096555 -0.072876655 0.033582762
000030 2c 26 0c 3d 42 f5 0f ba 2f 4e 3f 3d 9b 0f aa 3c
       0.03421609 -0.00054915634 0.04670542 0.020759394
000040 4a cf b4 b8 24 86 56 3d c0 c4 50 bd 2d dd 75 3d
       -8.6216794e-05 0.05237402 -0.050968885 0.060025383
000050 78 9a 95 bc a1 ae a4 bc 57 46 1e bc 57 42 34 bc
       -0.018262133 -0.0201028 -0.009660325 -0.011002145
000060 29 ed 87 3d 12 7f 04 3d a6 67 44 bd 99 33 c1 bc
       0.066370316 0.032347746 -0.04795041 -0.023584174
000070 f3 4e 22 bd 81 ac 96 bd 8e 7c ea bc 93 d2 96 bc
       -0.039626073 -0.07357121 -0.028623845 -0.018410956

model.encoder.layers.0.self_attn_layer_norm.weight f4 [32]
000000 7d 50 49 3f 51 e5 4e 3f 9b a4 36 3f 67 07 50 3f
       0.7863844 0.8081866 0.7134492 0.81261295
000010 f5 e4 40 3f 89 4f 40 3f 18 f5 40 3f ea 2e 5c 3f
       0.7534936 0.7512136 0.75373983 0.86009085
000020 e5 23 33 3f c4 07 55 3f 58 4b 58 3f 4e 3e 5f 3f
       0.69976646 0.83214974 0.84489965 0.87204444
000030 f9 9e 4e 3f ae 06 5c 3f f8 86 54 3f 07 2c 47 3f
       0.80711323 0.8594769 0.83018446 0.77801555
000040 1c 8d 40 3f 49 f6 3f 3f f9 a4 4b 3f 11 34 34 3f
       0.75215316 0.74985176 0.79548603 0.7039195
000050 7d c1 48 3f 72 77 5d 3f a0 9f 58 3f 5d 12 5c 3f
       0.7842024 0.86510384 0.8461857 0.8596552
000060 fd 52 58 3f e2 01 60 3f de 48 64 3f 4a ad 5f 3f
       0.8450163 0.8750287 0.89173687 0.87373793
000070 09 7d 63 3f 88 f1 4c 3f 5c b2 57 3f 7b 42 4b 3f
       0.88862664 0.8005605 0.8425653 0.79398316

model.encoder.layers.0.self_attn_layer_norm.bias f4 [32]
000000 01 1c 1f be 90 e7 8e bd 16 62 8b 3d 05 34 33 3d
       -0.15538026 -0.06977761 0.06805818 0.04375078
000010 54 f6 3f bd 93 a3 26 bd 5f 7b b8 bd 13 f7 db 3c
       -0.046865776 -0.04068334 -0.09007906 0.026851213
000020 b5 4b dd bc c1 39 db 3d 43 d9 24 3d 4f af 0d 3e
       -0.027013639 0.10704375 0.04024626 0.13836406
000030 f2 53 99 3d 54 0f de 3b 31 da 80 bc 2c 01 1e 3d
       0.074867144 0.0067767296 -0.015729042 0.038575336
000040 01 f8 27 3d 5d 1b 7d 3d 86 7d b2 bc ef d2 1b bc
       0.041008 0.061793674 -0.02178837 -0.00951074
000050 24 ef 75 bd bb ce 20 3d 9a 18 45 3d 7a 12 23 3d
       -0.060042515 0.039259654 0.048119165 0.039812542
000060 10 f7 11 3d cb 26 4d 3d 21 f3 20 be 44 e7 34 bd
       0.035636008 0.050085824 -0.15717746 -0.044165865
000070 5f b6 eb bd d5 43 4b bd 7d bc af bd 6c 61 ba 3d
       -0.11509394 -0.049625237 -0.08580873 0.09100613
