data/Checkpoints/Model_v1_Iter_5/Model_v1_Iter_5_epoch_44_tf.pt (torch, 406571 bytes, 200 tensors)

model.encoder.value_embedding.value_projection.weight f4 [32, 31]
0.023283953 -0.0035184922 0.020123769 0.04560548 0.0005164718 -0.07985878 -0.013412258 -0.009676304
-1.45948e-40 3.87355e-40 -4.68551e-40 2.25965e-40 0.049754046 0.05127371 -0.0008158105 -0.011105564
0.055052176 0.014480305 -0.0058672186 0.09317845 -0.07570413 -0.008657292 0.038486045 -0.016847868
-0.059917808 -0.026686642 0.0677002 0.022584083 -0.031846702 0.16031207 -0.004049447 -0.04236463
0.00030087188 -0.003415998 0.05678858 0.0042123077 -0.06281049 -0.0008715014 0.0119068 -4.23243e-40
-4.71283e-40 -1.46615e-40 1.72126e-40 0.06135393 -0.06620748 -0.039893083 -0.020061864 0.006440003
-0.00804887 0.0043040607 0.2486373 -0.00689861 0.08822633 0.0161846 0.029707737 0.01268128
-0.080271035 0.06165828 0.009193731 -0.053255852 0.13090391 -0.005235105 0.047534425 0.046567034
-0.04498708 0.08906709 -0.024766099 -0.075491056 -0.007626364 -0.0042170836 2.5317e-40 9.5099e-41
3.70156e-40 -2.21125e-40 0.07417364 0.02245403 -0.107649975 -0.06938672 -0.0015262704 -0.0034597279
0.0028180361 -0.028287472 0.018018663 -0.0203237 -0.025852496 0.015077849 0.015137207 -0.044756725
0.0029938149 0.01650674 0.055936698 -0.062140334 0.0018722363 0.024973918 0.036228683 0.06880768
-0.0024994754 -0.019591536 -0.037167534 0.00041382058 -0.010082369 1.83989e-40 2.18308e-40 -1.9485e-41
-5.11945e-40 -0.036103524 -0.08471075 0.13124596 0.094510935 0.018918755 0.03827436 -0.007844089
0.10290596 -0.004662177 0.03107796 0.07938119 0.02010075 -0.03510349 0.009560715 -0.029097488
-0.0038059475 -0.051037338 0.008359752 0.03428106 0.0034265781 -0.072795324 0.13175012 0.111380845
-0.0100733545 -0.1371509 0.013141914 0.0007078806 -2.77728e-40 5.97837e-40 -4.77086e-40 -4.34771e-40
0.08407494 -0.042074367 0.07599853 0.07828711 0.014628864 0.009513294 -0.003955995 0.15857875
-0.011274407 0.053697776 0.0008634016 0.05663598 -0.016174557 0.0038308625 -0.008260142 0.013441752
-0.07016447 0.05119304 0.0226598 -0.008328332 0.016510312 -0.07376773 -0.10227025 -0.0017070392
0.09652939 0.014270745 -0.02251591 5.56576e-40 -7.3113e-41 6.06231e-40 2.21901e-40 -0.05077388
-0.054233667 -3.9885745e-06 -0.07176038 0.0042431527 0.011199516 0.00062908005 0.07888752 -0.013168212
0.014761011 0.00042913188 0.0037224456 -0.010626339 -0.056285933 0.0076940903 0.015684107 0.04823436
0.022255968 0.003097682 0.051498353 -0.0074512465 0.13636616 0.14594552 -0.010967604 -0.088594384
0.000529572 0.029133506 -2.05079e-40 5.0254e-40 -3.75506e-40 1.96964e-40 -0.02087355 -0.085964754
0.08102024 0.07707222 -0.02047956 -0.07088562 0.008648717 -0.09602978 -0.005925184 -0.009131544
-0.005009304 0.00475591 -0.0027623563 0.037175354 0.00034545286 -0.030937882 -0.02174327 -0.056724288
-0.0050074873 0.03462776 0.025607092 0.020916723 0.05291393 0.008394565 -0.16318913 0.00026676457
0.008843118 9.0866e-41 -7.4256e-41 1.35433e-40 7.1898e-41 0.03819098 -0.081792176 -0.06261882
-0.006460594 -0.02417 -0.047521606 0.009387125 0.007453917 0.005602689 0.010642872 0.019637791
-0.021525891 0.004865235 -0.07808452 -0.0135727525 0.025464268 -0.008405914 0.014469137 -0.01194698
0.009219144 0.0152144935 -0.16229238 -0.14242579 0.0031653498 0.1513534 -0.01750356 0.011624528
00000000: fdbd be3c 8196 66bb 9ada a43c d0cc 3a3d
00000010: d663 073a 008d a3bd 16bf 5bbc 5c89 1ebc
00000020: d896 0180 ca37 0400 211a 0580 e675 0200
00000030: e6ca 4b3d 6204 523d 1edc 55ba 1df4 35bc
00000040: 647e 613d cd3e 6d3c cc41 c0bb 58d4 be3d
00000050: c40a 9bbd 51d7 0dbc 8ba3 1d3d 8a04 8abc
00000060: 606c 75bd f29d dabc 67a6 8a3d 4102 b93c
00000070: b071 02bd d928 243e 39b1 84bb 8986 2dbd
00000080: 57be 9d39 f0de 5fbb 249b 683d 6607 8a3b
00000090: c9a2 80bd 7875 64ba bd14 433c d49b 0480
000000a0: bf21 0580 b498 0180 d1df 0100 424e 7b3d
000000b0: ca97 87bd ee66 23bd c758 a4bc a906 d33b
000000c0: 68df 03bc 1409 8d3b c79a 7e3e bc0d e2bb
000000d0: 02b0 b43d 9195 843c a45d f33c 25c5 4f3c
000000e0: 2465 a4bd 658d 7c3d 4da1 163c cf22 5abd
000000f0: ad0b 063e 3e8b abbb 75b3 423d 13bd 3e3d
00000100: 5f44 38bd ce68 b63d 46e2 cabc 0e9b 9abd
00000110: 94e6 f9bb 762f 8abb bcc1 0200 1909 0100
00000120: d807 0400 6868 0280 59e8 973d 84f1 b73c
00000130: 9777 dcbd a01a 8ebd 230d c8ba 9abc 62bb
00000140: cdae 383b 21bb e7bc e09b 933c e37d a6bc
00000150: 9dc8 d3bc 1509 773c 0c02 783c d452 37bd
00000160: e133 443b 2539 873c e11d 653d dd86 7ebd
00000170: d365 f53a 1a96 cc3c 8764 143d 0aeb 8c3d
00000180: 3dce 23bb 6e7e a0bc fc3c 18bd 0ff6 d839
00000190: 8530 25bc e300 0200 8e60 0200 5136 0080
000001a0: 1893 0580 4ae1 13bd d47c adbd 5765 063e
000001b0: f38e c13d 81fb 9a3c 93c5 1c3d 7e84 00bc
000001c0: 5cc0 d23d 2dc5 98bb 3597 fe3c 9b92 a23d
000001d0: 54aa a43c adc8 0fbd 8ca4 1c3c db5d eebc
000001e0: 346d 79bb 870c 51bd 57f7 083c 4c6a 0c3d
000001f0: 7190 603b b715 95bd 81e9 063e a41b e43d
00000200: b60a 25bc 4971 0cbe 2f51 573c 1091 393a
00000210: 3106 0380 8782 0600 ec31 0580 f7bb 0480
00000220: 7b2f ac3d 2c56 2cbd 1ea5 9b3d fe54 a03d
00000230: e7ad 6f3c a6dd 1b3c 4ba1 81bb 7862 223e
00000240: 4ab8 38bc 33f2 5b3d e755 623a 21fb 673d
00000250: 8180 84bc 350f 7b3b 8c55 07bc cb3a 5c3c
00000260: 64b2 8fbd cbaf 513d 0ba1 b93c 8e73 08bc
00000270: a240 873c 8913 97bd 1173 d1bd bbbe dfba
00000280: 33b1 c53d d8cf 693c 4973 b8bc 820f 0600
00000290: cfcb 0080 ed99 0600 926a 0200 46f8 4fbd
000002a0: 1f24 5ebd 98d5 85b6 1bf7 92bd 250a 8b3b
000002b0: 2d7e 373c d9e8 243a c88f a13d 7cbf 57bc
000002c0: 2bd8 713c 1bfd e039 46f4 733b 191a 2ebc
000002d0: 148c 66bd b51e fc3b f57b 803c 6491 453d
000002e0: 2652 b63c 7b02 4b3b f0ef 523d 9629 f4bb
000002f0: 92a3 0b3e be72 153e 77b1 33bc f970 b5bd
00000300: fad2 0a3a 64a9 ee3c ad3b 0280 e178 0500
00000310: c216 0480 0e25 0200 02ff aabc 4a0e b0bd
00000320: f1ed a53d 0ad8 9d3d c0c4 a7bc 7b2c 91bd
00000330: 59b3 0d3c 43ab c4bd 0c28 c2bb 799c 15bc
00000340: 1625 a4bb 77d7 9b3b a608 35bb 2f45 183d
00000350: e61d b539 7171 fdbc f11e b2bc ba57 68bd
00000360: d915 a4bb d7d5 0d3d f7c5 d13c 8c59 ab3c
00000370: 47bc 583d 5c89 093c 0d1b 27be 89dc 8b39
00000380: bae2 103c 4cfd 0000 ffce 0080 8879 0100
00000390: 6cc8 0000 256e 1c3d a882 a7bd 4c3e 80bd
000003a0: 64b3 d3bb 2a00 c6bc 04a6 42bd 75cc 193c
000003b0: fd3f f43b c396 b73b 715f 2e3c 6fdf a03c
000003c0: 1157 b0bc 8d6c 9f3b c7ea 9fbd 4060 5ebc
000003d0: 719a d03c f5b8 09bc f60f 6d3c 44bd 43bc
000003e0: e40b 173c 3646 793c f92f 26be 11d8 11be
000003f0: c271 4f3b 63fc 1a3e a063 8fbc ce74 3e3c

model.encoder.embed_positions.weight f4 [29, 32]
0.0 0.0 0.0 0.0 0.0 0.0 0.0 0.0
0.0 0.0 0.0 0.0 0.0 0.0 0.0 0.0
1.0 1.0 1.0 1.0 1.0 1.0 1.0 1.0
1.0 1.0 1.0 1.0 1.0 1.0 1.0 1.0
0.84147096 0.53316844 0.3109836 0.17689219 0.099833414 0.056204498 0.031617507 0.017781857
0.009999833 0.0056233834 0.0031622723 0.0017782785 0.0009999998 0.0005623413 0.00031622776 0.00017782794
0.5403023 0.84600914 0.95041525 0.9842302 0.9950042 0.9984193 0.99950004 0.99984187
0.99995 0.9999842 0.999995 0.9999984 0.9999995 0.9999998 0.99999994 1.0
0.9092974 0.9021307 0.5911271 0.34820527 0.19866933 0.112231314 0.063203394 0.03555809
0.019998666 0.011246589 0.0063245133 0.0035565514 0.0019999987 0.0011246824 0.0006324555 0.00035565588
-0.41614684 0.43146282 0.8065784 0.9374183 0.9800666 0.9936821 0.9980007 0.9993676
0.9998 0.99993676 0.99998 0.9999937 0.999998 0.99999934 0.9999998 0.99999994
0.14112 0.9932532 0.8126489 0.50853616 0.29552022 0.1679033 0.09472609 0.05332308
0.029995501 0.016869439 0.009486691 0.005334813 0.0029999956 0.0016870232 0.0009486832 0.0005334838
-0.9899925 -0.11596614 0.5827536 0.86104065 0.9553365 0.9858035 0.99550337 0.9985773
0.99955004 0.9998577 0.999955 0.99998575 0.9999955 0.99999857 0.9999995 0.9999999
-0.7568025 0.77847177 0.95358074 0.652828 0.38941833 0.22304448 0.12615407 0.07107121
0.039989334 0.022491757 0.012648773 0.0071130577 0.0039999895 0.0022493633 0.0012649107 0.0007113117
-0.6536436 -0.62767965 0.30113748 0.7575062 0.921061 0.9748083 0.99201065 0.9974713
0.9992001 0.99974704 0.99992 0.9999747 0.999992 0.9999975 0.9999992 0.99999976
-0.9589243 0.3239352 0.99994653 0.77652997 0.47942555 0.27748054 0.15745589 0.08879686
0.04997917 0.028113361 0.01581073 0.00889128 0.0049999794 0.002811703 0.0015811381 0.0008891396
0.2836622 -0.94607925 -0.010342319 0.6300803 0.87758255 0.96073127 0.987526 0.99604976
0.99875027 0.99960476 0.999875 0.9999605 0.9999875 0.99999607 0.99999875 0.9999996
-0.2794155 -0.23036748 0.94714814 0.8757406 0.5646425 0.33103934 0.18860029 0.106494434
0.059964005 0.03373408 0.018972527 0.010669474 0.005999964 0.0033740415 0.0018973654 0.0010669675
0.96017027 -0.9731037 -0.32079646 0.482782 0.8253356 0.943617 0.98205394 0.9943133
0.99820054 0.99943084 0.99982 0.9999431 0.999982 0.99999434 0.9999982 0.9999994
0.6569866 -0.71372116 0.80042166 0.9473307 0.64421767 0.38355157 0.2195561 0.12415834
0.06994285 0.03935373 0.022134136 0.012447635 0.006999943 0.003936379 0.0022135926 0.0012447953
0.75390226 -0.7004299 -0.5994374 0.32025698 0.7648422 0.92351943 0.9755999 0.9922624
0.997551 0.9992253 0.999755 0.9999225 0.9999755 0.99999225 0.99999756 0.9999992
00000000: 0000 0000 0000 0000 0000 0000 0000 0000
00000010: 0000 0000 0000 0000 0000 0000 0000 0000
00000020: 0000 0000 0000 0000 0000 0000 0000 0000
00000030: 0000 0000 0000 0000 0000 0000 0000 0000
00000040: 0000 803f 0000 803f 0000 803f 0000 803f
00000050: 0000 803f 0000 803f 0000 803f 0000 803f
00000060: 0000 803f 0000 803f 0000 803f 0000 803f
00000070: 0000 803f 0000 803f 0000 803f 0000 803f
00000080: a46a 573f ba7d 083f 3e39 9f3e 3a23 353e
00000090: 7675 cc3d b036 663d 5c81 013d 42ab 913c
000000a0: 57d6 233c 5c44 b83b 203e 4f3b 2015 e93a
000000b0: 6d12 833a 166a 133a 5fcb a539 5377 3a39
000000c0: 4051 0a3f 0e94 583f 6a4e 733f 83f6 7b3f
000000d0: 98b8 7e3f 6898 7f3f 3cdf 7f3f a3f5 7f3f
000000e0: b9fc 7f3f f7fe 7f3f acff 7f3f e5ff 7f3f
000000f0: f8ff 7f3f fdff 7f3f ffff 7f3f 0000 803f
00000100: b7c7 683f 0af2 663f 1b54 173f f647 b23e
00000110: f96f 4b3e 88d9 e53d c870 813d 5ca5 113d
00000120: 3ed4 a33c 9d43 383c dd3d cf3b 0815 693b
00000130: 6912 033b 146a 933a 5fcb 253a 5377 ba39
00000140: 3311 d5be b2e8 dc3e ec7b 4e3f a5fa 6f3f
00000150: a5e5 7a3f f361 7e3f f97c 7f3f 8ed6 7f3f
00000160: e5f2 7f3f dbfb 7f3f b0fe 7f3f 96ff 7f3f
00000170: deff 7f3f f5ff 7f3f fdff 7f3f ffff 7f3f
00000180: c381 103e d745 7e3f c209 503f 6d2f 023f
00000190: 6d4e 973e d8ee 2b3e c1ff c13d 4d69 5a3d
000001a0: 20b9 f53c c731 8a3c 116e 1b3c a8cf ae3b
000001b0: 939b 443b 1b1f dd3a 0db1 783a 7ed9 0b3a
000001c0: 2670 7dbf a87f edbd 572f 153f 296d 5c3f
000001d0: ef90 743f 9e5d 7c3f 4fd9 7e3f c3a2 7f3f
000001e0: 83e2 7f3f adf6 7f3f 0dfd 7f3f 11ff 7f3f
000001f0: b5ff 7f3f e8ff 7f3f f8ff 7f3f feff 7f3f
00000200: cfbd 41bf ed49 473f de1d 743f bc1f 273f
00000210: d761 c73e c665 643e 882e 013e c88d 913d
00000220: dbcb 233d a240 b83c cd3c 4f3c a714 e93b
00000230: 5812 833b 0e6a 133b 5ccb a53a 5277 3a3a
00000240: 3055 27bf 9daf 20bf b12e 9a3e edeb 413f
00000250: a7ca 6b3f 098d 793f 69f4 7d3f 475a 7f3f
00000260: 94cb 7f3f 6cef 7f3f c2fa 7f3f 58fe 7f3f
00000270: 7aff 7f3f d6ff 7f3f f3ff 7f3f fcff 7f3f
00000280: 107c 75bf d6da a53e 7ffc 7f3f abca 463f
00000290: 4477 f53e ee11 8e3e 1e3c 213e 21db b53d
000002a0: f5b6 4c3d fe4d e63c 8185 813c bbac 113c
000002b0: ded6 a33b 8c44 383b 313e cf3a 2615 693a
000002c0: 2c3c 913e 4032 72bf d472 29bc f14c 213f
000002d0: 40a9 603f 7cf2 753f 81ce 7c3f 1efd 7e3f
000002e0: 19ae 7f3f 19e6 7f3f cff7 7f3f 69fd 7f3f
000002f0: 2eff 7f3f beff 7f3f ebff 7f3f f9ff 7f3f
00000300: 8c0f 8fbe 74e5 6bbe 4d78 723f 8930 603f
00000310: 698c 103f fd7d a93e 6f20 413e c119 da3d
00000320: d19c 753d bf2c 0a3d 466c 9b3c 04cf 2e3c
00000330: 599b c43b 061f 5d3b 05b1 f83a 7dd9 8b3a
00000340: b8cd 753f 531d 79bf 6f3f a4be 342f f73e
00000350: 3249 533f e290 713f e367 7b3f 518b 7e3f
00000360: 128a 7f3f b3da 7f3f 34f4 7f3f 45fc 7f3f
00000370: d2fe 7f3f a1ff 7f3f e2ff 7f3f f6ff 7f3f
00000380: 4630 283f 6eb6 36bf 6fe8 4c3f 4484 723f
00000390: 73eb 243f df60 c43e 50d3 603e ba46 fe3d
000003a0: 323e 8f3d 6031 213d a652 b53c 2af1 4b3c
000003b0: c75f e53b befc 803b ec11 113b 6628 a33a
000003c0: bdff 403f 604f 33bf bb74 19bf b9f8 a33e
000003d0: b3cc 433f c56b 6c3f eac0 793f e904 7e3f
000003e0: 815f 7f3f 3bcd 7f3f f2ef 7f3f ecfa 7f3f
000003f0: 65fe 7f3f 7eff 7f3f d7ff 7f3f f3ff 7f3f

model.encoder.layers.0.self_attn.k_proj.weight f4 [32, 32]
-0.0432478 -0.0030009996 0.017396938 -0.007992276 -0.06804374 -0.050092034 -0.017324507 -0.1680359
-0.00092196144 0.000119169046 0.008800361 -0.023256537 0.09898788 0.058200005 0.00060046866 -0.07939328
0.07365474 -0.00824748 -0.011694024 0.0634856 -0.0006359312 -0.006221603 -0.06541891 -0.034372956
0.01946031 -0.18692918 -0.08708709 -0.047266364 -0.028232494 -0.050033394 0.076106004 0.019286232
0.021185491 0.0035258215 -0.0035632106 0.017989857 0.056655236 0.027176907 0.011335368 0.1837475
-0.03872163 -0.006969015 0.0030770395 0.039663002 -0.05134727 -0.021799274 -0.009653446 0.07350717
-0.07980624 -0.018853175 0.010148352 -0.07641934 -0.016561355 0.004773701 0.06882563 0.031760357
0.04216008 0.18846743 0.050303914 0.011297429 -0.0024409965 0.043467745 -0.045209292 -0.02290813
0.02946809 0.015528858 -0.011744274 -0.038699254 0.040925723 -0.012316674 0.009845297 0.1677656
-0.07602992 -0.038713932 0.014234132 0.016207494 -0.046334274 0.014031062 -0.055981707 0.016012724
-0.07406718 -0.04260936 -0.0013128223 0.0047461526 0.013144972 0.059313253 0.0838073 0.00918059
0.034232132 0.14284715 -0.014463513 -0.037742157 -0.016727623 0.034775406 0.0024732177 -0.024560945
0.04025647 0.037100706 -0.0023534175 0.0139192715 0.07440877 -0.0034975621 0.024455495 0.11809406
-0.14354244 -0.042725172 0.014863071 0.028540522 -0.005357703 0.03382686 -0.027754856 -0.017717874
-0.07181416 -0.08524807 0.006585631 -0.054729007 -0.008455724 0.07526675 0.099175476 0.01298544
0.076450944 0.16101825 -0.0050859977 -0.08828414 -0.087138005 -0.00021285992 -0.014214109 0.014764979
-0.031318195 0.031003404 0.022310223 -0.0014491308 -0.077822775 -0.04057487 -0.024683226 -0.18269461
0.013214132 0.014787779 0.009512833 -0.024181204 0.06537554 0.034023896 0.0061459253 -0.07436593
0.044225756 -0.0033116972 0.018152665 0.048956737 0.020277202 -0.013443516 -0.06048442 -0.011800449
-0.03518193 -0.16782898 -0.05603216 -0.016177118 -0.018972876 -0.02722397 0.046919625 0.026151348
-0.04937219 0.023641564 0.025563844 0.025087921 -0.019807873 -0.034847204 0.0023837455 -0.17487256
0.027078113 -0.017212007 0.008064614 0.008592015 0.15113786 0.07990949 0.024340909 -0.069273084
0.036776688 -0.03643821 -0.048577152 0.058663357 0.019551422 0.03427094 -0.045502175 -0.010409893
0.010651341 -0.109326094 -0.085572794 -0.029350773 -0.031854838 -0.053142656 0.060201373 0.07553933
-0.028494358 -0.03303436 0.0031774852 -0.006132644 -0.03922975 -0.019734662 -0.024705853 -0.1746725
0.038298238 0.009707 -0.011321671 -0.022559097 0.09001079 0.03399468 0.023339588 -0.076040134
0.081619106 0.029143821 -0.0093076425 0.04225825 -0.011561247 -0.0059124692 -0.0706215 -0.011092068
-0.021434939 -0.15652491 -0.05328277 0.011491167 -0.03487518 -0.038486764 0.066686645 0.039186005
-0.051681153 -0.013190945 0.01478691 -0.014995457 -0.07187293 -0.030043632 -0.035164405 -0.16014916
0.07470691 0.043909322 -0.004883802 -0.043136828 0.0034014282 -0.029339204 0.014181151 -0.009070932
0.09213436 0.06956514 -0.0023242757 0.070778966 0.008282501 -0.035718005 -0.101675235 -0.012943832
-0.082775205 -0.1965076 0.016265884 0.058276173 0.061216712 -0.017061435 0.032657158 -0.014495711
00000000: 9b24 31bd 6bac 44bb 0684 8e3c 09f2 02bc
00000010: 845a 8bbd 4e2d 4dbd 20ec 8dbc 9a11 2cbe
00000020: c9af 71ba 65ea f938 642f 103c 7e84 bebc
00000030: 28ba ca3d 2163 6e3d c568 1d3a f298 a2bd
00000040: 4cd8 963d 7020 07bc 4b98 3fbc bd04 823d
00000050: 9fb4 26ba 97de cbbb 59fa 85bd a8ca 0cbd
00000060: 3a6b 9f3c 5d6a 3fbe b75a b2bd 609a 41bd
00000070: d547 e7bc d1ef 4cbd 77dd 9b3d 29fe 9d3c
00000080: 328d ad3c 7811 673b c184 69bb 775f 933c
00000090: 520f 683d 1ba2 de3c fbb7 393c 4e28 3c3e
000000a0: 929a 1ebd 565c e4bb 28a8 493b ac75 223d
000000b0: 8451 52bd 6494 b2bc 7d29 1ebc ed8a 963d
000000c0: 7471 a3bd f971 9abc 4645 263c be81 9cbd
000000d0: aeab 87bc b56c 9c3b 74f4 8c3d 2617 023d
000000e0: 0cb0 2c3d 9bfd 403e 7a0b 4e3d da18 393c
000000f0: 20f9 1fbb 3c0b 323d 612d 39bd d5a9 bbbc
00000100: 1067 f13c c06c 7e3c 0e6b 40bc 1c83 1ebd
00000110: bba1 273d e0cb 49bc 2b4e 213c bfca 2b3e
00000120: 93b5 9bbd 8092 1ebd 4736 693c 94c5 843c
00000130: 02c9 3dbd 8ae2 653c 134d 65bd 1e2d 833c
00000140: 89b0 97bd 2787 2ebd 0213 acba 9d85 9b3b
00000150: 025e 573c 74f2 723d 29a3 ab3d 2f6a 163c
00000160: fe36 0c3d 8646 123e 5ff8 6cbc 8597 1abd
00000170: 5e08 89bc a870 0e3d b515 223b 0934 c9bc
00000180: f8e3 243d e9f6 173d cb3b 1abb a80d 643c
00000190: a063 983d 5b37 65bb e456 c83c 4cdb f13d
000001a0: cafc 12be 9700 2fbd 3d84 733c d0cd e93c
000001b0: ac8f afbb 098e 0a3d 275e e3bc 1325 91bc
000001c0: 4d13 93bd 8a96 aebd 47cc d73b 862b 60bd
000001d0: e189 0abc 7425 9a3d 831c cb3d e2c0 543c
000001e0: 5092 9c3d f8e1 243e 71a8 a6bb 51ce b4bd
000001f0: 6975 b2bd 2633 5fb9 4be2 68bc cfe8 713c
00000200: 8247 00bd dafa fd3c eec3 b63c c3f0 bdba
00000210: 8c61 9fbd d631 26bd 7a34 cabc 4c14 3bbe
00000220: 1680 583c 7148 723c b7db 1b3c a917 c6bc
00000230: 9ce3 853d a45c 0b3d c263 c93b 2a4d 98bd
00000240: 1126 353d 0f09 59bb e6b4 943c dc86 483d
00000250: 601c a63c 3142 5cbc 83be 77bd ac56 41bc
00000260: ed1a 10bd 5cdb 2bbe fa81 65bd e085 84bc
00000270: 016d 9bbc ce04 dfbc cb2e 403d 5a3b d63c
00000280: 7e3a 4abd f4ab c13c 446b d13c 2f85 cd3c
00000290: 1f44 a2bc f1bb 0ebd 9d38 1c3b cb11 33be
000002a0: ebd2 dd3c 3200 8dbc 7121 043c 86c5 0c3c
000002b0: e2c3 1a3e 96a7 a33d 9666 c73c 0cdf 8dbd
000002c0: 27a3 163d 3c40 15bd d6f8 46bd fd48 703d
000002d0: 4e2a a03c af5f 0c3d 7d60 3abd 418e 2abc
000002e0: f682 2e3c 5ce6 dfbd ca40 afbd 0871 f0bc
000002f0: 387a 02bd 1dac 59bd b795 763d 5db4 9a3d
00000300: 006d e9bc 094f 07bd 5b3d 503b 59f4 c8bb
00000310: 60af 20bd 96aa a1bc ee63 cabc 59dd 32be
00000320: 9dde 1c3d 1c0a 1f3c 887e 39bc dbcd b8bc
00000330: 9457 b83d 013e 0b3d aa32 bf3c eeba 9bbd
00000340: eb27 a73d 06bf ee3c 157f 18bc fd16 2d3d
00000350: 626b 3dbc 63bd c1bb 01a2 90bd 81bb 35bc
00000360: 5398 afbc 1148 20be 093f 5abd 7345 3c3c
00000370: 47d9 0ebd 4ca4 1dbd 0293 883d 8181 203d
00000380: 9eaf 53bd d51e 58bc cc44 723c 81af 75bc
00000390: 1d32 93bd 101e f6bc 8d08 10bd 24fe 23be
000003a0: f0ff 983d 43da 333d 4d08 a0bb 3eb0 30bd
000003b0: 7fea 5e3b c558 f0bc 0f58 683c 3f9e 14bc
000003c0: f0b0 bc3d 2b78 8e3d e052 18bb 90f4 903d
000003d0: 54b3 073c 0b4d 12bd 1b3b d0bd 5e12 54bc
000003e0: 0c86 a9bd 4a39 49be 0840 853c ffb2 6e3d
000003f0: 60be 7a3d 6cc4 8bbc 83c3 053d 6b7f 6dbc

model.encoder.layers.0.self_attn.k_proj.bias f4 [32]
-5.4405042e-08 -9.271145e-08 -9.414312e-08 4.053372e-08 1.8641435e-07 7.410516e-08 -2.6958558e-09 -3.6615802e-07
-2.8057343e-08 -7.709632e-08 -4.341895e-07 -1.4657122e-07 -3.4894455e-08 1.4882582e-08 1.8004731e-07 -1.8683795e-07
3.708948e-07 3.4499195e-08 -2.4729013e-07 -4.886543e-07 -2.4254715e-07 2.786961e-07 1.4605565e-07 5.677742e-07
3.8762718e-07 5.9792643e-07 1.0590432e-08 8.919967e-08 1.0066991e-06 -6.838932e-08 1.0233407e-07 2.4724582e-07
00000000: faaa 69b3 a918 c7b3 ba2b cab3 4c17 2e33
00000010: 3029 4834 be23 9f33 ff41 39b1 6094 c4b4
00000020: c002 f1b2 2690 a5b3 8d1a e9b4 3161 1db4
00000030: dcde 15b3 4aae 7f32 0753 4134 a09d 48b4
00000040: 651f c734 442c 1433 4cc3 84b4 112c 03b5
00000050: 6d37 82b4 b39f 9534 79d3 1c34 2569 1835
00000060: 131b d034 3181 2035 36f1 3532 0a8e bf33
00000070: eb1d 8735 6ddd 92b3 c0c2 db33 35bd 8434

model.encoder.layers.0.self_attn.v_proj.weight f4 [32, 32]
-0.004512815 0.04418177 0.06865631 -0.01825668 -0.027902963 0.021142835 -0.077935845 0.06780323
0.085956834 0.024407977 -0.025873465 -0.013481417 -0.080874495 -0.00844263 -0.011911927 0.021967223
-0.030125951 -0.023165379 0.08938158 0.011163518 -0.05975437 -0.043187387 -0.029806297 0.023869747
0.0061579095 -0.065895885 -0.07837976 0.056955136 0.0131161325 -0.075925745 -0.048125457 -0.018978644
-0.033474438 0.0073650205 -0.124003075 0.00055737735 0.03729114 -0.027221818 0.037690684 -0.08038962
0.07025207 -0.0109610325 -0.05095499 -0.14975381 0.011850979 -0.07919511 -0.0057554245 0.017395094
0.034373432 -0.029521182 -0.091313735 -0.04452854 0.018058805 -0.023855539 0.0019492934 0.011378954
0.03721476 0.07493648 0.0008090648 0.008189666 0.024100946 0.045973357 0.021568013 0.10913992
0.005495074 0.050512005 0.04217045 -0.014472722 -0.024886588 -0.015831875 0.00891138 0.044672497
0.0608163 0.035797656 0.03009673 0.0009887535 -0.049781453 0.011556164 -0.027497705 0.01554179
-0.039354492 -0.07327651 0.1441484 -0.06738581 -0.02988748 -0.06956582 -0.012778725 0.010089477
-0.020660497 -0.0685726 -0.07153131 0.018207435 0.0024620774 -0.07474915 -0.039905895 0.032122504
0.035314973 -0.046475973 -0.10250355 0.013373114 0.04766958 -0.01262549 0.08169651 -0.070887856
0.008262144 -0.045876067 -0.033493936 0.03857205 0.098131604 -0.044307325 0.056739822 -0.050188646
0.029534573 0.050432544 -0.13529699 0.019871043 0.041701607 0.022925543 0.04360191 0.015678905
0.017244985 0.07485557 0.03783427 -0.03969821 -0.04175399 0.047184125 0.011744144 0.074907064
-0.052442595 0.022194365 0.0166921 0.012739357 -0.041363362 -0.030263146 -0.036408316 -0.0076810117
0.03834533 0.10083338 0.009484645 0.061478883 -0.0012988184 0.021784272 0.004621499 0.009038013
0.026414316 0.008746276 0.1532299 0.07162926 -0.045043044 -0.025305783 -0.016940093 -0.008672373
-0.035740204 -0.10246842 5.6171164e-05 -0.008907147 -0.011805803 -0.023216318 -0.010235284 -0.040322665
0.027867673 0.013799118 0.063695334 0.020477457 -0.0027928192 0.070521705 -0.025525171 0.06402568
-0.047586277 -0.025789564 0.010110354 0.096935615 0.07116692 0.03350796 -0.004126929 -0.00298711
-0.0048558307 0.018560598 0.07000563 0.053172097 -0.018446384 0.026194846 0.018884145 0.0045299344
0.023782887 -0.043670297 0.023241892 -0.049278293 -0.0055950866 -0.080303326 0.025423488 -0.0035913694
0.009208173 0.0011527914 -0.054266494 0.017947637 0.09565481 -0.053465046 0.05290574 -0.03645352
-0.056871504 -0.035326134 -0.026296593 0.08679423 0.070185006 -0.0015331596 0.07710145 -0.010040403
0.025829336 0.0021231144 -0.067762084 0.048238248 0.013478815 0.036069635 0.031970605 -0.0050122323
-0.027770694 0.019200325 0.039858453 -0.011374334 -0.06655629 0.030618189 0.016704688 0.019874522
-0.00279279 0.008935757 0.01816471 -0.03796233 -0.0395714 0.020289155 -0.008008419 0.08195199
0.094368845 0.015120608 -0.005587004 -0.021393172 0.021653462 -0.058317814 -0.00601198 0.011161245
-0.01013632 -0.021425184 0.06929658 0.0021589461 -0.044402387 -0.07230101 -0.050707556 0.046748724
-0.010056627 -0.08645102 -0.033288747 -0.012327571 0.018658863 -0.10326067 -0.062239844 0.0060439995
00000000: 3ce0 93bb f2f7 343d ae9b 8c3d 088f 95bc
00000010: c194 e4bc bd33 ad3c d49c 9fbd 6bdc 8a3d
00000020: 230a b03d 3df3 c73c 97f4 d3bc 29e1 5cbc
00000030: 87a1 a5bd f552 0abc 3e2a 43bc 9bf4 b33c
00000040: b3ca f6bc 52c5 bdbc b10d b73d 30e7 363c
00000050: 00c1 74bd 42e5 30bd 562c f4bc 7d8a c33c
00000060: 4ac8 c93b 6cf4 86bd 9185 a0bd ca49 693d
00000070: 0ce5 563c f57e 9bbd 331f 45bd 1a79 9bbc
00000080: 7e1c 09bd 4556 f13b 53f5 fdbd f61c 123a
00000090: 98be 183d 4a00 dfbc 8c61 1a3d 50a3 a4bd
000000a0: 51e0 8f3d e795 33bc 2eb6 50bd 1059 19be
000000b0: 9c2a 423c 0c31 a2bd 0098 bcbb 2880 8e3c
000000c0: 28cb 0c3d 68d6 f1bc b202 bbbd 8f63 36bd
000000d0: 0ff0 933c b16c c3bc 6f7f ff3a cb6e 3a3c
000000e0: 816e 183d 4c78 993d 6b17 543a f32d 063c
000000f0: 596f c53c 8f4e 3c3d 67af b03c c084 df3d
00000100: 0610 b43b ade5 4e3d ecba 2c3d ff1e 6dbc
00000110: f5de cbbc d9b1 81bc 0901 123c 82fa 363d
00000120: 831a 793d 90a0 123d 6b8d f63c 1099 813a
00000130: a3e7 4bbd 1156 3d3c de42 e1bc fea2 7e3c
00000140: 2d32 21bd ff11 96bd a39b 133e 9201 8abd
00000150: 97d6 f4bc 8678 8ebd db5d 51bc 554e 253c
00000160: 3440 a9bc cb6f 8cbd 027f 92bd c227 953c
00000170: ce5a 213b 1516 99bd 5d74 23bd e392 033d
00000180: 6fa6 103d 975d 3ebd 62ed d1bd e81a 5b3c
00000190: 2d41 433d 25db 4ebc 8050 a73d a72d 91bd
000001a0: f25d 073c 8be8 3bbd f030 09bd bafd 1d3d
000001b0: 39f9 c83d 997b 35bd 0468 683d 9c92 4dbd
000001c0: 7df2 f13c 5b92 4e3d 4b8b 0abe 99c8 a23c
000001d0: 4ecf 2a3d 59ce bb3c eb97 323d 0c71 803c
000001e0: 5b45 8d3c e14d 993d 1cf8 1a3d 979a 22bd
000001f0: 3b06 2bbd 2444 413d 836a 403c e068 993d
00000200: 0cce 56bd f5d0 b53c dfbd 883c bcb8 503c
00000210: a16c 29bd 6bea f7bc e320 15bd ffb0 fbbb
00000220: fe0f 1d3d bb81 ce3d 7c65 1b3c 48d1 7b3d
00000230: 1d3d aaba ee74 b23c f26f 973b 2d14 143c
00000240: d662 d83c 8a4c 0f3c 4de8 1c3e 5db2 923d
00000250: 0e7f 38bd 134e cfbc f3c5 8abc 9216 0ebc
00000260: 5264 12bd f7da d1bd 5499 6b38 48ef 11bc
00000270: 206d 41bc 2630 bebc e5b1 27bc 6129 25bd
00000280: bf4a e43c b215 623c b372 823d 57c0 a73c
00000290: bb07 37bb af6d 903d 2a1a d1bc e51f 833d
000002a0: d4e9 42bd a344 d3bc e6a5 253c 2e86 c63d
000002b0: f6bf 913d a53f 093d 313b 87bb 64c3 43bb
000002c0: a91d 9fbb 650c 983c 1d5f 8f3d fcca 593d
000002d0: df1c 97bc 9396 d63c ecb2 9a3c d86f 943b
000002e0: 54d4 c23c a0df 32bd c865 be3c 09d8 49bd
000002f0: fd56 b7bb 1276 a4bd eb44 d03c 2e5d 6bbb
00000300: e0dd 163c 4319 973a 8b46 5ebd ec06 933c
00000310: abe6 c33d 2afe 5abd b0b3 583d 4950 15bd
00000320: 18f2 68bd 23b2 10bd f46b d7bc 2cc1 b13d
00000330: 28bd 8f3d 4df4 c8ba 5de7 9d3d 8180 24bc
00000340: 0b98 d33c f323 0b3b d9c6 8abd 7895 453d
00000350: 3fd6 5c3c c1bd 133d 9cf3 023d a73d a4bb
00000360: 5e7f e3bc 004a 9d3c 9e42 233d 6a5b 3abc
00000370: aa4e 88bd ffd2 fa3c 45d8 883c e5cf a23c
00000380: 3e07 37bb 4867 123c 28ce 943c 637e 1bbd
00000390: 9f15 22bd 7135 a63c be35 03bc 72d6 a73d
000003a0: 7444 c13d 6dbc 773c 3013 b7bb bc40 afbc
000003b0: 9a62 b13c a9de 6ebd 2500 c5bb a8dd 363c
000003c0: cf12 26bc de83 afbc 5eeb 8d3d 1b7d 0d3b
000003d0: 47df 35bd 8d12 94bd bab2 4fbd 977b 3f3d
000003e0: 8dc4 24bc 3b0d b1bd c859 08bd 95f9 49bc
000003f0: 79da 983c 557a d3bd 35ef 7ebd be0c c63b

model.encoder.layers.0.self_attn.v_proj.bias f4 [32]
0.035477336 -0.050589073 0.059139784 -0.024237864 0.056099404 0.06145133 -0.016692363 0.014533134
0.014653069 -0.03348889 0.038014814 0.0066430317 0.050258655 -0.05555165 -0.002472324 -0.018606367
-0.034407485 -0.06170299 0.059952788 0.06181927 0.015594407 -0.12355671 -0.030223347 -0.04155219
-0.010042118 0.017806202 -0.08451831 0.063156106 0.037950583 -0.030480685 0.019494936 0.018191986
00000000: af50 113d 7d36 4fbd 8f3c 723d 7c8e c6bc
00000010: 7dc8 653d 64b4 7b3d 6cbe 88bc 621c 6e3c
00000020: 6d13 703c a52b 09bd 6cb5 1b3d caad d93b
00000030: 05dc 4d3d 208a 63bd b706 22bb 616c 98bc
00000040: ddee 0cbd 46bc 7cbd 0e91 753d 3436 7d3d
00000050: af7f 7f3c 4d0b fdbd f496 f7bc a132 2abd
00000060: b287 24bc 50de 913c f017 adbd fd57 813d
00000070: 1272 1b3d a1b2 f9bc d8b3 9f3c 5c07 953c

model.encoder.layers.0.self_attn.q_proj.weight f4 [32, 32]
-0.025228458 -0.05774433 0.11218388 -0.09772999 -0.016829195 -0.044062246 0.021573383 -0.0069946754
-0.03729277 0.08323033 0.06426504 0.048955765 0.02551985 0.097629614 -0.033860184 0.03080298
0.06349352 0.04113791 0.048536535 -0.15558194 -0.1173227 0.043294255 0.03189547 0.15703306
-0.04427129 0.14534864 -0.07234956 0.0011214479 0.002388425 0.02502829 -0.12430284 0.07182668
0.059223037 7.2149137e-06 -0.12794814 0.086895004 0.015989995 0.037223347 -0.042728864 0.029080791
0.074002475 -0.08334729 -0.032370377 -0.021128781 0.0061988966 -0.07149303 0.064534545 -0.049251147
-0.034582336 -0.0007805402 -0.041090496 0.12404205 0.10998033 -0.011393024 -0.07029713 -0.14592163
0.095592275 -0.18945734 0.07110049 0.040351234 -0.011943401 0.0043702237 0.14339413 -0.07709777
0.03306988 -0.08948374 -0.06276783 0.020425256 0.021397559 0.02124588 -0.04273447 0.019367354
0.11032813 -0.08800247 0.024244104 -0.046864565 0.027950922 0.0016206716 0.06683714 -0.09784915
0.03141513 0.015528201 0.083178505 0.10008258 0.10302989 -0.00720701 -0.053927213 -0.15203457
0.057596836 -0.17448616 0.06309304 0.04550272 0.00582597 0.009767038 0.22071473 -0.13939495
0.02381681 -0.062129926 -0.1325789 0.07868414 0.041760515 0.03685605 -0.01898583 0.00657803
0.07920078 -0.067008756 0.020374909 -0.008825734 0.021273434 -0.032547228 0.09138717 -0.05467949
-0.012076017 0.0013082724 -0.019941267 0.06922875 0.073339336 0.011196152 -0.1375675 -0.13370292
0.14984226 -0.2310855 0.065144666 0.025338147 0.021428183 0.03430614 0.18696749 -0.083145924
-0.055218697 0.0072834725 0.09858816 -0.088076435 -0.015469788 -0.0152592845 0.026964597 -0.021695307
-0.06336707 0.07845439 0.00894571 0.07528357 0.0058622058 0.054444034 -0.031368915 0.045898363
0.03069924 -0.0040757474 0.04187374 -0.09973785 -0.13461088 -0.031679764 0.024279263 0.1309244
-0.066004895 0.17498745 -0.03925483 0.006679487 -0.017616563 0.009057055 -0.13661397 0.06923569
-0.071325906 0.015142772 0.0068391 0.015307246 0.06511391 0.009765311 0.055927504 -0.05905521
-0.17004219 0.12461235 0.009758399 0.004072226 -0.06634979 0.063649036 0.011061592 0.011395358
0.0073760524 -0.035621814 -0.06623852 -0.096145816 -0.1435253 0.03689288 -0.042216025 0.109612085
0.059736677 0.12578654 -0.08136888 -0.0417552 -0.023180733 0.05287058 -0.050344665 0.092832685
-0.062658705 0.0048165587 0.11850381 -0.060797792 -0.016623784 -0.041321535 0.032201696 -0.0010343564
-0.095336266 0.12503989 0.010087711 0.03881168 -0.025954777 0.05871751 -0.059333976 0.05551064
0.0010654157 0.003907328 -0.019013911 -0.12160327 -0.12626344 0.02333469 0.046418115 0.12963547
-0.08944375 0.19427261 -0.03627629 -0.03549427 -0.0026243927 -0.022427648 -0.17645188 0.1374045
-0.017879147 0.05199918 0.12217439 -0.07633062 -0.016359707 0.0145119745 0.061483897 -0.019557038
-0.088009596 0.08072952 -0.016858632 0.027983831 0.008863623 0.03147379 -0.06567545 0.055727635
0.032317184 -0.024668073 0.028618803 -0.105960086 -0.0953849 -0.05099557 0.11255676 0.14796315
-0.12987605 0.21081868 -0.054987244 -0.05057866 0.0062301094 0.0024063315 -0.19738151 0.10660902
00000000: e9ab cebc 5285 6cbd a9c0 e53d a926 c8bd
00000010: 61dd 89bc 9d7a 34bd aaba b03c 9733 e5bb
00000020: 4ec0 18bd aa74 aa3d 649d 833d d785 483d
00000030: 010f d13c 09f2 c73d fab0 0abd 8856 fc3c
00000040: e408 823d 3a80 283d 3fce 463d df50 1fbe
00000050: e246 f0bd 5155 313d d3a4 023d 46cd 203e
00000060: d055 35bd 46d6 143e 022c 94bd 8cfd 923a
00000070: 1f87 1c3b 2108 cd3c 7d92 febd de19 933d
00000080: db93 723d a317 f236 d604 03be 02f6 b13d
00000090: 73fd 823c 8277 183d 7604 2fbd d73a ee3c
000000a0: 9c8e 973d fcb1 aabd cd96 04bd 4416 adbc
000000b0: 1d20 cb3b f06a 92bd b02a 843d 92bb 49bd
000000c0: 35a6 0dbd 2b9d 4cba 824e 28bd c209 fe3d
000000d0: 5e3d e13d cea9 3abc f1f7 8fbd 7b6c 15be
000000e0: e2c5 c33d 1b01 42be 229d 913d 5647 253d
000000f0: 41ae 43bc 1834 8f3b e9d5 123e 70e5 9dbd
00000100: 4874 073d 4043 b7bd 6c8c 80bd de52 a73c
00000110: ef49 af3c d70b ae3c 570a 2fbd 49a8 9e3c
00000120: b7f3 e13d a43a b4bd 929b c63c 0ff5 3fbd
00000130: 55f9 e43c b76c d43a e9e1 883d 2365 c8bd
00000140: 27ad 003d ff69 7e3c 7e59 aa3d 18f8 cc3d
00000150: 5601 d33d c828 ecbb c8e2 5cbd f3ae 1bbe
00000160: a9ea 6b3d 80ac 32be ec36 813d 0f61 3a3d
00000170: c7e7 be3b ed05 203c 0b03 623e 8dbd 0ebe
00000180: 791b c33c f37b 7ebd c3c2 07be 2725 a13d
00000190: 130d 2b3d 5ff6 163d 2c88 9bbc 848c d73b
000001a0: 0534 a23d e33b 89bd 48e9 a63c d099 10bc
000001b0: a045 ae3c 3e50 05bd 3229 bb3d 9af7 5fbd
000001c0: 7dda 45bc 567a ab3a de5b a3bc cec7 8d3d
000001d0: ef32 963d 1170 373c 7fde 0cbe 6be9 08be
000001e0: 4070 193e ada1 6cbe 916a 853d f291 cf3c
000001f0: 288a af3c 9884 0c3d 6874 3f3e 6948 aabd
00000200: 002d 62bd 32aa ee3b 97e8 c93d 6b61 b4bd
00000210: fe74 7dbc 1402 7abc dce4 dc3c 5bba b1bc
00000220: 98c6 81bd b2ac a03d 0791 123c 462e 9a3d
00000230: bf17 c03b b500 5f3d b17c 00bd ecff 3b3d
00000240: f97c fb3c d98d 85bb cc83 2b3d 5c43 ccbd
00000250: 6fd7 09be a4c2 01bd 4ee5 c63c 0c11 063e
00000260: 932d 87bd e92f 333e acc9 20bd 99df da3b
00000270: 9c50 90bc 0b64 143c 88e4 0bbe 71cb 8d3d
00000280: 5113 92bd 6419 783c 871a e03b 3ecb 7a3c
00000290: 715a 853d affe 1f3c 3d14 653d e0e3 71bd
000002a0: 8a1f 2ebe c234 ff3d b1e1 1f3c 4f70 853b
000002b0: 66e2 87bd 6d5a 823d ae3b 353c 98b3 3a3c
000002c0: d0b2 f13b 2ee8 11bd 10a8 87bd 19e8 c4bd
000002d0: 4cf8 12be fd1c 173d b6ea 2cbd 4d7c e03d
000002e0: 72ae 743d 30ce 003e baa4 a6bd 8007 2bbd
000002f0: 85e5 bdbc d28e 583d 3536 4ebd 101f be3d
00000300: 3553 80bd 39d4 9d3b 20b2 f23d 1b07 79bd
00000310: 9a2e 88bc c540 29bd ede5 033d 3e93 87ba
00000320: a93f c3bd 750a 003e ed46 253c fff8 1e3d
00000330: 1d9f d4bc c681 703d 2f08 73bd 205f 633d
00000340: 6ba5 8b3a 0b09 803b 10c3 9bbc 230b f9bd
00000350: 344b 01be 6428 bf3c ec20 3e3d 29bf 043e
00000360: 492e b7bd 66ef 463e 7296 14bd 7162 11bd
00000370: 01fe 2bbb 30ba b7bc cdaf 34be c4b3 0c3e
00000380: 4a77 92bc 18fd 543d 9136 fa3d 3a53 9cbd
00000390: cb04 86bc a2c3 6d3c 8ad6 7b3d 1536 a0bc
000003a0: 603e b4bd 8555 a53d 1d1b 8abc 593e e53c
000003b0: bb38 113c a9ea 003d da80 86bd a942 643d
000003c0: 065f 043d b314 cabc fb71 ea3c 9a01 d9bd
000003d0: 2959 c3bd bbe0 50bd 2984 e63d a783 173e
000003e0: 3afe 04be dae0 573e 4e3a 61bd 922b 4fbd
000003f0: f225 cc3b 8bb3 1d3b 611e 4abe d455 da3d

model.encoder.layers.0.self_attn.q_proj.bias f4 [32]
0.13788337 -0.123655565 -0.10955511 -0.09465746 0.13151424 0.17596222 0.12999718 0.103610404
-0.13777384 0.14756067 0.11475665 0.16029291 -0.11319025 -0.09910533 0.08492147 -0.13629495
0.0029341998 -0.11316225 0.07440466 -0.17711106 -0.09266648 -0.04281207 -0.12019667 0.076545894
0.09227217 0.11117287 0.05539207 0.09101047 0.075774275 -0.07066404 0.040378436 0.12935598
00000000: 4c31 0d3e 213f fdbd 6e5e e0bd c5db c1bd
00000010: abab 063e 712f 343e fb1d 053e b131 d43d
00000020: 9614 0dbe 251a 173e 8905 eb3d d323 243e
00000030: 4ad0 e7bd bcf7 cabd 4feb ad3d e790 0bbe
00000040: b44b 403b 9cc1 e7bd 7861 983d 9a5c 35be
00000050: ecc7 bdbd b65b 2fbd ac29 f6bd 18c4 9c3d
00000060: 31f9 bc3d 9aae e33d cce2 623d b363 ba3d
00000070: 8b2f 9b3d 4fb8 90bd dc63 253d e575 043e

model.encoder.layers.0.self_attn.out_proj.weight f4 [32, 32]
-0.053253528 -0.005072627 -0.098340094 0.055203877 -0.05018516 -0.0057825297 0.043600574 -0.022196656
-0.02343931 -0.028203167 -0.08973975 -0.05779839 0.024954433 -0.046458285 0.052671563 0.03848274
-0.017038338 0.07248564 -0.031201893 0.055371318 0.087243035 0.016178954 0.022298004 -0.0029450026
0.010261387 -0.013001171 0.0980935 0.051565375 -0.06831759 0.008648295 -0.04099618 -0.006095602
0.031695664 0.014857303 -0.016195092 0.008281546 0.012447627 -0.01754248 -0.027019406 0.030041613
0.0031631312 -0.01981629 0.032963615 0.019179737 0.007395422 0.016359301 -0.05209736 0.020791736
0.0072693345 0.086801305 -0.012897376 -0.075844765 -0.012946506 0.119583555 -0.018294735 0.082741655
-0.01998594 0.041866787 0.037216935 -0.03604093 -0.06609959 0.012143584 -0.047450807 -0.048758365
0.08105267 0.008508079 0.049168993 -0.01778908 0.031016573 -0.015613163 -0.039046485 0.016033102
-0.017921332 -0.057692446 0.017666843 0.024150962 0.034722555 -0.022721557 -0.026231553 -0.005539345
-0.03889589 0.09801575 -0.056432497 0.03298325 -0.013555895 0.07690344 -0.007830789 0.026246442
0.024729919 -0.06245106 0.10889782 0.0020652718 -0.0005235712 0.054834288 -0.02481313 0.019453995
0.012787847 -0.04195914 -0.022139905 0.014974743 0.0041330825 0.04264605 -0.012497509 0.022015976
-0.006493114 0.021283796 0.018559128 -0.025086321 -0.038233887 -0.023669593 -0.018379208 -0.03855798
0.014743873 -0.10627446 0.11572878 0.024019139 0.06733079 -0.078339726 0.03228311 -0.022745267
-0.10232302 0.068319954 -0.1126722 -0.014819656 -0.004588338 -0.12498111 0.08275665 -0.002700709
-0.024778118 -0.024689687 -0.0133049805 -0.018732505 -0.010190857 0.03484257 0.037518278 -0.047929548
0.013018277 0.013491588 -0.021867579 -0.033452727 0.02026813 0.0003564959 -0.00015216524 -0.042239685
0.04680636 -0.10725803 -0.0033461517 -0.0024274741 0.017855126 -0.029951949 -0.052023835 -0.054335047
0.030275065 0.019261386 -0.08198404 0.012572413 -0.013599294 -0.009428001 0.020700555 -0.031572424
-0.011116772 0.03269305 -0.0290505 0.035907786 -0.0008809546 -0.028163897 -0.025327936 -0.0059495997
-0.0062043765 0.026847197 -0.023312004 0.010004749 -0.032385934 0.032289576 -0.03159042 0.022812825
-0.034275558 0.0508612 -0.02644839 -0.0076314183 -0.037820663 0.083253704 0.013125118 0.022360323
-0.01541094 -0.03169477 0.040556043 -0.008857879 -0.0037187105 0.031279344 0.003281023 0.018257938
-0.008884846 -0.116887294 -0.008774284 -0.0336453 0.0045179543 0.06968009 0.018923307 -0.034430016
0.011480952 -0.04190613 -0.0004306967 -0.03538188 0.073630914 -0.03116571 0.0033967106 -0.06687087
0.025411613 -0.0305057 0.03337993 0.07439812 0.05248896 -0.072367385 -0.05984534 -0.03647894
0.018348686 0.003991659 -0.028227229 0.08146501 -0.003916868 -0.03169052 0.035184827 -0.027682833
0.03352132 -0.048878174 0.0026489836 0.0012133697 0.027287656 0.02734908 -0.035531275 0.012763488
0.041242767 -0.094869025 0.044213664 0.044928573 0.08482741 0.0085663935 -0.06430872 0.06627496
-0.06492579 0.15947658 -0.018843243 0.062032092 0.00596377 -0.00027940684 0.06052674 0.0759315
-0.0065584914 -0.026427995 0.11942793 0.047168177 -0.026963783 0.0024124046 0.003472178 -0.0049679508
00000000: 5f20 5abd 4838 a6bb 8866 c9bd 761d 623d
00000010: f48e 4dbd 607b bdbb 8496 323d c3d5 b5bc
00000020: cc03 c0bc 540a e7bc 79c9 b7bd 01be 6cbd
00000030: 3d6d cc3c 0b4b 3ebd 23be 573d 14a0 1d3d
00000040: fc93 8bbc 5a73 943d 1d9b ffbc 09cd 623d
00000050: 7aac b23d ba89 843c 4eaa b63c f200 41bb
00000060: 601f 283c dd02 55bc 3fe5 c83d 3736 533d
00000070: 18ea 8bbd 94b1 0d3c 9ceb 27bd 9ebd c7bb
00000080: 50d3 013d 0c6c 733c 92ab 84bc 52af 073c
00000090: 22f1 4b3c 3fb5 8fbc cd57 ddbc d419 f63c
000000a0: 894c 4f3b c655 a2bc db04 073d d31e 9d3c
000000b0: 4c55 f23b f103 863c 0b64 55bd 6e53 aa3c
000000c0: 9933 ee3b e2c4 b13d 844f 53bc 8054 9bbd
000000d0: 951d 54bc 39e8 f43d d7de 95bc 7574 a93d
000000e0: 8eb9 a3bc 827c 2b3d c970 183d a79f 13bd
000000f0: 395f 87bd e2f5 463c c75b 42bd dab6 47bd
00000100: f1fe a53d 7865 0b3c 6d65 493d 68ba 91bc
00000110: 7816 fe3c 5ace 7fbc 35ef 1fbd da57 833c
00000120: c2cf 92bc ea4e 6cbd 0eba 903c 3dd8 c53c
00000130: 3d39 0e3d 8f22 babc 8ee3 d6bc 6583 b5bb
00000140: 4c51 1fbd 7bbc c83d c325 67bd 7219 073d
00000150: 8b19 5ebc 8d7f 9d3d b64c 00bc c702 d73c
00000160: 6696 ca3c afcc 7fbd d205 df3d 8359 073b
00000170: 4540 09ba eb99 603d e844 cbbc fc5d 9f3c
00000180: 1e84 513c 59dd 2bbd bf5e b5bc a058 753c
00000190: cf6e 873b a0ad 2e3d 5ac2 4cbc d95a b43c
000001a0: 30c4 d4bb 5b5b ae3c 5009 983c d481 cdbc
000001b0: 239b 1cbd bce6 c1bc fe8f 96bc f9ee 1dbd
000001c0: 4990 713c 6da6 d9bd 3603 ed3d c9c3 c43c
000001d0: bae4 893d 9470 a0bd 4b3b 043d 4854 babc
000001e0: bb8e d1bd 55eb 8b3d afc0 e6bd 24ce 72bc
000001f0: c559 96bb 19f6 ffbd 527c a93d 61fe 30bb
00000200: 7bfb cabc 0742 cabc 22fd 59bc e974 99bc
00000210: 8df7 26bc 15b7 0e3d c4ac 193d c651 44bd
00000220: 9c4a 553c d20b 5d3c a323 b3bc ba05 09bd
00000230: 5909 a63c 12e8 ba39 8c8e 1fb9 8503 2dbd
00000240: 07b8 3f3d 19aa dbbd 1c4b 5bbb 4216 1fbb
00000250: ea44 923c ca5d f5bc f216 55bd 6d8e 5ebd
00000260: 6a03 f83c 0eca 9d3c 40e7 a7bd 86fc 4d3c
00000270: 93cf 5ebc e777 1abc 3694 a93c 1652 01bd
00000280: 1f23 36bc 26e9 053d 50fb edbc 0b14 133d
00000290: ddef 66ba f9b7 e6bc 887c cfbc dcf4 c2bb
000002a0: 154e cbbb a7ee db3c d1f8 bebc f5ea 233c
000002b0: 1da7 04bd 1342 043d f564 01bd f6e1 ba3c
000002c0: 8764 0cbd d553 503d 4baa d8bc fa10 fabb
000002d0: d7e9 1abd eb80 aa3d bc0a 573c ff2c b73c
000002e0: 2b7e 7cbc 60d2 01bd 181e 263d a320 11bc
000002f0: 9cb5 73bb c51e 003d 6e06 573b ac91 953c
00000300: bf91 11bc 9b62 efbd 04c2 0fbc a7cf 09bd
00000310: 590b 943b 6fb4 8e3d 0d05 9b3c 7d06 0dbd
00000320: 9a1a 3c3c c3a5 2bbd 22cf e1b9 97ec 10bd
00000330: cecb 963d 3b4f ffbc 599b 5e3b 98f3 88bd
00000340: 042c d03c 17e7 f9bc 65b9 083d 0b5e 983d
00000350: aafe 563d 5a35 94bd 6320 75bd f16a 15bd
00000360: fc4f 963c 76cc 823b ca3c e7bc 21d7 a63d
00000370: 1259 80bb ebcd 01bd f71d 103d 1cc7 e2bc
00000380: a74d 093d 7b34 48bd 929a 2d3b ee09 9f3a
00000390: 5d8a df3c 2e0b e03c 3e89 11bd f31d 513c
000003a0: 2dee 283d b14a c2bd 6319 353d 0607 383d
000003b0: feb9 ad3d 0f5a 0c3c 4ab4 83bd 2bbb 873d
000003c0: d0f7 84bd d44d 233e 255d 9abc 5d15 7e3d
000003d0: bb6b c33b 5a7d 92b9 e3ea 773d f981 9b3d
000003e0: 9de8 d6bb 867f d8bc a196 f43d 6b33 413d
000003f0: 27e3 dcbc 6f19 1e3b 7b8d 633b 31ca a2bb

model.encoder.layers.0.self_attn.out_proj.bias f4 [32]
-0.18071353 0.0029026936 -0.02211809 0.011127096 -0.008683698 -0.026029512 0.020070966 -0.05849337
0.0014294087 0.01776132 0.008497089 0.0127848545 0.01573786 -0.08005775 0.018385397 0.01358102
0.025511665 0.069273435 -0.040856697 0.043565914 0.0026086164 0.009048365 -0.15751293 -0.0062192255
0.021770515 0.067779064 -0.020984884 0.009200345 -0.046841975 -0.0109354835 -0.006462716 0.056564137
00000000: f80c 39be 1e3b 3e3b ff30 b5bc 6c4e 363c
00000010: 1246 0ebc d83b d5bc de6b a43c be96 6fbd
00000020: ff5a bb3a 3080 913c 6037 0b3c 9177 513c
00000030: afec 803c 51f5 a3bd f99c 963c ed82 5e3c
00000040: d7fd d03c 3bdf 8d3d 5a59 27bd 2c72 323d
00000050: 52f5 2a3b 983f 143c 124b 21be a5ca cbbb
00000060: 1458 b23c c0cf 8a3d 7ee8 abbc 0bbd 163c
00000070: 5fdd 3fbd be2a 33bc 31c5 d3bb ccaf 673d

model.encoder.layers.0.self_attn_layer_norm.weight f4 [32]
0.7774507 0.8058347 0.72307205 0.7475262 0.7888918 0.7264222 0.82283103 0.8357404
0.78925633 0.75725615 0.8158015 0.84473395 0.8623676 0.80037904 0.8455226 0.813081
0.78690076 0.7908399 0.83124584 0.73940814 0.7782405 0.71160173 0.7804261 0.82154274
0.8813834 0.749729 0.8301055 0.8953881 0.8806696 0.7650182 0.8640194 0.7844942
00000000: 0207 473f 2f4b 4e3f 401b 393f e15d 3f3f
00000010: d0f4 493f cef6 393f 0ea5 523f 15f3 553f
00000020: b40c 4a3f 8adb 413f 5ed8 503f 7c40 583f
00000030: 1fc4 5c3f a4e5 4c3f 2b74 583f 1426 503f
00000040: 5472 493f 7c74 4a3f 87cc 543f da49 3d3f
00000050: c53a 473f 882b 363f 01ca 473f a050 523f
00000060: 58a2 613f 3dee 3f3f cb81 543f 2838 653f
00000070: 9073 613f 3cd8 433f 6030 5d3f 9dd4 483f

model.encoder.layers.0.self_attn_layer_norm.bias f4 [32]
-0.1774101 0.011193119 0.10226988 -0.05833437 -0.112034716 0.041699193 -0.09767384 0.014851439
0.038601443 0.007831345 0.090938576 0.07080986 -0.05045075 -0.04617459 -0.037945163 0.090357475
0.059786145 0.10400625 0.0008503599 -0.0033168267 -0.005285513 0.03387516 -0.14291579 0.065284275
0.085188724 0.0038811872 -0.11844251 -0.012061417 -0.03750672 0.026256979 -0.035003196 -0.009895179
00000000: feaa 35be 5863 373c df72 d13d 05f0 6ebd
00000010: 7572 e5bd c6cc 2a3d 3909 c8bd 7353 733c
00000020: 8c1c 1e3d 0b4f 003c 013e ba3d c304 913d
00000030: 72a5 4ebd 9121 3dbd 636c 1bbd 570d b93d
00000040: 51e2 743d 3b01 d53d b0ea 5e3a 1e5f 59bb
00000050: 1932 adbb aec0 0a3d 8458 12be c3b3 853d
00000060: 6d77 ae3d 845b 7e3b fd91 f2bd 409d 45bc
00000070: a5a0 19bd e018 d73c 835f 0fbd 641f 22bc

model.encoder.layers.0.fc1.weight f4 [32, 32]
0.09628075 0.054148406 -0.034578398 0.05196367 0.07457108 0.02567335 -0.027417615 0.14137757
0.05227591 -0.054214388 0.08299456 -0.09319046 -0.009110383 0.018225245 -0.11457752 -0.07994912
-0.05357282 0.071771145 -0.07962512 0.08274833 0.05882236 0.08401524 -0.08938955 -0.12181213
0.07034042 -0.12331702 -0.055045575 -0.0766538 0.11624463 0.048310064 0.10422872 -0.15202399
0.07439008 0.018013626 -0.09659121 0.04718976 0.017718168 0.118789926 -0.10963139 0.05911001
0.00072380755 -0.017038401 -0.098493755 -0.17528893 0.1082781 0.047752522 -0.16349655 0.026679013
-0.039766286 -0.094568215 -0.07060715 -0.046679143 -0.03160889 -0.024649225 0.06207635 0.0040417365
0.22962554 -0.007484297 -0.13428076 -0.052868117 0.024115913 -0.034697756 0.1281538 -0.022030642
0.10884919 0.020456836 -0.022024887 -0.08505196 0.009367814 0.07080641 -0.091459155 0.13907675
0.13601345 -0.06671704 -0.02635906 0.08502184 0.19792537 0.028917816 -0.10283736 -0.026516251
0.020428559 -0.080624714 -0.0047778483 0.019954948 -0.03774653 0.107694454 0.122002155 0.10062259
0.15261824 -0.07905022 -0.05689571 -0.08481796 -0.026251731 -0.062263343 -0.062267486 -0.10069541
0.00883172 -0.04155364 0.0065958523 -0.0057784016 0.04815877 -0.009741328 0.027538994 -0.014349911
0.005022996 -0.02628182 -0.0009547578 0.0357579 -0.01240415 0.01413301 0.06579135 -0.018820459
-0.015510237 0.03195622 -0.027617024 -0.015850652 -0.00259381 -0.004576802 -0.031355053 0.040963143
0.0037444532 -0.0095575 -0.04674984 0.054348063 -0.00036755158 -0.026070626 -0.046085056 -0.010468173
-0.020549234 0.076381005 0.06410286 -0.016834958 -0.119843476 -0.03218839 -0.04999942 -0.0555266
0.020087827 -0.07373574 0.032667644 0.019149879 0.025358336 -0.09742221 -0.07322544 0.056452446
-0.014449203 0.011594857 -0.035847094 0.09258827 0.03406099 -0.07663091 -0.053590022 0.10373885
-0.06973862 0.04750217 -0.007024536 -0.04918767 0.07271884 -0.081558526 0.027952163 0.037175532
0.020241091 0.14013971 0.008770868 0.014030329 -0.10684224 -0.026110139 -0.07143884 -0.04880066
-0.0416156 0.07152689 0.036140885 -0.09355321 -0.06227765 0.059833698 -0.16009854 0.007821483
-0.022217475 -0.1072669 0.024166794 0.037401065 0.088634975 -0.040581 -0.0132256625 -0.04020786
-0.044589028 0.009752674 0.08970233 -0.14036699 0.058963653 0.0013017647 -0.028045362 0.07832282
0.00051570265 -0.05351445 -0.06819473 0.019440373 0.076479524 0.00046060455 0.1119254 0.0429589
-0.0326663 -0.025885226 -0.008771414 0.086731434 0.061228383 0.038839296 0.034603808 -0.036932606
0.05792079 0.09373979 -0.00493674 -0.04567674 -0.010525234 0.019735444 0.045423575 -0.027164368
-0.042976078 0.10462206 0.017733626 0.08515861 -0.04083154 -0.007892284 -0.039409664 -0.024735725
0.027198462 -0.008166571 -0.04311503 -0.034845095 -0.030922381 0.024445279 0.037004936 0.04866502
-0.02780811 -0.043998215 -0.040330462 0.07120097 -0.058562566 -0.034073904 0.04345745 0.057309546
0.007663384 0.04930118 -0.03448729 0.043862924 -0.0034724749 -0.0092257615 -0.0066717966 0.04032124
-0.00938041 0.0089145815 0.06718886 -0.00977145 0.049495954 -0.046925314 -0.021698367 -0.023682842
00000000: d82e c53d b8ca 5d3d 14a2 0dbd dbd7 543d
00000010: b9b8 983d eb50 d23c e89a e0bc 48c5 103e
00000020: 441f 563d e80f 5ebd 0df9 a93d a4da bebd
00000030: b743 15bc 1c4d 953c 9ea7 eabd 5dbc a3bd
00000040: 2c6f 5bbd c0fc 923d 7f12 a3bd f577 a93d
00000050: b7ef 703d 2f10 ac3d de11 b7bd a378 f9bd
00000060: a30e 903d a28d fcbd 7877 61bd abfc 9cbd
00000070: aa11 ee3d c6e0 453d de75 d53d 2dac 1bbe
00000080: d459 983d 5091 933c 9dd1 c5bd 0d4a 413d
00000090: b125 913c 2248 f33d 6c86 e0bd 561d 723d
000000a0: e7bd 3d3a 1e94 8bbc 18b7 c9bd f17e 33be
000000b0: e9c0 dd3d 2698 433d a46b 27be f28d da3c
000000c0: f9e1 22bd fbac c1bd 7b9a 90bd a132 3fbd
000000d0: 5378 01bd 2ced c9bc c543 7e3d 8b70 843b
000000e0: f522 6b3e d53e f5bb e580 09be 3d8c 58bd
000000f0: bc8e c53c 3c1f 0ebd c03a 033e 9b79 b4bc
00000100: 53ec de3d 1895 a73c 896d b4bc b92f aebd
00000110: 767b 193c f302 913d f04e bbbd 236a 0e3e
00000120: 1c47 0b3e f2a2 88bd f5ee d7bc ee1f ae3d
00000130: f3ac 4a3e 0ee5 ec3c 659c d2bd 9c38 d9bc
00000140: cb59 a73c 921e a5bd 7f8f 9cbb 8f78 a33c
00000150: 1b9c 1abd e98e dc3d 44dc f93d 3713 ce3d
00000160: f547 1c3e 15e5 a1bd 7a0b 69bd 0ab5 adbd
00000170: df0d d7bc d907 7fbd 310c 7fbd 6539 cebd
00000180: ebb2 103c 2634 2abd 0522 d83b bf58 bdbb
00000190: 2142 453d 179a 1fbc 7599 e13c e41b 6bbc
000001a0: f297 a43b f94c d7bc b648 7aba e076 123d
000001b0: c73a 4bbc 248e 673c 9ebd 863d 5d2d 9abc
000001c0: a61e 7ebc 86e4 023d 193d e2bc 3ad9 81bc
000001d0: e9fc 29bb fff8 95bb 286e 00bd f8c8 273d
000001e0: 8065 753b 0f97 1cbc c37c 3fbd 139c 5e3d
000001f0: f0b3 c0b9 1192 d5bc afc3 3cbd b382 2bbc
00000200: de56 a8bc a56d 9c3d 5c48 833d 77e9 89bc
00000210: 7f70 f5bd f9d7 03bd 31cc 4cbd dc6f 63bd
00000220: 3a8f a43c c302 97bd 82ce 053d 35e0 9c3c
00000230: 49bc cf3c 4c85 c7bd 38f7 95bd ae3a 673d
00000240: 5abc 6cbc 5bf8 3d3c 67d4 12bd eb9e bd3d
00000250: 8983 0b3d abf0 9cbd 3681 5bbd 0975 d43d
00000260: 1fd3 8ebd a391 423d 142e e6bb 0379 49bd
00000270: 9ded 943d 2808 a7bd effb e43c 5f45 183d
00000280: a5d0 a53c c980 0f3e b0b3 0f3c 77df 653c
00000290: 1bd0 dabd eee4 d5bc 874e 92bd 33e3 47bd
000002a0: 1f75 2abd b17c 923d 7708 143d d398 bfbd
000002b0: d916 7fbd 2e14 753d dff0 23be ad25 003c
000002c0: 6c01 b6bc c0ae dbbd 71f9 c53c dc31 193d
000002d0: 4186 b53d 4338 26bd 73b0 58bc ffb0 24bd
000002e0: fca2 36bd aec9 1f3c dbb5 b73d 5dbc 0fbe
000002f0: df83 713d fa9f aa3a 63bf e5bc b767 a03d
00000300: 3830 073a f831 5bbd aea9 8bbd 6b41 9f3c
00000310: 4ca1 9c3d 4c7d f139 2539 e53d acf5 2f3d
00000320: 19cd 05bd 410d d4bc fab5 0fbc 40a0 b13d
00000330: 9dca 7a3d f415 1f3d b9bc 0d3d a546 17bd
00000340: 5a3e 6d3d a6fa bf3d 60c4 a1bb 8917 3bbd
00000350: 0872 2cbc 3aac a13c 120e 3a3d cf87 debc
00000360: af07 30bd 1744 d63d 1c46 913c a367 ae3d
00000370: f93e 27bd a34e 01bc 076c 21bd 93a2 cabc
00000380: 4fcf de3c 15cd 05bc 6399 30bd bbb9 0ebd
00000390: ef50 fdbc 7741 c83c 7d92 173d f954 473d
000003a0: d5cd e3bc 7937 34bd 8e31 25bd d0d1 913d
000003b0: 4ddf 6fbd 1491 0bbd 7000 323d 6abd 6a3d
000003c0: 201d fb3b 09f0 493d 8b42 0dbd 9ca9 333d
000003d0: 7692 63bb a627 17bc 169f dabb e227 253d
000003e0: 4bb0 19bc 770e 123c 509a 893d 6f18 20bc
000003f0: 45bc 4a3d c234 40bd c6c0 b1bc 8502 c2bc

model.encoder.layers.0.fc1.bias f4 [32]
-0.011257948 -0.010356709 0.011681665 -0.058765534 -0.015667025 0.05424522 -0.034840025 -0.0741936
0.018984128 0.0022647802 0.008381962 0.02087723 0.017923273 0.0026959793 0.058470786 0.022376845
0.041053597 -0.04709148 0.07363477 -0.037182484 -0.04002703 -0.03663789 -0.039430737 0.08982429
-0.019902058 0.0032474496 -0.010007475 -0.03853303 -0.03789843 0.008967977 0.0502689 0.027897302
00000000: 4273 38bc 30af 29bc 7464 3f3c 21b4 70bd
00000010: 2258 80bc 3c30 5e3d 6ab4 0ebd d0f2 97bd
00000020: 9a84 9b3c b56c 143b 7f54 093c ba06 ab3c
00000030: d4d3 923c 07af 303b 107f 6f3d a54f b73c
00000040: d127 283d ffe2 40bd d4cd 963d a94c 18bd
00000050: 62f3 23bd 9d11 16bd 2082 21bd ccf5 b73d
00000060: a409 a3bc 2ad3 543b 64f6 23bc cfd4 1dbd
00000070: 623b 1bbd 6cee 123c c3e6 4d3d e288 e43c
