OtherModels/chkpt/halfcheetah_medium_v2_1.pt (torch, 324259 bytes, 6 tensors)

lstm.weight_ih_l0 f4 [512, 23]
0	0x3eb7e119	0.35913923
1	0x3e87b44c	0.26504743
2	0x3f2273c9	0.63457924
3	0x3f8c2e67	1.0951661
4	0x3dac045d	0.0839927
5	0xbf22d477	-0.63605446
6	0x3ee7ff1c	0.4531182
7	0xbf7d2926	-0.9889091
8	0x3e14acd6	0.14519057
9	0xbe9f15ae	-0.31071228
10	0x3e5ac7f5	0.2136534
11	0x4006cb5a	2.1061616
12	0xbe8ae7aa	-0.2712987
13	0x3e5f81fb	0.21826927
14	0x3e5aba9f	0.21360253
15	0x3f8a3ab8	1.079917
16	0xbee99c20	-0.45626926
17	0xbcfdf75d	-0.031001741
18	0x3d1acd22	0.037793286
19	0x3c0b9a6f	0.008520707
20	0xbd324c28	-0.04352966
21	0xbc47a8c3	-0.012186232
22	0x3c900adb	0.017583301
23	0x3ea843c6	0.32864207
24	0xbf959170	-1.1685009
25	0x3e9cc44a	0.30618507
26	0xbe9c4573	-0.30521736
27	0x3e8f6eb5	0.2801415
28	0xbeb5eda2	-0.35532862
29	0x3ef01b7f	0.46895978
30	0xbe921aa6	-0.28535956
31	0xbfc4b40a	-1.5367444
32	0x3fad145c	1.3521838
33	0xbe8bc776	-0.27300614
34	0x3f38567b	0.7200696
35	0xbdaf6dc1	-0.08565856
36	0x3f150066	0.5820373
37	0x3f0f5313	0.55986136
38	0xbe81c6c9	-0.25346974
39	0xbee095b0	-0.43864202
40	0xbd3d8d59	-0.046277378
41	0xbde24b62	-0.110495344
42	0xbd5eee34	-0.054426387
43	0x3cd6f334	0.026239015
44	0x3cfffb93	0.03124789
45	0x3d69ad6c	0.057050154
46	0x3ea2737f	0.31728742
47	0x3f686468	0.9077821
48	0xbf816a7e	-1.0110624
49	0xbec7dce7	-0.39035723
50	0x3f70d2c8	0.94071627
51	0xbfa595fa	-1.2936394
52	0xbe9ac8be	-0.3023128
53	0xbefaff9b	-0.49023136
54	0x3f8a5bb3	1.0809234
55	0x3f12e228	0.5737634
56	0xbd719f4b	-0.058989804
57	0xbf3d439a	-0.73931277
58	0x3e13e47b	0.14442627
59	0x3ca2c627	0.019869877
60	0xbd82b488	-0.0638209
61	0x3ef6ff39	0.48241594
62	0x3de0e398	0.1098091
63	0x3dace46f	0.08442008
64	0x3d597804	0.05309297
65	0xbbbbd21a	-0.005731833
66	0xbc988fdf	-0.01862329
67	0xb9de684d	-0.0004242085
68	0xbcf5e210	-0.030015022
69	0xbee47b95	-0.44625536
70	0x3ef397f5	0.47576872
71	0xbd9ebce6	-0.07750873
72	0x3d967808	0.07347113
73	0x3e598726	0.21242961
74	0xbebc7ec6	-0.3681547
75	0x3d16eee6	0.036848925
76	0xbedb4c9f	-0.42831895
77	0xbf96ef80	-1.179184
78	0x3f1af97d	0.6053694
79	0xbea0512f	-0.31311938
80	0xbed3707c	-0.41296756
81	0xbeb8e52b	-0.3611234
82	0x3fbac342	1.4590838
83	0x3d2bb8d8	0.041924328
84	0x3f2d325c	0.6765497
85	0xbf081148	-0.5315137
86	0xbdd3b3ce	-0.103370294
87	0x3e270f37	0.16314398
88	0xbbf03978	-0.0073310696
89	0xbe181539	-0.14851846
90	0xbcb44cc5	-0.022009263
91	0x3da22aa9	0.07918293
92	0x3f22f842	0.6366006
93	0x3defbba1	0.11705709
94	0x3e35cb59	0.17753352
95	0xbe85b15d	-0.2611188
96	0x3ee67e42	0.45018202
97	0xbebdb996	-0.37055653
98	0xbef18102	-0.47168738
99	0xbf16ecc8	-0.5895505
100	0x3f481725	0.78160316
101	0x3ef36f7e	0.47546
102	0x3ef26588	0.47343087
103	0x3f72f1d3	0.94900244
104	0x3e327d54	0.17430621
105	0xbfa9da0b	-1.3269666
106	0x3c19c202	0.009384634
107	0x3ea85407	0.32876608
108	0x3e0db56c	0.13838738
109	0xbbef8777	-0.00730985
110	0x3cbd3e0b	0.023100873
111	0xbc23b8d6	-0.009992799
112	0x3e4f29ed	0.20230837
113	0x3d5679f3	0.052362394
114	0xbbb18c10	-0.005418308
115	0xbf2bc27a	-0.6709362
116	0xbe038e34	-0.12847215
117	0xbe203f00	-0.15649033
118	0xbdea46b0	-0.11439264
119	0x3ef2f91f	0.4745569
120	0xbf963cea	-1.173734
121	0x3f19c61e	0.6006793
122	0x3e1e0239	0.15430535
123	0xbea89120	-0.32923222
124	0x3f293cb3	0.66108245
125	0x3f0b01dd	0.5429972
126	0xbf05c4be	-0.5225333
127	0x3ee59be7	0.44845507
128	0xbfad0017	-1.3515652
129	0xbdb6b1f9	-0.08920664
130	0xbe360f8d	-0.1777937
131	0xbd0b247b	-0.033970337
132	0xbcfd5db0	-0.030928463
133	0xbb06888a	-0.002052816
134	0x3c856f18	0.016288325
135	0x3c86bfd1	0.016448887
136	0x3d482527	0.048863556
137	0x3deaf784	0.11472991
138	0xbdbf9388	-0.09354311
139	0x3e018458	0.12648141
140	0x3e446d59	0.19182338
141	0xbeb92ef6	-0.3616864
142	0xbdbd62dd	-0.09247372
143	0x3e18de7c	0.14928621
144	0x3ef0c807	0.4702761
145	0x3effc509	0.49955013
146	0x3f294eec	0.6613605
147	0xbf57b334	-0.8425782
148	0x3f51b7f4	0.81921315
149	0x3e15fc34	0.14646989
150	0x3ea9fb72	0.3319965
151	0xbe73f52f	-0.23823999
152	0x3c871d86	0.01649357
153	0xbf08d9cb	-0.53457326
154	0xbdc6e285	-0.09711174
155	0xbd897633	-0.06711998
156	0xbe217b0c	-0.15769595
157	0xbc4ffca8	-0.012694515
158	0xbd63c6a8	-0.055609375
159	0x3adbf8a6	0.0016782477
160	0xbcd25d8f	-0.025679378
161	0x3e945d60	0.2897749
162	0x3f5e8f4e	0.86937416
163	0xbfc42aae	-1.5325525
164	0xbe901db4	-0.28147662
165	0xbecddc9b	-0.4020737
166	0x3f0aea33	0.5426361
167	0xbe810154	-0.25196326
168	0x3fed8b08	1.8558054
169	0xbf1b3040	-0.606205
170	0x3f9945a0	1.1974373
171	0x3fbd427c	1.4785914
172	0xbf0fdcfe	-0.5619658
173	0xbeb4ac84	-0.3528787
174	0xbef32c5a	-0.47494775
175	0x3ed550c2	0.41663176
176	0xbf7db23f	-0.99100107
177	0xbe031904	-0.12802511
178	0xbdbae6aa	-0.09126027
179	0xbd9b8ca7	-0.07595187
180	0xbe45079e	-0.19241187
181	0xbda7f58d	-0.08201132
182	0x3c9a4cfb	0.018835535
183	0xbd8da737	-0.06916659
184	0x3f86a455	1.05189
185	0xbeaddb8a	-0.33956558
186	0xbcd88202	-0.02642918
187	0x3fab37c1	1.337639
188	0x3f03b6c7	0.5145077
189	0xbdb2f88e	-0.08738814
190	0x3efe36d5	0.4965121
191	0xbf4c59c8	-0.79824495
192	0xbf0f44f8	-0.5596461
193	0x3f894a66	1.072583
194	0x3f3280e7	0.6972794
195	0xbf848851	-1.03541
196	0x3f787509	0.9705358
197	0x3fd988a7	1.6994828
198	0x3d192ff5	0.03739925
199	0xbceacd5c	-0.028662376
200	0xbe046667	-0.12929688
201	0xbcc7cdb8	-0.024390087
202	0xbc425662	-0.011861416
203	0x3d30ed9c	0.043195352
204	0x3ced3f29	0.028960781
205	0x3d7bb9c3	0.061456453
206	0x3d57b403	0.052661907
207	0x3ee13c13	0.43991145
208	0x3f6b0ecb	0.9181945
209	0xbf18f79d	-0.5975283
210	0xbf84663d	-1.0343701
211	0xbf1c6584	-0.610924
212	0x3fed22fe	1.8526304
213	0xbeaeaf63	-0.34118184
214	0x3f126d1a	0.57197726
215	0xbec5d692	-0.38640267
216	0xbf2342d1	-0.6377383
217	0xbf6a5cea	-0.91548026
218	0x3f45d1c9	0.7727323
219	0xbe867eb0	-0.2626853
220	0x3fd0bafd	1.6307064
221	0x3d8a1578	0.06742376
222	0x3f080bd3	0.5314304
223	0xbea2f97d	-0.3183097
224	0xbd09b46d	-0.033619333
225	0x3cf2139e	0.02955037
226	0xbc71db9a	-0.01476183
227	0xbdeb557e	-0.11490916
228	0x3b075646	0.0020650788
229	0x3dda715c	0.10666153
230	0x3ea790c6	0.3272764
231	0xbdebc985	-0.11513046
232	0xbfa5410e	-1.2910478
233	0xbf313d00	-0.69233704
234	0x3e4a150e	0.19734594
235	0x3f22a114	0.63527036
236	0xbe078dc7	-0.13237678
237	0xbf8dd6c5	-1.1081167
238	0x3f1b0098	0.6054778
239	0x3fa624f8	1.2980032
240	0xbf15b603	-0.5848085
241	0xbea23cc6	-0.3168699
242	0xbfc6357d	-1.5485073
243	0x3fc75912	1.5574057
244	0x3df3dcee	0.11907373
245	0xbe5199c4	-0.20468813
246	0x3d8ab5db	0.067729674
247	0x3d0a4eb7	0.033766475
248	0xbd6b1349	-0.05739144
249	0xbd453512	-0.048146315
250	0xbd300e52	-0.042982407
251	0x3b2766e6	0.002554351
252	0x3d4094ae	0.047016792
253	0xbe88977d	-0.26678076
254	0x3f96f077	1.1792134
255	0xbf107fe2	-0.56445134

lstm.weight_hh_l0 f4 [512, 128]
0	0x80011112	-9.7959e-41
1	0x00008bf4	5.0206e-41
2	0x00067650	5.93456e-40
3	0x8000c654	-7.1147e-41
4	0x800a2725	-9.32397e-40
5	0x80052434	-4.72165e-40
6	0x80019b73	-1.476e-40
7	0x0001feaa	1.83192e-40
8	0x00024a35	2.10291e-40
9	0x80016503	-1.28072e-40
10	0x00050db9	4.641e-40
11	0x8001f3b9	-1.79267e-40
12	0x00012ecf	1.08627e-40
13	0x0000439e	2.4256e-41
14	0x00050356	4.60374e-40
15	0x800663e9	-5.86854e-40
16	0x0003e8fa	3.59083e-40
17	0x80069725	-6.05233e-40
18	0x000b418d	1.033706e-39
19	0x80010f03	-9.722e-41
20	0x8004143c	-3.74601e-40
21	0x80060a43	-5.54694e-40
22	0x8003af40	-3.38374e-40
23	0x0000d4d5	7.635e-41
24	0x80000894	-3.077e-42
25	0x8000c698	-7.1242e-41
26	0x80056ad9	-4.97507e-40
27	0x000b4dbb	1.038075e-39
28	0x0002ae4c	2.46197e-40
29	0x0005ed8f	5.44397e-40
30	0x0001dd53	1.71232e-40
31	0x80051318	-4.66027e-40
32	0x00058cd2	5.09694e-40
33	0x80061de3	-5.61734e-40
34	0x0000f59c	8.8108e-41
35	0x800503cc	-4.6054e-40
36	0x8001440a	-1.16243e-40
37	0x0006c29e	6.20828e-40
38	0x00001bf1	1.0023e-41
39	0x0005ffab	5.50894e-40
40	0x0003e92b	3.59151e-40
41	0x000559ea	4.91433e-40
42	0x8005f881	-5.48324e-40
43	0x8000ba82	-6.6906e-41
44	0x80062562	-5.64423e-40
45	0x0005d8d4	5.36961e-40
46	0x0003eeef	3.6122e-40
47	0x8002487c	-2.09673e-40
48	0x0006c386	6.21154e-40
49	0x80040339	-3.68498e-40
50	0x00008a31	4.9574e-41
51	0x8005724f	-5.00184e-40
52	0x8001052b	-9.369e-41
53	0x0003f465	3.63179e-40
54	0x8000a055	-5.7516e-41
55	0x000063eb	3.5844e-41
56	0x8004e23c	-4.485e-40
57	0x0004155e	3.75007e-40
58	0x00050e13	4.64226e-40
59	0x800a0afd	-9.22297e-40
60	0x0005b4c0	5.24018e-40
61	0x00033c31	2.97099e-40
62	0x0003f668	3.639e-40
63	0x000100c7	9.2114e-41
64	0x0006819a	5.97505e-40
65	0x8005f849	-5.48245e-40
66	0x8005bd9e	-5.272e-40
67	0x0000157d	7.709e-42
68	0x000b4e7f	1.03835e-39
69	0x0003d085	3.50309e-40
70	0x00068f34	6.02385e-40
71	0x8006a6c9	-6.10844e-40
72	0x00053dc1	4.8133e-40
73	0x80054c97	-4.86653e-40
74	0x0005bb08	5.26272e-40
75	0x80036d4f	-3.14719e-40
76	0x800410dc	-3.7339e-40
77	0x80047a82	-4.1129e-40
78	0x8003440e	-2.9992e-40
79	0x80029539	-2.37202e-40
80	0x8005ec39	-5.43918e-40
81	0x80003ef6	-2.2586e-41
82	0x800684f9	-5.98715e-40
83	0x00030df7	2.80516e-40
84	0x80045479	-3.97645e-40
85	0x800311bc	-2.81868e-40
86	0x80000304	-1.082e-42
87	0x0000eff6	8.6082e-41
88	0x800062c8	-3.5436e-41
89	0x800574fc	-5.01144e-40
90	0x000001d9	6.63e-43
91	0x000466cc	4.04219e-40
92	0x00059d0c	5.15515e-40
93	0x80009cc8	-5.6243e-41
94	0x0005c4f5	5.29832e-40
95	0x00042236	3.79615e-40
96	0x000001ee	6.92e-43
97	0x00031ffa	2.86978e-40
98	0x000126d6	1.05767e-40
99	0x8004dec3	-4.47254e-40
100	0x80011ddc	-1.02547e-40
101	0x0000b590	6.5132e-41
102	0x80061cc5	-5.61334e-40
103	0x8006bf95	-6.1974e-40
104	0x00021a4d	1.93106e-40
105	0x00064c93	5.78483e-40
106	0x800258be	-2.15506e-40
107	0x80012b03	-1.07265e-40
108	0x8004cfe0	-4.41913e-40
109	0x0001853c	1.39631e-40
110	0x0000eb44	8.4397e-41
111	0x0002709b	2.24066e-40
112	0x80029b7f	-2.39452e-40
113	0x000677b4	5.93954e-40
114	0x8001e73e	-1.7479e-40
115	0x800281a7	-2.30181e-40
116	0x8005c305	-5.29137e-40
117	0x80012050	-1.03427e-40
118	0x00010e92	9.7062e-41
119	0x0000910b	5.2032e-41
120	0x8005c9c3	-5.31556e-40
121	0x80012be0	-1.07575e-40
122	0x00055408	4.89322e-40
123	0x00013511	1.10872e-40
124	0x0007f5c9	7.3102e-40
125	0x80008e72	-5.11e-41
126	0x0004c35d	4.37425e-40
127	0x0000eef3	8.5719e-41
128	0x00043418	3.8603e-40
129	0x80041314	-3.74186e-40
130	0x0004a2e7	4.2578e-40
131	0x0006ccbe	6.2446e-40
132	0x80016124	-1.26683e-40
133	0x8004d893	-4.45034e-40
134	0x000043c9	2.4317e-41
135	0x0000f617	8.828e-41
136	0x800113ce	-9.894e-41
137	0x80016720	-1.2883e-40
138	0x0004f19b	4.54014e-40
139	0x0006a6a4	6.10792e-40
140	0x8000a482	-5.9014e-41
141	0x80045eb5	-4.01316e-40
142	0x8005e1b6	-5.40147e-40
143	0x8000aeaf	-6.2665e-41
144	0x80009926	-5.494e-41
145	0x80035181	-3.04745e-40
146	0x00038416	3.2289e-40
147	0x800b2ce3	-1.026293e-39
148	0x0005ac77	5.21046e-40
149	0x8000031f	-1.12e-42
150	0x8006b4b9	-6.15844e-40
151	0x0002f8d4	2.72934e-40
152	0x80006ea0	-3.9685e-41
153	0x00053865	4.79408e-40
154	0x80001e1c	-1.0801e-41
155	0x0001faef	1.81854e-40
156	0x8004d264	-4.42816e-40
157	0x800611e9	-5.57438e-40
158	0x0000c118	6.9269e-41
159	0x8006d007	-6.25639e-40
160	0x80020c28	-1.88032e-40
161	0x000693e7	6.0407e-40
162	0x000406b8	3.69752e-40
163	0x8006d4e9	-6.27391e-40
164	0x8001c7d1	-1.63516e-40
165	0x00005d7b	3.3534e-41
166	0x000121ab	1.03913e-40
167	0x800125e8	-1.05434e-40
168	0x80028cc2	-2.34165e-40
169	0x000647cf	5.76773e-40
170	0x800281b0	-2.30194e-40
171	0x80061217	-5.57502e-40
172	0x8000031b	-1.114e-42
173	0x800170c8	-1.32294e-40
174	0x8001039d	-9.3132e-41
175	0x800778e6	-6.86219e-40
176	0x8007b137	-7.06421e-40
177	0x0002e1e9	2.64712e-40
178	0x800012b0	-6.704e-42
179	0x00008d10	5.0604e-41
180	0x000285a1	2.31608e-40
181	0x8004915c	-4.19487e-40
182	0x8005f7f6	-5.48129e-40
183	0x000a1424	9.2558e-40
184	0x00029ae0	2.3923e-40
185	0x0005c4be	5.29755e-40
186	0x80064692	-5.76329e-40
187	0x8001a6a4	-1.51615e-40
188	0x000425ff	3.80972e-40
189	0x8006aa41	-6.12089e-40
190	0x00012a5f	1.07035e-40
191	0x0000e8ea	8.3554e-41
192	0x80049ad1	-4.2288e-40
193	0x00041127	3.73495e-40
194	0x80068b8d	-6.01074e-40
195	0x0001f34d	1.79115e-40
196	0x80010345	-9.3008e-41
197	0x80040179	-3.6787e-40
198	0x0004aea6	4.29994e-40
199	0x000102c8	9.2833e-41
200	0x80028e60	-2.34746e-40
201	0x800a1655	-9.26366e-40
202	0x00069f72	6.08211e-40
203	0x000676f9	5.93692e-40
204	0x0004a60b	4.26907e-40
205	0x0008060d	7.36855e-40
206	0x80080809	-7.37566e-40
207	0x8005ca3a	-5.31723e-40
208	0x0001fb79	1.82047e-40
209	0x800206ad	-1.86066e-40
210	0x00060286	5.51918e-40
211	0x8000831c	-4.7033e-41
212	0x8002b714	-2.49347e-40
213	0x80007923	-4.3456e-41
214	0x8000e6d5	-8.2807e-41
215	0x00029e47	2.4045e-40
216	0x00047c17	4.11857e-40
217	0x800478c4	-4.10665e-40
218	0x8003bd05	-3.43314e-40
219	0x00015eed	1.25888e-40
220	0x0006d512	6.27448e-40
221	0x00008777	4.8596e-41
222	0x00008eb1	5.1188e-41
223	0x0001277d	1.06001e-40
224	0x8000cf76	-7.4423e-41
225	0x80002d74	-1.6306e-41
226	0x0002c025	2.526e-40
227	0x0006894f	6.0027e-40
228	0x80007f6d	-4.5712e-41
229	0x8002fb51	-2.73826e-40
230	0x800148c0	-1.17933e-40
231	0x8002f3e8	-2.71168e-40
232	0x80061303	-5.57833e-40
233	0x0000ee83	8.5562e-41
234	0x0002ca5a	2.56261e-40
235	0x80044f66	-3.95825e-40
236	0x00054890	4.85208e-40
237	0x0000de9f	7.9861e-41
238	0x00029827	2.38253e-40
239	0x000616e5	5.59226e-40
240	0x8002b5ee	-2.48935e-40
241	0x000b4546	1.035041e-39
242	0x0004ddbe	4.46888e-40
243	0x0000cdce	7.3829e-41
244	0x800203ee	-1.8508e-40
245	0x00059717	5.13378e-40
246	0x800148c9	-1.17946e-40
247	0x00005689	3.1043e-41
248	0x8000c5c0	-7.094e-41
249	0x000016ed	8.224e-42
250	0x0000084e	2.979e-42
251	0x0004e7c2	4.50481e-40
252	0x800364ae	-3.11624e-40
253	0x80001729	-8.308e-42
254	0x800b4832	-1.036089e-39
255	0x0007ff58	7.34449e-40

lstm.bias_ih_l0 f4 [512]
0	0xbea4ce9c	-0.3218888
1	0x3e156a85	0.14591415
2	0x3fbc56b6	1.4713962
3	0xbde755be	-0.11295651
4	0x3ec3f8dd	0.38275805
5	0x3f978d3c	1.1839976
6	0x3f12bb2d	0.5731686
7	0xbf9f33da	-1.2437699
8	0x3eef7153	0.46766147
9	0x3fa9f4ad	1.3277794
10	0x3f3a13d4	0.72686505
11	0xbfae6a7d	-1.3626248
12	0xbe2c98e0	-0.16855192
13	0xbf8bdcc1	-1.0926744
14	0x3f995ee1	1.198208
15	0x3f1a6eb7	0.6032519
16	0x3fc200fd	1.5156552
17	0x3fdb8a9a	1.7151673
18	0x3e8739ee	0.26411384
19	0xbebb0d0d	-0.36533394
20	0x3dff3059	0.124603935
21	0xbedf5e3d	-0.43626586
22	0x3f358dc4	0.7091944
23	0x3e9222c4	0.2854215
24	0xbe6cf835	-0.23141558
25	0xbe9d3182	-0.30701834
26	0x3ebbd71c	0.36687553
27	0x3f208963	0.62709635
28	0xbeee14e5	-0.46500316
29	0xbe084b90	-0.13310075
30	0x3e53faae	0.20701095
31	0xbcacf1f3	-0.021111464
32	0x3ed02941	0.40656474
33	0x3f44f8e5	0.7694228
34	0xbfba81d3	-1.4570869
35	0xbd574ea0	-0.052565217
36	0x3f36f84e	0.7147263
37	0x3f283ba8	0.6571603
38	0x3f03bee8	0.51463175
39	0xbfb6a864	-1.4270139
40	0x3f87ff0d	1.062471
41	0xbddd5bca	-0.10808523
42	0x3faa1ba7	1.3289689
43	0xbf47674c	-0.77891994
44	0x3f218903	0.6309969
45	0x3f04859a	0.5176636
46	0x3d956f1d	0.07296584
47	0x3e4c6c8b	0.19963281
48	0x3fcc0c5f	1.5941275
49	0xbf4fa66f	-0.8111333
50	0x3ecf8b1e	0.40535825
51	0xbe0131c5	-0.12616642
52	0xbede8d86	-0.4346735
53	0xbd1a1520	-0.037617803
54	0x3fbe92b4	1.488852
55	0x4022ba94	2.5426378
56	0x3e8a7780	0.27044296
57	0x3db09d6d	0.086237766
58	0x3f60d6ca	0.8782774
59	0xbf127b9a	-0.5721985
60	0xbfa46336	-1.2842777
61	0xbf35caf7	-0.71012825
62	0xbfd99df5	-1.700133
63	0x4000816c	2.0078993
64	0xbf2820a4	-0.65674806
65	0x3f9e4840	1.2365799
66	0x3ff2c86b	1.8967413
67	0xbf24661f	-0.64218324
68	0xbc17bea1	-0.009261758
69	0xbf3f58b6	-0.7474474
70	0xbe901767	-0.28142855
71	0x3e4f21b0	0.20227695
72	0xbe8d1b09	-0.2755969
73	0x3f9912f3	1.1958908
74	0xbf7b30a7	-0.9812111
75	0x3f94a946	1.1614158
76	0xbfb885a7	-1.4415787
77	0x3f2e9da9	0.6820932
78	0xbf03e7fd	-0.5152586
79	0x3fbb24d1	1.462061
80	0xbeb5dda9	-0.35520676
81	0x3ff3a05d	1.9033314
82	0x3fc9f240	1.5777054
83	0x3f4f9c62	0.81097996
84	0xbee5ceea	-0.44884425
85	0xbf2f915a	-0.68581164
86	0x3e9b78c9	0.3036559
87	0x3dd8aac5	0.10579447
88	0x3c87e65e	0.01658934
89	0x3ef1da81	0.47237018
90	0xbf341508	-0.7034459
91	0xbe3db76b	-0.18527
92	0x3edc8df8	0.43077064
93	0xbebbf5e0	-0.36711025
94	0x3eae27b0	0.34014654
95	0x3f072bab	0.5280101
96	0x3ef39e61	0.4758177
97	0x3f977ea1	1.1835519
98	0xbd22840e	-0.03967672
99	0xbf14934e	-0.5803727
100	0x3fd78cbf	1.6839827
101	0x3fa8893d	1.3166882
102	0xbe725261	-0.23664238
103	0x3cae7d00	0.021299839
104	0x3eb2f678	0.34953666
105	0xbd192698	-0.03739032
106	0x3f00ea46	0.5035747
107	0xbfb7ba52	-1.4353735
108	0xbfe3d297	-1.7798642
109	0x3ee0a195	0.43873277
110	0x3e2644b5	0.16237147
111	0x3f7835a0	0.96956825
112	0xbf8780f8	-1.0586233
113	0xbd0ac3a6	-0.03387799
114	0x3f371284	0.7151263
115	0xbf9ad327	-1.2095689
116	0xbf37d26e	-0.71805465
117	0x3f0aff3a	0.54295695
118	0x3fa64e0e	1.299257
119	0x3dfcc9ac	0.12343153
120	0x3f130a3b	0.57437485
121	0xbeaf36d4	-0.34221518
122	0x3c4ec561	0.012620301
123	0x3f1e7ff9	0.6191402
124	0x3e20a3d3	0.15687494
125	0xbf4f9150	-0.81081104
126	0x3eb119ee	0.34590095
127	0x3fa353bb	1.2759928
128	0x00045d07	4.00714e-40
129	0x8001033a	-9.2993e-41
130	0x80020511	-1.85488e-40
131	0x80007b96	-4.4334e-41
132	0x8002c436	-2.54058e-40
133	0x80069c33	-6.07047e-40
134	0x8006d299	-6.26561e-40
135	0x80016167	-1.26777e-40
136	0x80061bcc	-5.60985e-40
137	0x8006c76b	-6.2255e-40
138	0x800371c6	-3.16321e-40
139	0x8002739c	-2.25144e-40
140	0x0003e946	3.59189e-40
141	0x0000888f	4.8988e-41
142	0x0000c452	7.0426e-41
143	0x800b1fc8	-1.021591e-39
144	0x000026ba	1.3892e-41
145	0x8005c80a	-5.30938e-40
146	0x00003d53	2.1999e-41
147	0x0000f2cb	8.7098e-41
148	0x00033376	2.93967e-40
149	0x800210b7	-1.89667e-40
150	0x00004b6a	2.7053e-41
151	0x800a2b45	-9.33877e-40
152	0x0003351a	2.94556e-40
153	0x80001965	-9.11e-42
154	0x8002c401	-2.53984e-40
155	0x8003ac95	-3.37417e-40
156	0x0002b892	2.49882e-40
157	0x000a2787	9.32535e-40
158	0x8004d3c3	-4.43308e-40
159	0x8000431e	-2.4077e-41
160	0x80068855	-5.9992e-40
161	0x0003329e	2.93665e-40
162	0x00012a8f	1.07103e-40
163	0x80007e64	-4.534e-41
164	0x8000abd5	-6.1642e-41
165	0x0003951d	3.28998e-40
166	0x8006360b	-5.704e-40
167	0x8001bed3	-1.6029e-40
168	0x8003a937	-3.3621e-40
169	0x80047dd5	-4.12482e-40
170	0x0007a89f	7.03338e-40
171	0x80012124	-1.03724e-40
172	0x80027d6c	-2.28664e-40
173	0x80005f2d	-3.4143e-41
174	0x80013727	-1.1162e-40
175	0x8000e7fc	-8.322e-41
176	0x0005eae4	5.4344e-40
177	0x800033e0	-1.8609e-41
178	0x80032cfa	-2.91641e-40
179	0x00061f14	5.62162e-40
180	0x0007b5e4	7.08099e-40
181	0x0002aea4	2.4632e-40
182	0x80046e07	-4.06812e-40
183	0x8003bab1	-3.42479e-40
184	0x000589f2	5.08663e-40
185	0x8000446b	-2.4544e-41
186	0x00013343	1.10225e-40
187	0x00061687	5.59094e-40
188	0x000a279a	9.32561e-40
189	0x8006c3be	-6.21232e-40
190	0x0000e640	8.2598e-41
191	0x8006d1f6	-6.26333e-40
192	0x00041d5f	3.77878e-40
193	0x80017b45	-1.36056e-40
194	0x00060326	5.52142e-40
195	0x800660af	-5.85697e-40
196	0x80054777	-4.84814e-40
197	0x0000db04	7.8568e-41
198	0x80053b4b	-4.80448e-40
199	0x0003ef64	3.61384e-40
200	0x8001a75c	-1.51873e-40
201	0x0005545d	4.89441e-40
202	0x800b434c	-1.034332e-39
203	0x00008990	4.9348e-41
204	0x8005522e	-4.88658e-40
205	0x8004fef0	-4.58796e-40
206	0x80039b83	-3.31294e-40
207	0x8007b106	-7.06353e-40
208	0x00061a8e	5.60539e-40
209	0x000b2b23	1.025665e-39
210	0x8003d6ce	-3.52564e-40
211	0x0001d50a	1.6826e-40
212	0x800196ba	-1.45906e-40
213	0x800a2308	-9.30922e-40
214	0x80007f52	-4.5674e-41
215	0x0000f84f	8.9076e-41
216	0x00000730	2.578e-42
217	0x8006649e	-5.87108e-40
218	0x80012559	-1.05233e-40
219	0x0006c274	6.2077e-40
220	0x800669ad	-5.88922e-40
221	0x8000ea7d	-8.4119e-41
222	0x80016720	-1.2883e-40
223	0x80007eff	-4.5558e-41
224	0x80050b07	-4.63133e-40
225	0x80003e5d	-2.2372e-41
226	0x8003f13c	-3.62045e-40
227	0x00035270	3.0508e-40
228	0x00013b33	1.13072e-40
229	0x80003ae5	-2.1127e-41
230	0x800566ce	-4.96057e-40
231	0x0002c108	2.52918e-40
232	0x8003ea00	-3.5945e-40
233	0x8004226c	-3.7969e-40
234	0x80065bbd	-5.83922e-40
235	0x80068cd6	-6.01535e-40
236	0x8004e3c4	-4.49049e-40
237	0x000110c3	9.7848e-41
238	0x80008009	-4.593e-41
239	0x80054b7f	-4.8626e-40
240	0x0000b48c	6.4768e-41
241	0x800b3350	-1.028598e-39
242	0x8000062e	-2.217e-42
243	0x0006c08a	6.20083e-40
244	0x80044d03	-3.94969e-40
245	0x80023edf	-2.06225e-40
246	0x80012705	-1.05833e-40
247	0x0001459c	1.16807e-40
248	0x800b8de1	-1.061087e-39
249	0x00005ca4	3.3233e-41
250	0x80008a89	-4.9697e-41
251	0x00011193	9.814e-41
252	0x0002aaed	2.44988e-40
253	0x00003f72	2.276e-41
254	0x0006bfcc	6.19817e-40
255	0x8006157b	-5.58719e-40

lstm.bias_hh_l0 f4 [512]
0	0xbeb04aeb	-0.34432158
1	0x3e2ebdec	0.17064637
2	0x3fc015e2	1.5006678
3	0xbdcac1e7	-0.09900265
4	0x3eea4065	0.45752254
5	0x3f900b55	1.1253458
6	0x3f0c0644	0.5469706
7	0xbfa451b7	-1.2837437
8	0x3ebe6a3a	0.3719042
9	0x3fa66f1f	1.3002661
10	0x3f2e8179	0.6816631
11	0xbfb154f7	-1.3854054
12	0xbe31c95f	-0.17361973
13	0xbf8a44fc	-1.0802302
14	0x3f91ff16	1.1405971
15	0x3f20fd69	0.62886673
16	0x3fc314d4	1.5240731
17	0x3fdc59fc	1.7214961
18	0x3eb45afd	0.3522567
19	0xbe9d177d	-0.30681983
20	0x3e1c5dc7	0.15270148
21	0xbedcbe6e	-0.43114036
22	0x3f29f136	0.66383684
23	0x3eb1d3b6	0.34731835
24	0xbe482a21	-0.19547321
25	0xbe8cc06f	-0.27490565
26	0x3ea96cc5	0.33090797
27	0x3f1fd2c9	0.6243101
28	0xbeed90f1	-0.46399644
29	0xbe688369	-0.22706379
30	0x3e574887	0.2102376
31	0x3d470b81	0.048594955
32	0x3ee0480d	0.4380497
33	0x3f30ba80	0.69034576
34	0xbfc2ec44	-1.5228353
35	0xbd93e927	-0.07222205
36	0x3f310302	0.69145215
37	0x3f27ae65	0.6550048
38	0x3f0cc2a1	0.5498448
39	0xbfbd2e33	-1.4779724
40	0x3f82efc7	1.0229424
41	0xbdff55eb	-0.124675594
42	0x3facd63d	1.350288
43	0xbf3aa83a	-0.72912943
44	0x3f248c15	0.6427625
45	0x3f063cad	0.52436334
46	0x3d7ff288	0.062487155
47	0x3e527080	0.20550728
48	0x3fd21f08	1.641572
49	0xbf3fe8f7	-0.7496485
50	0x3ec48045	0.38379112
51	0xbdffb1e6	-0.12485103
52	0xbf097e61	-0.53708464
53	0xbd4dba1b	-0.050226312
54	0x3fbdcba7	1.4827775
55	0x4025e966	2.5923705
56	0x3e646141	0.22302724
57	0x3e22b267	0.15888368
58	0x3f68bd7a	0.9091412
59	0xbf0b4276	-0.54398286
60	0xbfa5c9af	-1.2952174
61	0xbf2ff695	-0.6873563
62	0xbfe1f2cc	-1.7652221
63	0x3ffd0283	1.9766392
64	0xbf13b0bc	-0.5769155
65	0x3f9c7707	1.2223824
66	0x3ff02db8	1.8763952
67	0xbf306250	-0.6890001
68	0xbd7f0632	-0.062261768
69	0xbf3bdfeb	-0.73388547
70	0xbeadcb6e	-0.33944267
71	0x3e45e3d8	0.19325197
72	0xbe7e61c9	-0.2484199
73	0x3f95f73e	1.1716077
74	0xbf74432a	-0.95414984
75	0x3f957a94	1.1678033
76	0xbfbd95c5	-1.4811331
77	0x3f1a2686	0.6021503
78	0xbf167b3f	-0.5878181
79	0x3fba0ee9	1.45358
80	0xbec0f73d	-0.37688628
81	0x3ff78c4a	1.9339688
82	0x3fc97b0b	1.5740675
83	0x3f513606	0.8172306
84	0xbef34a33	-0.47517547
85	0xbf3fe8bf	-0.7496452
86	0x3e4734ae	0.1945369
87	0x3dd90629	0.10596878
88	0x3d592684	0.053015247
89	0x3ee1bd41	0.44089702
90	0xbf234079	-0.6377025
91	0xbe2c2ec9	-0.16814722
92	0x3edac2d7	0.42726776
93	0xbe7b9595	-0.2456878
94	0x3ec1588c	0.37762868
95	0x3f1db4a6	0.6160377
96	0x3eee72c2	0.46571928
97	0x3f957b3e	1.1678236
98	0x3af6e7f8	0.0018837443
99	0xbf0b4ba4	-0.54412293
100	0x3fd849c9	1.6897517
101	0x3fa68c40	1.3011551
102	0xbe4b636e	-0.19862148
103	0x3bfe690f	0.007763989
104	0x3ea55234	0.32289279
105	0xbdd4fa01	-0.10399247
106	0x3ef2f086	0.4744913
107	0xbfb9976b	-1.4499334
108	0xbfe39688	-1.7780313
109	0x3ef48b7f	0.47762677
110	0x3e6b2b82	0.22965816
111	0x3f7be2f4	0.9839318
112	0xbf84f73a	-1.0387948
113	0xba4c53bd	-0.00077944604
114	0x3f3c3158	0.7351279
115	0xbf8df3c6	-1.1090019
116	0xbf350f67	-0.7072663
117	0x3f0e60e3	0.5561659
118	0x3fa689cc	1.3010802
119	0x3e1bb3ac	0.15205258
120	0x3f1412b6	0.5784105
121	0xbe96667c	-0.29375064
122	0x3d646f72	0.055770345
123	0x3f11ffde	0.5703105
124	0x3e47c74b	0.19509618
125	0xbf679fc9	-0.9047819
126	0x3ec07daa	0.37595874
127	0x3fad1025	1.3520552
128	0x0002954e	2.37231e-40
129	0x000110cc	9.7861e-41
130	0x0001fd48	1.82696e-40
131	0x00044904	3.93535e-40
132	0x00069362	6.03884e-40
133	0x8000ef2f	-8.5803e-41
134	0x000806bc	7.371e-40
135	0x0002b46f	2.48398e-40
136	0x00005a41	3.2377e-41
137	0x8003c6f7	-3.46882e-40
138	0x0007a9fa	7.03825e-40
139	0x00012c38	1.07698e-40
140	0x80000ca3	-4.533e-42
141	0x0006b66d	6.16455e-40
142	0x800071fb	-4.0888e-41
143	0x80050ce1	-4.63798e-40
144	0x0006c4be	6.21591e-40
145	0x80048fcd	-4.18928e-40
146	0x80042849	-3.81794e-40
147	0x800517b5	-4.67682e-40
148	0x00040bde	3.71599e-40
149	0x800b486f	-1.036175e-39
150	0x0003112f	2.81671e-40
151	0x80022365	-1.96368e-40
152	0x0000f761	8.8743e-41
153	0x0004e653	4.49967e-40
154	0x80041fd7	-3.78764e-40
155	0x0006459c	5.75984e-40
156	0x80024e4b	-2.11757e-40
157	0x0005cd11	5.32741e-40
158	0x800053d7	-3.0076e-41
159	0x0006bdc7	6.19092e-40
160	0x00004836	2.5904e-41
161	0x8003f9a9	-3.65068e-40
162	0x8001bead	-1.60237e-40
163	0x800099b1	-5.5134e-41
164	0x8001177d	-1.00262e-40
165	0x00018fba	1.43395e-40
166	0x8005e131	-5.39961e-40
167	0x8000bb66	-6.7226e-41
168	0x8004113f	-3.73529e-40
169	0x000b2519	1.023499e-39
170	0x0000caae	7.2708e-41
171	0x00033444	2.94256e-40
172	0x0003cf0e	3.49784e-40
173	0x0006c6b6	6.22297e-40
174	0x000047bb	2.5732e-41
175	0x00077aa3	6.86842e-40
176	0x80054949	-4.85467e-40
177	0x00011997	1.01015e-40
178	0x80065f1d	-5.85133e-40
179	0x8006dd57	-6.30415e-40
180	0x0006be0e	6.19192e-40
181	0x8004a706	-4.27259e-40
182	0x8003b527	-3.40492e-40
183	0x800b24ae	-1.023349e-39
184	0x80001cba	-1.0305e-41
185	0x800503b2	-4.60503e-40
186	0x00003c95	2.1733e-41
187	0x00016654	1.28544e-40
188	0x000a1400	9.2553e-40
189	0x8006741b	-5.92664e-40
190	0x8003dabd	-3.53975e-40
191	0x0005dbc7	5.38019e-40
192	0x800108c9	-9.4987e-41
193	0x8004eebc	-4.52984e-40
194	0x8006678e	-5.88161e-40
195	0x0005b8c7	5.25463e-40
196	0x0006a916	6.1167e-40
197	0x00026169	2.18615e-40
198	0x8000c389	-7.0145e-41
199	0x8002dbf9	-2.62582e-40
200	0x000631cf	5.68881e-40
201	0x8003e96f	-3.59247e-40
202	0x000a19c4	9.27598e-40
203	0x8005d562	-5.35725e-40
204	0x00006832	3.7378e-41
205	0x8002abc3	-2.45287e-40
206	0x00041bee	3.77361e-40
207	0x8001eee2	-1.7753e-40
208	0x80011d4e	-1.02348e-40
209	0x0000946c	5.3244e-41
210	0x80002c21	-1.583e-41
211	0x000046d9	2.5415e-41
212	0x8002943e	-2.3685e-40
213	0x0003e772	3.58533e-40
214	0x8004a100	-4.25098e-40
215	0x0006b07d	6.14325e-40
216	0x000b401c	1.033189e-39
217	0x000b1eaa	1.02119e-39
218	0x8006cd1a	-6.2459e-40
219	0x0006a337	6.09563e-40
220	0x80062954	-5.65839e-40
221	0x800019fe	-9.324e-42
222	0x0005d7f7	5.36651e-40
223	0x0002ede5	2.69011e-40
224	0x0005d219	5.34546e-40
225	0x8006a9bd	-6.11904e-40
226	0x0002acd2	2.45667e-40
227	0x00052e8c	4.75875e-40
228	0x0000782d	4.3111e-41
229	0x00001282	6.64e-42
230	0x0001f418	1.794e-40
231	0x8004cd10	-4.40905e-40
232	0x0005f856	5.48264e-40
233	0x00028957	2.32939e-40
234	0x00003be1	2.148e-41
235	0x00048d5e	4.18055e-40
236	0x80029ef4	-2.40693e-40
237	0x80051e21	-4.69986e-40
238	0x8003f279	-3.62489e-40
239	0x8002baf3	-2.50736e-40
240	0x0003514d	3.04672e-40
241	0x000425eb	3.80944e-40
242	0x8003ca04	-3.47976e-40
243	0x0005018b	4.59731e-40
244	0x8000f77c	-8.878e-41
245	0x0005125b	4.65762e-40
246	0x000024ee	1.3248e-41
247	0x00011319	9.8686e-41
248	0x80022f02	-2.00534e-40
249	0x000b3033	1.027481e-39
250	0x0000a95a	6.0752e-41
251	0x0005bca5	5.2685e-40
252	0x8006d3ee	-6.27039e-40
253	0x80003528	-1.9069e-41
254	0x0006a1c3	6.09042e-40
255	0x80055766	-4.9053e-40

linear.weight f4 [17, 128]
0	0x3dde7bd5	0.10863463
1	0xbe2fc6bf	-0.1716566
2	0xbd57d408	-0.052692443
3	0x3e29c4d1	0.16578986
4	0xbc8dcb18	-0.017308757
5	0xbc3a6cc9	-0.011378475
6	0x3e65ce48	0.22441971
7	0xbeb00309	-0.34377316
8	0xbe582f63	-0.21111827
9	0xbcf9b94f	-0.03048387
10	0x3bf306c8	0.00741658
11	0x3e338d8a	0.17534462
12	0xbdee463e	-0.116344914
13	0x3da2f067	0.07956009
14	0x3e0d585b	0.13803236
15	0x3d16e64e	0.03684073
16	0xbe04d9a1	-0.12973644
17	0xba115a1b	-0.0005544738
18	0x3ac0d276	0.001471116
19	0xbea25869	-0.31708077
20	0xbd99651b	-0.074899875
21	0x3e4bdd95	0.19908746
22	0x3a4b426b	0.00077537325
23	0xbeabfdd2	-0.33592087
24	0x3dbe51d3	0.092929505
25	0x3d38b313	0.045092653
26	0xbe25a957	-0.1617788
27	0x3d980bbf	0.074241154
28	0xbf284c00	-0.65740967
29	0xbe131c9e	-0.14366385
30	0xbc53b2b0	-0.01292102
31	0xbca65c75	-0.020307759
32	0xbcd153d5	-0.02555267
33	0xbdabb287	-0.08383661
34	0x3e8e3ba9	0.27779892
35	0x3e2609f4	0.16214734
36	0x3e19e022	0.15026906
37	0xbde08f6d	-0.10964856
38	0xbd2bf2cb	-0.041979592
39	0x3d1c8235	0.038210113
40	0xbd2bc032	-0.04193134
41	0x3d9ed62e	0.07755695
42	0x3c88e89d	0.016712481
43	0x3dcb9c73	0.0994195
44	0xbc4dd538	-0.012563042
45	0xbe3d6163	-0.18494181
46	0xbc657c0b	-0.014006625
47	0xbe4b2df0	-0.19841743
48	0xbd3c0161	-0.045899753
49	0xbe1784df	-0.1479678
50	0x3cce1a85	0.02515913
51	0xbebfaa73	-0.3743473
52	0x3e5aac6c	0.21354836
53	0x3e789fb8	0.24279678
54	0xbb07356f	-0.0020631214
55	0x3d413b29	0.04717556
56	0x3dfa20a1	0.12213255
57	0x3d1a6e2a	0.037702717
58	0x3c4223c7	0.01184935
59	0x3e125df4	0.14293653
60	0x3e06ba68	0.13157046
61	0x3d004583	0.03131629
62	0xbeb02c26	-0.34408683
63	0x3c6a2db5	0.014293124
64	0xbdb2fc08	-0.087394774
65	0x3d0e1cd7	0.034695473
66	0x3cb380d2	0.021912012
67	0x3c96ac25	0.018392632
68	0x3e19b4e9	0.15010418
69	0xbe44180a	-0.19149795
70	0xbe0d7701	-0.13814928
71	0x3d169720	0.036765218
72	0x3d940f35	0.07229463
73	0xbdb923f7	-0.09040063
74	0xbdc51e1f	-0.09624886
75	0xbd7cbcc2	-0.06170345
76	0x3e4a6990	0.19766831
77	0x3c853e28	0.01626499
78	0xbe0bf6ff	-0.1366844
79	0xbd5d0073	-0.053955507
80	0x3e72d9af	0.23715852
81	0xbe03e56d	-0.12880488
82	0xbe58a177	-0.21155344
83	0x3e4118c1	0.18857099
84	0x3ba3001b	0.004974378
85	0x3e015c02	0.12632754
86	0x3d3cf242	0.046129473
87	0xbb199f14	-0.0023440765
88	0x3ed25f4a	0.41088325
89	0x3eb53345	0.35390678
90	0xbd05d475	-0.032673318
91	0x3e586a13	0.21134214
92	0x3c461c51	0.012091712
93	0xbcfb6829	-0.030689316
94	0x3d56db99	0.05245552
95	0x3c61e11e	0.013786582
96	0x3ca080fc	0.019592755
97	0x3d238665	0.03992309
98	0x3e63b49c	0.22236866
99	0xbd334ee1	-0.043776397
100	0xbd8da554	-0.069162995
101	0x3de3d7b1	0.11125124
102	0xbed04f8e	-0.40685695
103	0x3ce0c447	0.027437342
104	0x3c475064	0.012165163
105	0xbd8b3b0f	-0.06798374
106	0xbe27940b	-0.16365068
107	0xbdaf5045	-0.08560232
108	0xbd160ce4	-0.036633387
109	0x3e6841eb	0.22681396
110	0xbe018293	-0.12647466
111	0xbc739e0c	-0.014869224
112	0xbe289c3d	-0.1646585
113	0x3dea7e70	0.11449897
114	0xbe8ff20b	-0.28114352
115	0x3e7efd37	0.24901281
116	0xbd0c9e23	-0.0343305
117	0xb9f2d73e	-0.00046318205
118	0x3ce2c1a1	0.02768022
119	0xbc3c1483	-0.0114795
120	0x3c8e9727	0.01740606
121	0xbe030548	-0.12794983
122	0xbd3a7867	-0.04552498
123	0x3e74e3af	0.2391498
124	0x3c8b8acc	0.017033957
125	0x3e97b3b2	0.29629284
126	0x3d89083d	0.066910245
127	0xbce8bc60	-0.028410137
128	0xbdfe59f4	-0.12419501
129	0x3d983f9a	0.07434006
130	0x3d969e36	0.07354395
131	0x3dc7122e	0.097202644
132	0xbdb19bea	-0.08672316
133	0xbcb33786	-0.021877062
134	0x3cd44a10	0.025914222
135	0xbd4e358a	-0.050344028
136	0xbe4764c0	-0.19472027
137	0x3e943414	0.28945982
138	0x3d34c6be	0.044134848
139	0xbef12f7a	-0.47106534
140	0xbde6f4be	-0.112771496
141	0xbda6ff23	-0.08154132
142	0xbe0b76a6	-0.1361948
143	0xbd903757	-0.07041805
144	0x3b782907	0.003786625
145	0xbca3c141	-0.019989612
146	0xbdae4528	-0.08509284
147	0x3df9d1a3	0.12198188
148	0x3d055cc1	0.03255916
149	0xbd70b49d	-0.058765996
150	0x3e7d7566	0.24751815
151	0xbe66b087	-0.22528277
152	0xbe217056	-0.15765509
153	0xbe0b9437	-0.13630758
154	0xbd7e386f	-0.062065538
155	0x3d94984d	0.072556116
156	0x3f1e4cc7	0.618359
157	0xbd3288c7	-0.043587472
158	0x3df32ea8	0.11874133
159	0x3e2f0ff1	0.17095925
160	0xbd6b93d5	-0.05751403
161	0xbdd529c0	-0.10408354
162	0x3e116941	0.14200307
163	0xbe0d68b5	-0.13809474
164	0x3e42b452	0.19014099
165	0xbd944920	-0.0724051
166	0xbd937ad8	-0.07201165
167	0x3d8736d4	0.066022545
168	0xbd44e7f2	-0.048072763
169	0xbe162d4e	-0.1466572
170	0x3d185713	0.037192415
171	0x3c9e029a	0.01928835
172	0xbdc6b1af	-0.09701859
173	0x3b359478	0.0027706902
174	0x3e0d51d3	0.13800745
175	0x3da29f51	0.079405434
176	0xbe06d8af	-0.13168596
177	0xbe4e2238	-0.20130241
178	0xbdf0a022	-0.11749293
179	0x3e0897b1	0.13339116
180	0x3d782f29	0.06059185
181	0xbe68c070	-0.22729659
182	0xbc4a09a5	-0.012331401
183	0x3be00654	0.006836692
184	0x3dbf0f71	0.09329117
185	0xbd76bcdf	-0.060238715
186	0xbd7f80a7	-0.06237855
187	0x3c3fc577	0.011704794
188	0xbdc690ef	-0.09695613
189	0x3de13177	0.10995763
190	0x3e77900c	0.24176043
191	0x3c88c99b	0.016697695
192	0x3e2c630d	0.1683466
193	0x3d4b3e89	0.049620185
194	0x3d91eb12	0.07124914
195	0x3e1c31a8	0.15253317
196	0xbe3c0f20	-0.18365145
197	0x3eefaad6	0.46810025
198	0x3c225574	0.009908069
199	0x3ccb9592	0.024851594
200	0xbda3f403	-0.08005526
201	0x3d25c592	0.04047162
202	0x3e17149c	0.14753956
203	0xbcf08082	-0.029358152
204	0xbe7b6a03	-0.24552159
205	0xbcdb6e85	-0.026786098
206	0xbec50867	-0.38482973
207	0x3da9986e	0.08281027
208	0xbe088fa6	-0.13336048
209	0xbd5b133b	-0.053485136
210	0xbebd5718	-0.3698051
211	0x3d6a881b	0.057258707
212	0x3db38934	0.08766404
213	0x3db96e50	0.090542436
214	0xbf03f8a4	-0.5155127
215	0xbdb779b4	-0.0895876
216	0xbd9bad0e	-0.07601367
217	0x3e81b703	0.2533494
218	0xbecc1174	-0.39857066
219	0x3b40c472	0.0029413966
220	0xbdf8cdb3	-0.12148609
221	0x3e145d31	0.14488675
222	0xbd790200	-0.060792923
223	0xbdd9be14	-0.10631958
224	0x3b923fe9	0.004463185
225	0xbe3f05b2	-0.18654516
226	0xbdbfb732	-0.093611136
227	0x3e755c2b	0.2396094
228	0x3ce667f2	0.028125737
229	0x3d2ea185	0.042634506
230	0xbe56edd2	-0.20989159
231	0xbd1a2230	-0.03763026
232	0xbdb50f98	-0.08840865
233	0xbe3944c2	-0.18092635
234	0x3e3a14a3	0.18171935
235	0x3ef139ef	0.47114512
236	0xbd4de833	-0.05027027
237	0x3cadc1c3	0.021210557
238	0xbde8d983	-0.11369612
239	0x3d5ef05f	0.054428454
240	0x3df4bd67	0.11950188
241	0xbc62ddd4	-0.013846833
242	0x3dd8edd3	0.10592236
243	0x3d8c54d8	0.0685212
244	0xbe64b248	-0.22333634
245	0x3cba4c74	0.022741534
246	0xbe19cbfb	-0.15019219
247	0xbc6b0263	-0.014343831
248	0x3e4b79c7	0.19870673
249	0xbc63e6fc	-0.013910051
250	0x3c81813b	0.015808692
251	0xbcb21f70	-0.021743506
252	0xbc27573c	-0.010213669
253	0x3e0658c4	0.13119799
254	0xbe6ec826	-0.23318538
255	0xbe78dff8	-0.24304187

linear.bias f4 [17]
0	0xbf15d89f	-0.5853366
1	0xbee4a334	-0.44655764
2	0x3e0c596a	0.13705984
3	0xbe6ad097	-0.22931133
4	0x3eb95de4	0.36204445
5	0xbe0cfe23	-0.1376882
6	0xbe479e5a	-0.19494
7	0xbe79c188	-0.24390233
8	0x3f1b64df	0.6070079
9	0x3e50b5ae	0.20381805
10	0xbc1fdf96	-0.009757897
11	0xbd499940	-0.049218416
12	0xbefd53d8	-0.4947803
13	0x3d85c663	0.0653198
14	0xbf3db243	-0.7410013
15	0x3e894977	0.26813862
16	0xbeef3632	-0.46721035
