TORL/config/halfcheetah/halfcheetah_medium_v2_vae.pt (torch, 677761 bytes, 12 tensors)

encoder.0.weight f4 [256, 23]
00000000: caff 473d c4b6 fa3c 46e2 62be 6731 66be
00000010: a7d8 8bbd a9cf 063e e510 1dbd 2f48 403e
00000020: 7cd7 943d fd88 9c3b 9c7a 323c a43b bfbc
00000030: f8f1 86be c1ce d2bd 2ad5 3abe 4f64 a93d
00000040: c606 1b3e 703d 8b3d 95a3 2fbe d34a a3bd
00000050: b8b9 1f3e d99f 093e 9465 b9bc efa0 603e
00000060: 9a84 e0bd 1c7b ad3d 6cb2 1b3e c427 e6bd
00000070: 5348 77be fb63 1bbe 46cf 54bd b43a b53d
00000080: be5d 5bbd edd4 bdbd 598d 43be 7c1d 35be
00000090: c671 fbbc 7272 a03e 91c2 acbb 6334 0d3e
000000a0: 4dd8 c83c 1a14 d2bd 45b1 6a3d 4e0f 81be
000000b0: 37ab 36be b93f f83a 570f 023e 622e ad3d
000000c0: 98b6 40be 121c 863c 806d d43d 9863 923e
000000d0: 024a 0b3e 6cd0 a93d 1175 1a3e 0460 08be
000000e0: 4771 463d 4d52 15be da3c 11be 37d7 88bd
000000f0: 91ba a53c 6787 643d a52e c4bd 8a42 18bc
00000100: 0b74 db3d ff8c d5bc 07e4 d13c 69b2 633d
00000110: 7fa6 123e 4942 f93d 8f95 afbd bebd 59bd
00000120: c00a b13d 38b2 583e 70fd 743e f88d e13d
00000130: 8413 6e3d 9844 6abe efb0 19bc 61e2 02be
00000140: 5d90 16be 26d9 203e 5f2e 373e 274e 68be
00000150: bd43 2cbc 3215 1a3c 6ce1 383b 9e73 95bd
00000160: 9162 fb3d 11fe 15be 1af6 673d 40d2 453d
00000170: 86f8 1e3e cd02 2d3e b3b2 75bd 4f51 ccbd
00000180: 392e 3f3e 9ce2 333d e050 bcbd a12b 2fbe
00000190: bee1 5c3e 13b8 563e cb24 8ebc e8f3 85bd
000001a0: a7c7 67be 13f7 e23b 66a0 31be afbf 28be
000001b0: 118f a4bc 8936 003d a6b3 06be f27c 593d
000001c0: a48d a5bc 2635 2c3e d46d 0a3e 471f 4bbe
000001d0: 7bce 58bd 4664 d5bc 6b53 d43c e457 22bb
000001e0: b699 1b3e a040 1e3c 7fd1 adbd 21e1 bc3d
000001f0: 9621 36be c156 39be 3ad6 e43b 8484 5dbd
00000200: 9b4b fc3b dcf3 13be 4bbe 62bd 3e98 553d
00000210: d7bc 81bd 5559 8f3c bcbe 1d3e 63f4 8ebd
00000220: 75df 82bd a767 19bd 13f0 383d 02dc 043e
00000230: 0804 6a3e 24bc 0d3e 668e 813e 91a6 aabc
00000240: 7edb 42be 7194 e2bd cd9b 063e bf10 5abc
00000250: 2f64 d6bd 3ce7 3cbe 0dc6 17be 27de 71be
00000260: b6d3 3ebc ee9d a03d a3f6 9c3d 70eb 0abe
00000270: 9684 ec3d 2a71 2dbe 1ded c0bd 6f91 03be
00000280: dc0f 30bc 039c f93c 4380 5bbd c04e e6bd
00000290: e5d4 29bd f638 283d 0f64 f3bc 7d1c b83d
000002a0: b841 5dbe 40e5 29bd 749b 533e 24a2 bcbd
000002b0: 73c5 fc3d 6988 e43d 51e8 39be 403e 463e
000002c0: 9983 13bd 887d 0ebd 9ac3 513e 4c14 86be
000002d0: 7396 823d 7df0 9dbd d6b4 0b3e 5e1a 113d
000002e0: aa5d a03d 51b2 153d 499f 13bd 0e4c f5bc
000002f0: 5c48 3ebe ebf6 473d b424 203e 82c1 073e
00000300: d38e 19be eef3 e93c 3e8c 3ebe 0c6a afbd
00000310: eff9 e8bd b9ce d73c a72b edbd 98b8 38bc
00000320: 0f61 b43c 2d07 023e 4b45 ebbd 8f1b c3bd
00000330: 38d6 58be 962c fa3d 6b02 63bd 88bb fc3d
00000340: 0e89 383c d742 25bd 291a 57bd 12b6 3bbe
00000350: e8f6 833c ed8f ebbd 21a7 003d 005e 83bd
00000360: 3592 c0bd f8a9 0cbe fb4b 973d e136 6fbe
00000370: 26cf 1a3d ab5e 813e 0542 cf3d 07f2 7f3d
00000380: 34d4 30be 5a77 3e3c a573 37be c56a 08bd
00000390: f037 cebd af19 a4bc e2f1 553c 8f34 3b3e
000003a0: 119c 743d 164f 3a3e dc4b 223e e3a3 10be
000003b0: 24ab e83d c2f5 11be 67ea c1bd 245b 293d
000003c0: c146 a03d 0919 2c3e 7965 86bd 17a7 76bc
000003d0: 5232 9e3d c1e6 50be ffe0 cc3d 435c 11be
000003e0: d2b7 e43c 27a0 12bd bee8 aebd 5ff0 b2bc
000003f0: 7042 253e ad3d a5bd ffe3 22be 2a7a 64bc
0.048827924 0.030604728 -0.22156629 -0.22479783 -0.068284325 0.13165154 -0.03834619 0.18777536
0.07267663 0.0047770725 0.01089349 -0.023343869 -0.26356483 -0.102933414 -0.18245378 0.082710855
0.15139303 0.06798828 -0.17152245 -0.07973256 0.1559819 0.13439883 -0.022631444 0.21936391
-0.10962792 0.08470747 0.15204781 -0.112380534 -0.24148683 -0.15174858 -0.051955484 0.08849087
-0.053556196 -0.09269128 -0.19096889 -0.17687029 -0.0306939 0.31337315 -0.0052722176 0.13789515
0.024517203 -0.1025774 0.057297964 -0.2520699 -0.17838751 0.0018939889 0.12701164 0.084561124
-0.18819654 0.016370807 0.10372448 0.2859161 0.1360245 0.082917064 0.1508372 -0.13317877
0.048447873 -0.14582177 -0.1418337 -0.06681674 0.020230563 0.055793192 -0.09579209 -0.009293208
0.10715493 -0.026068209 0.025621427 0.055590067 0.14321326 0.12170846 -0.08573448 -0.053159468
0.086446285 0.21161735 0.23924804 0.110134065 0.05812408 -0.22877729 -0.009380563 -0.12781669
-0.14703508 0.15707836 0.17888783 -0.22686063 -0.010514197 0.009404467 0.0028210534 -0.07297443
0.122746594 -0.146477 0.056631185 0.048296213 0.15524492 0.168956 -0.059984874 -0.09976446
0.18669976 0.043917283 -0.09195113 -0.17106487 0.21570489 0.20968656 -0.017351529 -0.06540662
-0.22634755 0.006926426 -0.17346343 -0.16479371 -0.02008775 0.03130201 -0.13154468 0.053097673
-0.020209141 0.1681715 0.13518459 -0.1983615 -0.05293129 -0.02604879 0.025918683 -0.0024771625
0.15195355 0.0096589625 -0.08487224 0.092226274 -0.1778625 -0.180995 0.0069835456 -0.054081455
0.0076994426 -0.14448494 -0.05535726 0.052147143 -0.063348465 0.017498652 0.1540479 -0.06980207
-0.06390277 -0.037452366 0.045150828 0.12974551 0.228531 0.13841301 0.25303954 -0.020831378
-0.19029042 -0.11063469 0.13145371 -0.013309657 -0.10468327 -0.18447584 -0.14821644 -0.236199
-0.0116471555 0.07842623 0.0766423 -0.13566375 0.11548726 -0.169377 -0.09420226 -0.12848447
-0.010745969 0.0304699 -0.053589117 -0.11245489 -0.041462798 0.041069947 -0.029710798 0.08989809
-0.21607101 -0.041478395 0.2066477 -0.09210613 0.12342348 0.11158831 -0.18155028 0.19359684
-0.036014173 -0.034787685 0.20484772 -0.2618736 0.06376352 -0.07711885 0.13643202 0.035425536
0.07830365 0.03654701 -0.036040578 -0.029943492 -0.1858229 0.048819464 0.15639001 0.13257411
-0.1499589 0.028558698 -0.18608186 -0.08565149 -0.11375796 0.02634369 -0.11580592 -0.011274479
0.022018937 0.1269805 -0.11487826 -0.09526741 -0.21175468 0.12215535 -0.055422228 0.12340456
0.011263145 -0.040346947 -0.052515183 -0.18331173 0.016108945 -0.11502061 0.031409387 -0.064144135
-0.09402887 -0.13736713 0.07387539 -0.23360778 0.03779521 0.25267538 0.10120014 0.062486675
-0.17268449 0.011625135 -0.17915209 -0.03330495 -0.10069263 -0.020031778 0.013058158 0.18281768
0.05971915 0.18194231 0.1584925 -0.14125018 0.113607675 -0.14253905 -0.09468537 0.041346684
0.07825995 0.16806425 -0.06562323 -0.015054486 0.077244416 -0.20400526 0.10003852 -0.14195351
0.027919684 -0.035797264 -0.08540486 -0.021843133 0.16138625 -0.08068404 -0.15907286 -0.013945142

encoder.0.bias f4 [256]
00000000: 1344 28be bed2 f2bd 1c86 b1bb 468f 91bd
00000010: 7fde 583d 3bee 903e c392 c3bd fcab dd3d
00000020: 47a4 903e 651f bcbd 72f5 29be 7570 b23d
00000030: 4847 013d 457f c03c 0d8a 3e3e 1e40 0ebe
00000040: f810 02be c333 713e 26a4 15be 2874 78bd
00000050: 290f d83d 60d3 1cbd 9211 f9bd 5e13 07be
00000060: d59d 49be 0c9d 41be f39b 1e3d 4617 06be
00000070: d2d6 98bd 5c21 823d 9387 8f3e ed5e 833e
00000080: 9225 783e bc9b 883b cd39 3d3e b254 03be
00000090: 880d b3bd 489c 3d3e 7303 c73d 47de 373e
000000a0: 5051 033e 0430 42bd 5a38 603e aa3b d43d
000000b0: 2a5e 02be bf8f 7f3e c12f 163e 1963 06bd
000000c0: 5615 ae3d a13a 713e 062e b23d 7337 bf3b
000000d0: add4 813e b946 5a3d aca8 5c3e e3ca c5bd
000000e0: 062e 48bc 3ed9 e93d 8369 513d d166 06be
000000f0: 6652 6f3e 9c3f 16be 5b04 903e 160b e9bd
00000100: dd8b b83d a986 b9bd 7fda afbc 871b 013e
00000110: 547a 8d3e 4b01 a9bb c0fa ec3d e7f4 e8bd
00000120: 9867 213e 3920 eabb b436 dc3c 00ae 543e
00000130: cb42 11be ea4b 41bd 5f59 aebc dc3e 433e
00000140: 6c87 7b3e 6212 8c3e 039e 043e 947c b8bd
00000150: bddd 843e 20ce ba3d 7859 b73d e9c1 afbd
00000160: 2789 333d b411 023e 2e97 183d 5db1 8cbd
00000170: 7327 22be 00d2 993e bea4 073e 6928 623d
00000180: bafa 083e 9eae 293e 7d38 adbd dbd9 363d
00000190: b0da 373e d577 95bd c3fb ebbd b952 d1bd
000001a0: 0937 433e c0fb 123e ed5f 953e d0c1 c4bd
000001b0: 3e5d 1bbe 6e32 3abe 5275 f5bc d84a 24be
000001c0: 7a6e ae3e eaed a6bd 9249 43be 8a82 193e
000001d0: 9ca6 40bd 2682 7a3d 384c 453e 433e 5e3e
000001e0: 136b 33be 1427 a73c a149 9b3c 440e aa3e
000001f0: 7a2b 41be 9ef4 ff3d 7745 1fbe 15e5 42be
00000200: 653f 3ebd 3eae 46be b0aa b2bd a65e 023e
00000210: 22da 83bd 9fd2 fdbd d221 14bc 433a 4fbe
00000220: 9036 353e 2b5c a93d badb 2e3e e051 423e
00000230: a4ce 2e3e d7ef e63d 4d0b 833e e277 0bbe
00000240: 644c f1bd 5b6a 2c3e 0d58 513e e121 8d3e
00000250: 8874 0a3e 0db3 3c3e 9e3c 4e3e fc18 1b3e
00000260: d40b 953d b4cb fdbd 5cc8 0d3e d415 07be
00000270: 7112 383c ff3e 083e 70f6 7ebd ef56 a13e
00000280: 2a89 903e 349f ba3d 833f 87be f8a4 473d
00000290: 8dcd 6a3e 3cf1 8f3d 4a59 7a3e bb1e e53d
000002a0: 1875 a2bd 8bb7 853e fc04 3a3e 0f15 8a3d
000002b0: 4229 adbd 1e69 64be b41c 7a3e ab39 f43d
000002c0: d63c 8a3e fd6c 1ebe da2b b5bc 010a 103c
000002d0: e9ef b4bd 8e69 843e a8f9 623e 4a10 783e
000002e0: 7695 003e 219a 1abe 4acf 65bd 0036 f83d
000002f0: a8a9 b1bd 6c35 f53d 4b14 29bd e191 9e3e
00000300: c9d7 7c3e a696 a63e 6f7f 1d3e c140 0bbe
00000310: e8d3 8abd f893 0dbe b5ce 143e 180d 10bd
00000320: 05bc 203e a7e3 be3d 5b2e 32bd baea a53c
00000330: 92ef 6dbd 87ca 8c3d 4ed3 51be 4eaf 073d
00000340: c86d 583e 6c9a 4f3e 0c99 35be 5f8b 4e3e
00000350: 66a1 36bd 15fb 893e 4f4c 103d ba86 813e
00000360: 0015 5e3e 59f3 13bd 422f 873e 2c86 3e3e
00000370: 21fc 0dbe 5d6e 8b3b f27d 433e 42ef bd3d
00000380: 229b 403e a0fe 8b3e e67f 3abe 4f74 263e
00000390: e315 30be 9d7c 203e 720b 1fbd c270 f8bc
000003a0: ed40 053e fd70 3dbe 52cf 0c3d 507d 4fbd
000003b0: 0157 3f3d dd9a 8e3c 704c 19be 54b5 e13c
000003c0: 4f44 7a3d 7563 4e3e 37f9 d3bd fa9e aebd
000003d0: cf03 433d 2dc0 bcbd 6003 48bc c65c 77be
000003e0: 6d48 bdbc 41e5 39be f7da ca3d 0d25 7b3e
000003f0: 0d96 053e 0b64 64be ce09 313e 559a 33be
-0.16432218 -0.11856602 -0.0054175984 -0.07107405 0.052946564 0.28306755 -0.09549477 0.10823819
0.28250334 -0.091856755 -0.16597536 0.08712856 0.03156212 0.023498187 0.1860735 -0.13891646
-0.12701786 0.23554902 -0.14613399 -0.06065765 0.105497666 -0.03828752 -0.121615544 -0.13190982
-0.19689114 -0.18907565 0.038722944 -0.13094816 -0.07462849 0.06354019 0.28033122 0.2565836
0.24233082 0.0041689556 0.1847908 -0.12825277 -0.08742815 0.18516648 0.09717455 0.17955886
0.12823987 -0.047409073 0.21896496 0.103629425 -0.12731233 0.24957179 0.14666654 -0.03280935
0.08500163 0.23557521 0.087001845 0.0058354675 0.2535757 0.053290103 0.21548718 -0.09657838
-0.012218004 0.11418389 0.051126014 -0.13125159 0.23371276 -0.14672703 0.28128323 -0.113790676
0.09011052 -0.090588875 -0.021466492 0.12608157 0.2763239 -0.005157625 0.11571264 -0.113748364
0.15762174 -0.0071449545 0.026881553 0.207695 -0.14185636 -0.047191538 -0.02128285 0.19066948
0.24563378 0.27357775 0.12950902 -0.090081364 0.25950423 0.091213465 0.08952612 -0.08581907
0.04383197 0.12702066 0.03725355 -0.06869767 -0.15835361 0.3004303 0.13246438 0.05521432
0.13376895 0.16570517 -0.0845804 0.044641357 0.17954516 -0.07298247 -0.11522629 -0.10220856
0.19063963 0.14353848 0.29174748 -0.09607279 -0.15172288 -0.181833 -0.02996317 -0.16044176
0.34068662 -0.08150847 -0.19071034 0.14991203 -0.04703389 0.061159275 0.19267356 0.21703438
-0.17521314 0.020404376 0.018956007 0.3321401 -0.18864241 0.12497829 -0.15553842 -0.190327
-0.046447176 -0.19402406 -0.08723962 0.12731418 -0.0643809 -0.123936884 -0.0090412665 -0.20237069
0.17696595 0.08269533 0.17076007 0.18976545 0.17071015 0.112762146 0.2559456 -0.1361995
-0.117821485 0.16837446 0.20443745 0.2756491 0.13521016 0.18427677 0.20140311 0.1514625
0.07277647 -0.12392369 0.13845962 -0.1319192 0.0112348655 0.13305281 -0.06224674 0.31511638
0.28229648 0.09112397 -0.26415643 0.04874131 0.22929974 0.07028434 0.24448124 0.11187502
-0.0793249 0.26116595 0.18165964 0.06742298 -0.08455135 -0.22305724 0.24425012 0.11925062
0.2699954 -0.15471263 -0.022115637 0.008791448 -0.08834822 0.25861782 0.22165549 0.24224964
0.12557015 -0.15097858 -0.05610589 0.12119675 -0.086749375 0.1197308 -0.04127912 0.30970672
0.2469169 0.3253681 0.15380643 -0.1359892 -0.06778699 -0.13825977 0.14531977 -0.035168737
0.15696724 0.09320765 -0.04350124 0.020253528 -0.0580898 0.068745665 -0.20490763 0.033126168
0.21135628 0.20273751 -0.17734164 0.20170353 -0.044587515 0.26949373 0.035229024 0.252981
0.21687698 -0.036120746 0.26403242 0.1860587 -0.13865711 0.0042550997 0.19091013 0.092741504
0.18809178 0.273427 -0.18212852 0.16255306 -0.17195849 0.15672536 -0.038829274 -0.030327205
0.13013048 -0.18500133 0.034377404 -0.050656617 0.046713833 0.017407829 -0.14970565 0.027552284
0.0611003 0.20155127 -0.10350268 -0.08526416 0.047611054 -0.09216342 -0.012207836 -0.24156484
-0.023105824 -0.1815386 0.099050455 0.24525853 0.13045521 -0.22303788 0.17288896 -0.17539342

encoder.2.weight f4 [256, 256]
00000000: be13 1f3d 9f1b fabc 93b0 db3c ac5b fd3c
00000010: ed9b ee3b 5491 16bd aa14 d4bd cdc4 143d
00000020: 718f 16bd 1a30 62bd 4ed1 ea3c 428b c5bc
00000030: 2891 d93a 5c3b 1ebd 46bf 2abc b935 9b3d
00000040: 669e 9c3c 050e 10bc aec0 8aba 8069 6fbc
00000050: 68f4 b03c 950c ff3b eb95 e43b bacc b5bd
00000060: 8740 423c 5361 f3bd 935d 833d c902 bfbb
00000070: f43e 1abe f2f2 aabb 7a07 c2bc 3a27 adbd
00000080: 53bd 993c 7e91 01bb 7b11 dabc 1195 8bbb
00000090: 2273 63bd e91e a93d 6409 17bc a37d 5bbd
000000a0: 1eab 82bd 443d bebc 523d a0bc 43a1 9dbc
000000b0: a7b1 16bd 6ef6 91bc 9b67 46bc 0a0a 06bd
000000c0: 4cf2 0e3d aede dc3c 47b6 ceba fcc1 6c3d
000000d0: 1dc0 e4bb f177 1dbd 32ce 233d 6f63 08bd
000000e0: f35c 753c 2d1a 343c f014 e9bb 500b 803d
000000f0: 271b 16bd 7014 2c3c bf14 5a3d eee0 85bd
00000100: f123 0cbc 0204 543c d090 0cbd 303b 2b3d
00000110: c2e7 f0bc 8d92 acbc 7e5c 3e39 4244 dabd
00000120: 29ba febc c705 723c fafa 65bd 4543 743d
00000130: bbd2 55bb 57d0 a83d cce9 20bd 8e5d d03c
00000140: 08c0 99bd e616 afbc c913 a8bd d7cc e4bc
00000150: 0401 243c 082c c23a 062d 1c3d 7bec 7c3d
00000160: ac26 71bd b3c7 64bc 0854 8ebc 6a66 0b3d
00000170: c60b 51bc bd79 9a3d b5ef 31bd 95e7 71bd
00000180: 309b b83b 469d bf3c e47e 433d 299d 3fbd
00000190: 5705 383d 8a58 9ebc e011 5d3d 2f31 2f3d
000001a0: 9028 33bd a4c7 8f3d 3b53 763d d1b1 113d
000001b0: 13ac 39bd 945f 86bd d53e 95bd 7061 c7bd
000001c0: 1dbd e23b 5027 d1bc 5135 79bb 8899 603d
000001d0: 8f85 653d e877 a8bd cba1 c0bc 2311 4c3d
000001e0: ce14 2dbc 0cce d5bd cffc 2cb9 eab5 503d
000001f0: 96ed 163d 2434 a83c 2ed1 d63c 2a4a 1cbd
00000200: e3c4 953d 5e23 60bd e2e0 28be 787e 473d
00000210: 1cbf f0bb c535 533d f20d 2e3d 3a64 693d
00000220: 5dad 323d a86f 163d bbc1 823d 1d14 dd3c
00000230: 8693 cc3c 1512 c2bd aba6 533c 5028 253c
00000240: 560e 4d3d bab2 71bd beae 0cbc e9a0 99bd
00000250: 1c12 fe3c c6e2 fd3c 79ba c73b 1a79 9e3d
00000260: a5c8 62bb 9fed 3fbd ade7 cf3d 7761 4f3a
00000270: e050 963c 0f9b f13c c3e7 ecbd 2dd3 933d
00000280: e9f5 4bbd 9d66 88bc d528 36bd d037 eebb
00000290: 5e57 913b 2138 58bc ff8c b23c 39e1 543c
000002a0: 99c7 143c 1e21 893d 54f2 953c 3c9e cdbc
000002b0: e9d9 eb3c 9746 55bd befe 2bbd 80f7 0ebd
000002c0: c03b e6bc db18 b3bd 5300 a4bb 6538 873c
000002d0: 4d9f 6dbd 55c8 973c 3ce5 d8bc c989 2d3d
000002e0: 9338 553d 87a8 8dbd 759e 07bd 1cfe d1bc
000002f0: ee83 76bd 4ded 5b3d 9fe7 9d3d ed0e de3c
00000300: dace 8e3c 2db7 fd3a 11d3 6a3d 0690 30bd
00000310: 0e3b 78bd 79fe b83c 7233 bbbc 290e 8e3c
00000320: a6a6 113b a47b 26bd db77 0d3d 3c5e 05bd
00000330: c07c a93d a9e4 633d d4ca 04bb 53fa c23c
00000340: 73a1 80bc 6c21 3c3d 3e21 1d3d 6b95 8fbd
00000350: 3ac7 cc3c 76f8 083d ecf2 f93c 88c6 0b3d
00000360: 0792 183c c1be 633d d5f7 8c3c 1561 493d
00000370: 964f 463c b627 983c 9064 653d 83f9 0f3d
00000380: 7427 93bb 45b1 e6bc a93e d93c b695 7e3c
00000390: 5d2e a8bd b9cc 4abc be39 723d b890 403d
000003a0: dcd9 ee3b 5b41 033d 6581 8fbc 84c9 aa3d
000003b0: 506f f0bc ddd7 a23c fed3 ab3c 5d55 2f3d
000003c0: 79d1 e6bd 70d5 8ebc 119c 47bd 0518 f8bc
000003d0: 7ddc 7abc c13c cb3d 2707 033c a245 a8bd
000003e0: a2b1 20bd 0e5f 99bc 7498 71bc 1850 f7bc
000003f0: 56a2 3c3d 8eb9 173c e52c eabd 158e 6f3d
0.038837187 -0.030530749 0.026817596 0.030927502 0.0072817714 -0.03675969 -0.10355504 0.036320496
-0.03675789 -0.055221654 0.028664257 -0.024114255 0.0016599046 -0.03863083 -0.01042158 0.07578606
0.019118499 -0.008792405 -0.0010585987 -0.0146125555 0.021600917 0.0077834823 0.0069758794 -0.08876939
0.011856205 -0.118837975 0.06414332 -0.0058291894 -0.15063077 -0.0052169496 -0.023685206 -0.084547475
0.018767035 -0.0019770558 -0.026619663 -0.0042597135 -0.05552972 0.08257849 -0.0092185475 -0.053586613
-0.06380294 -0.023222573 -0.01956049 -0.019241935 -0.036790516 -0.017817702 -0.012109662 -0.032724418
0.03489904 0.02696165 -0.0015770876 0.057802185 -0.0069809095 -0.038444463 0.039991565 -0.033297952
0.014975774 0.010992569 -0.0071130916 0.06252158 -0.03664699 0.01050292 0.05324244 -0.065370426
-0.008553491 0.012940409 -0.03431779 0.041804492 -0.029407386 -0.021065975 0.00018154268 -0.106575504
-0.031094627 0.014771885 -0.056147553 0.059634466 -0.0032626826 0.08242863 -0.039285466 0.025435235
-0.0750733 -0.021373224 -0.08206899 -0.027929706 0.010010008 0.0014814148 0.038128875 0.061748963
-0.05887477 -0.013963628 -0.017374054 0.034033217 -0.012759155 0.07542751 -0.043441493 -0.059058744
0.005633734 0.023390424 0.047728434 -0.04678074 0.044926967 -0.019329328 0.053972125 0.042771515
-0.043739855 0.070205 0.06013797 0.03556997 -0.04533012 -0.06561199 -0.07287375 -0.097353816
0.0069195167 -0.025531441 -0.0038026164 0.05483392 0.056035575 -0.08225995 -0.023514649 0.04982103
-0.010564042 -0.10439691 -0.00016497377 0.050954737 0.036847673 0.020532675 0.026222792 -0.038156666
0.07312944 -0.05472123 -0.16492036 0.048704594 -0.0073470008 0.05156495 0.042493768 0.05698035
0.043622363 0.036727577 0.063846074 0.02698713 0.024972688 -0.09476105 0.012918155 0.010080412
0.0500625 -0.059008338 -0.008586584 -0.07501394 0.031014495 0.030991923 0.0060952273 0.07737942
-0.0034604457 -0.046857473 0.101516105 0.0007910947 0.018349111 0.029492883 -0.115676425 0.07218013
-0.049795065 -0.016650492 -0.044472534 -0.007269837 0.004435464 -0.013196976 0.021795748 0.01299315
0.009080791 0.0669577 0.018304028 -0.025099866 0.028790431 -0.052069273 -0.041990988 -0.034904003
-0.028104663 -0.08744975 -0.0050049215 0.016506383 -0.05801325 0.018528143 -0.026476495 0.04236773
0.052055907 -0.0691691 -0.0331101 -0.025633864 -0.06018441 0.053693105 0.07710194 0.027106727
0.017432619 0.0019356959 0.057330195 -0.0431061 -0.060603194 0.02258228 -0.02285168 0.017340736
0.0022224574 -0.040645257 0.03453813 -0.032560572 0.08275747 0.05563799 -0.0020262497 0.023801005
-0.015701985 0.04593031 0.03836178 -0.07010921 0.024997342 0.033440076 0.030511342 0.03412488
0.009312159 0.05560184 0.01720802 0.04916485 0.012103936 0.018573623 0.056004107 0.035150062
-0.004490787 -0.0281607 0.026519137 0.015538624 -0.08211968 -0.012377911 0.0591371 0.047013015
0.0072891545 0.03204475 -0.017517755 0.08339217 -0.029349953 0.019878322 0.02097511 0.04280602
-0.112704225 -0.01743576 -0.04873282 -0.03028489 -0.015311358 0.09923697 0.007997311 -0.082164064
-0.039231904 -0.018722083 -0.01474582 -0.030189559 0.046053253 0.009260548 -0.11434344 0.05848511

encoder.2.bias f4 [256]
00000000: f8e8 033d a112 3d3d aa3b d13d 09ce 8dbd
00000010: 3d47 903d f242 c43d 1b0d b23d 2456 42bd
00000020: 51b1 60bd 0a93 56bd e3c2 893c 7795 c93d
00000030: b746 533c 0685 7ebc 2f70 c73d d49d e43c
00000040: 9cc2 a13d 4a3f eb3b 11e5 b2bc c021 8a3c
00000050: 9a47 06bb bdf1 653d b49c 533d 9471 5bbd
00000060: e8c2 be3d 2142 2cbd 92e1 b7bc a524 fabc
00000070: bfe5 42bd 8750 8e3d 5bbd 943d 0390 ddbc
00000080: e501 593d 564b 5abd bf46 ea3c ac1b 9a3d
00000090: de06 5dbd 02c1 8abc ccad b33d 7161 203d
000000a0: f117 8d3c d4ee d03d 63cf 1d3d 8094 b7bd
000000b0: 8802 963d bcd0 9b3c 2ad0 27bd 1b9b d93d
000000c0: b75f 2cbc 0dd6 d4bc 2fdf cd3d 3c7e 56bc
000000d0: 4d6b ed3c 3e09 d53d e182 1c3d efd0 7abc
000000e0: ef9c fa3d 7e9b 6bbd ad41 1d3a 7c22 43bd
000000f0: 18ee 643d e94d 923d aa35 d23d 60c3 00bd
00000100: cce9 cb3d 17f5 b03d 68de 0e3d aa92 de3c
00000110: 2aa8 963d 2267 443d 9711 4f3d 1f4a 913d
00000120: 51d7 1ebd ad56 663c e69a 243d a041 bf3d
00000130: 77d9 103c 3035 c6bc 27e9 1e3d 317a 293d
00000140: 84c0 23bd d6ee 283d e995 783c baa6 be3c
00000150: bc75 95bb 20d9 803c 01dc 8dbd 8417 5ebd
00000160: 660e 9b3d 34d3 7dbd 8f44 403d c4f5 703c
00000170: ecc4 5c3d ad66 5c3b 48f4 953c ac7c b939
00000180: 2ddd a03c b32d 403d ddd9 713d f202 593d
00000190: 77db 9c3d 78c2 583d b7e5 cc3c 44f1 1fbc
000001a0: f17f ff3c d954 bf3c 37c5 953d 95ef e03c
000001b0: a76f 19bc a259 b0bc b524 743d 0410 783c
000001c0: 3b97 a63d 9ea1 663c f3ee 603c 9e0a 993d
000001d0: e685 f33c 6d84 a33d 3fe5 a5bc 110e 82bc
000001e0: 7e7e a93c 413e 793d 603d 9d3d 8075 b63c
000001f0: c8f8 1bbc d2e2 3f3d 16cb 5a3d 63de 383c
00000200: 1794 4abd ca66 f33b 0d64 d5bc 9b0a 6039
00000210: dcaa 7f3c ca5a 043d a520 103c a6fe 03bc
00000220: a17b 763d 091f 7f3d 11d2 af3d a79b 863d
00000230: a01b 913d 2987 be3d 791f e23c 0385 98bb
00000240: 144a f1bc e1b2 6f3d 7a11 233d d31d 983d
00000250: a87c 8c3d 1982 a83c 30ec ad3c 8cf6 4d39
00000260: 2f91 bf3d 7a2f b53d 06e6 52bd f6c1 8fbd
00000270: 53e4 0d3d 6724 c53d 3de1 9abc 83fe 353d
00000280: 0a3b 96bd d899 81bd fa96 993d 0b76 373d
00000290: 6737 873d 3d54 19ba fe55 273d bdeb 0f3e
000002a0: 4334 a83d 049a 693d 21df ae3d 17f0 c7ba
000002b0: d66a ab3d 067e 4b3b 7523 afbd 9ab1 e5bb
000002c0: efc8 8b3d 45dd 413d 29db 473d 5933 e63d
000002d0: 62f2 e6bb 3ab9 543d 0453 283d f854 073c
000002e0: 9258 3dbd 1190 a4bb 4593 b13d 2607 f43c
000002f0: f876 503d 3866 953c a4be 093d 4ef7 d13b
00000300: b7eb 35bd c4df 543d 516f cdbc 15c8 483d
00000310: 8207 083d 6d19 4fbd 7ade 1cbc e028 8c3c
00000320: eb98 823d 1bce 2d3d 937b 3c3d 2699 4f3d
00000330: 705f ab3c 95c8 e7bc 4209 df3c 196e be3d
00000340: 8664 8abb 4a93 223d 4660 6a3d 22ab 563d
00000350: fadc b4bd d082 903d 0293 f53c 1996 273d
00000360: 2ec5 40bc 1b5a 0a3d dadf c93d 75b2 e73d
00000370: 6a4a 1e3c dda8 a13c a990 d1bb 0d02 703d
00000380: e2de b2bd 508b 8dbb 2fd7 9e3c 9d82 2bbc
00000390: 5222 9c39 6c6b ad3d dbd7 b93d e5f1 86bd
000003a0: 02a3 9b3d 1d8a fc3c 497c be3a 8fd8 903b
000003b0: d63c f23c 5de0 46bd 4b0a 213d 5672 d53d
000003c0: e2f5 163c 55ce 2e3d a92b da3d 9083 a63c
000003d0: 666b 4ebd ed79 423d 7f08 253e bc39 cbbc
000003e0: aca9 1b3c 5bc3 1f3d c350 b7bc e20d 3fbc
000003f0: 45e1 d63d 8faa 693d 29a3 7c3d 4c46 7c3d
0.0322046 0.046160344 0.10216458 -0.06924064 0.070448376 0.09583081 0.08693906 -0.04744543
-0.054856602 -0.05238632 0.016816562 0.09842961 0.012895278 -0.015534645 0.09738194 0.02790729
0.07898447 0.0071791755 -0.021837743 0.016861796 -0.0020489455 0.056138743 0.051663116 -0.053575113
0.09314519 -0.042055253 -0.022446427 -0.030535052 -0.047582384 0.06948953 0.07262679 -0.02704621
0.052980322 -0.053294502 0.028598187 0.07524809 -0.053961627 -0.016937736 0.087733835 0.039155427
0.01722333 0.10201803 0.038527858 -0.08963871 0.073247015 0.01902043 -0.040970005 0.10625287
-0.010520867 -0.025980974 0.100523345 -0.01309162 0.028981829 0.104021534 0.038210753 -0.015308603
0.12236964 -0.057521336 0.0005998861 -0.04764031 0.055891126 0.071437664 0.10264142 -0.031436324
0.099567026 0.08640497 0.034880072 0.027169544 0.073562935 0.047949918 0.050553884 0.070942156
-0.03877956 0.014058751 0.040186785 0.09338689 0.00884091 -0.024195284 0.03879657 0.041376296
-0.03997852 0.041243397 0.01517246 0.02327286 -0.004561154 0.015728533 -0.06926728 -0.054221645
0.07571106 -0.061968997 0.046940383 0.014707033 0.053898737 0.0033630535 0.018304959 0.00035378837
0.019636715 0.046918582 0.05904566 0.052981324 0.07659047 0.052919835 0.02501188 -0.009762112
0.031188937 0.023355888 0.07313006 0.027457992 -0.009364999 -0.021527115 0.05960532 0.015140537
0.08134314 0.0140766185 0.013728845 0.07472728 0.029726934 0.079842426 -0.020250915 -0.015875848
0.020690199 0.060850386 0.07677722 0.022272825 -0.009519763 0.046847172 0.053416334 0.01128349
-0.049457636 0.007428025 -0.026048684 0.00021366256 0.015604701 0.032313146 0.008796846 -0.008056318
0.060176495 0.062285457 0.08584989 0.06572657 0.07085347 0.093031235 0.027602898 -0.004654528
-0.029454269 0.0585202 0.03981159 0.074275635 0.06859714 0.020569848 0.021230787 0.0001964217
0.093538634 0.08846946 -0.0514889 -0.07019417 0.034641575 0.09626084 -0.01890623 0.044432174
-0.073354796 -0.063281715 0.074994996 0.04479031 0.06602364 -0.00058490393 0.040853493 0.14054771
0.08213093 0.057031646 0.08538652 -0.0015254047 0.08369987 0.0031050458 -0.08551685 -0.007009697
0.068254344 0.04733016 0.04879299 0.112402625 -0.0070479373 0.05193446 0.041094795 0.008260004
-0.046227045 -0.005022057 0.086706676 0.029788565 0.050894707 0.018237218 0.033629075 0.006407655
-0.04441425 0.051971212 -0.025077494 0.049018938 0.033210285 -0.050561357 -0.009574527 0.017109334
0.06376823 0.042432886 0.046016287 0.050683163 0.020919532 -0.028293887 0.027226094 0.09298343
-0.004223409 0.039691247 0.05722072 0.0524093 -0.088312104 0.070562005 0.029977325 0.04091463
-0.011765761 0.033777338 0.098571494 0.11313335 0.009661296 0.01973384 -0.0063954187 0.058595706
-0.08733918 -0.004319586 0.019389717 -0.010468152 0.0002978021 0.08467755 0.09074374 -0.065891065
0.07599451 0.030827576 0.001453289 0.004420347 0.029570024 -0.048553813 0.039316457 0.104221985
0.0092138965 0.042677242 0.10652859 0.020326406 -0.050395392 0.04747956 0.16116522 -0.024807803
0.009500902 0.039004665 -0.022377377 -0.011661025 0.104921855 0.057047423 0.06167904 0.061590478

encoder.4.weight f4 [64, 256]
00000000: 7d3c 9a3b 5beb cd39 6792 21bc 3a7c 22bb
00000010: 3129 11bd 28f9 4dbc 05e9 ca3c 1381 29bc
00000020: 8da2 65bb cd5e 1ebd 7721 abbc 8eb9 d53c
00000030: 88cb a23c bc76 983c ea1e b6ba 2341 48bc
00000040: 9eae e03c d8ff a6bb 15d2 493c 2cef 093d
00000050: b93a 643c 9d1c c5bb 033c a9bc adb3 8abb
00000060: 6b78 cc3c 0606 bbbb 5009 77bb b022 6cbc
00000070: eacb 8bbb 51b3 c2bc 8657 7fbc 8a71 d7bc
00000080: 6a25 4bbb c07f 8cbb 4ad2 a837 029e a53b
00000090: c4ee 133d 1c1f b53b 696b 2d3c 4763 cb3c
000000a0: 5e30 f33b 9317 48bc aee4 a53b 7f3c 0b3b
000000b0: 5839 e0bc d5ab 0ebc 071a 9fbc 32de 683b
000000c0: cd37 d03b 4920 08ba cb67 503c c4aa 82bb
000000d0: 7f55 7bbc 0efb a8bc 3a5a 023c 8e9e 3e3c
000000e0: 7e32 53bc a708 823a 54d1 c8bb 7f81 d0bb
000000f0: e0f1 8cbc 2357 963c c60b 44bc 82db 4ebc
00000100: d139 2dbb de60 663c 5590 10bc 8402 69bb
00000110: 03c1 893c f095 a43b bb74 883c 6dec a73c
00000120: 0fcf 27bc c095 8bba 8488 d9bc cd09 fb3c
00000130: e87d 653c e55c 8b3a 7103 ad3b 74bf 053c
00000140: 7ba0 0abc 85d5 e03b c72e 1dbc 7ef7 94bb
00000150: ebcd b53c eaed e73c edca 07bd 68f0 acbc
00000160: befb 553b 2aee 82bc a99d 88bc 1979 53bc
00000170: 6cd2 72bc 00b8 8e3c a603 cd3b 894d f9bb
00000180: 9741 3ebc 7759 c7bb 44b8 9fbc 6709 8cbc
00000190: 6008 28bc 5f9d 3f3c bc21 81ba 9f42 0c3c
000001a0: 3d84 f1bc dfa7 bcbb 7222 4f3c f67c 9ebc
000001b0: 3e01 0939 bd9c 18bc 5ba7 58bc a4e8 193c
000001c0: 9584 9c3c 6d66 21bd 9d00 4dbd 48ad 00bc
000001d0: 5e34 963c db05 903a 9521 f73b af8e 2d3c
000001e0: 81c1 803c dfd8 553c af36 be3c fe0c 79bc
000001f0: 19c8 a43c 549d bbbc b419 d13b bd38 f5ba
00000200: 40be d8bc 86ba e2bb 4890 76bc 21a0 a73c
00000210: a054 d03b 5f5a c53b b3b3 c23b ac4d 3dbc
00000220: 0cc7 cc3c 0890 803c 36e5 903c 004a 693a
00000230: 3ca1 303c 1ab8 0b3c 2004 2cbc e423 d6bc
00000240: 0489 5ebb d074 fe3a 9890 a33b fbda 9fbc
00000250: 55f8 a6bc 2d81 5d3c 979c f83b cc94 98bc
00000260: 2b73 ffbc 2a56 20bc 61e1 643a 975d 93bc
00000270: 0933 82bb 703d d7bb 9df8 943b f7bc 69bc
00000280: ad85 bb3b 7908 a73c 30ae 86bc aa80 a93b
00000290: 47ee adbc 5328 b2bc 8824 b63b 09a3 143c
000002a0: a42c 093c 03c1 0a3d 6c00 a0bc d2b8 933c
000002b0: 427b 89bc 7cfa b43b e8f2 93bc 26a6 183c
000002c0: 3aa7 89bc 5dc3 9b39 69d2 8b3c 9f55 8cbb
000002d0: c01d 1ebc b3ec b5bb c914 e13c 9c19 39bb
000002e0: bfa2 313d 7fb7 013c d1ff 90bc 696a 48bc
000002f0: 8932 363c 5315 53bc 128a 61bb 9fcc d83b
00000300: 8530 eebb 89d4 94bb 79b6 d93c 5885 083d
00000310: de69 e63c 4484 ecba 8dcf f7bb 02cf a63c
00000320: 8bbf 9ebb 8246 813c 8c0a bbbb 952f a13c
00000330: dc24 97bc 8932 fb3b fb98 7fbb 7071 6b3c
00000340: b956 183c 98f5 343c 5751 213c 5118 0abc
00000350: e303 9ebb f901 91bc 0797 003b e28a 4ebc
00000360: 5b2f 033b d54a d5bc 2fdc b43b b34c b9bb
00000370: 157b 1cbb 8c75 6f3c 5e70 d83b f3fb 8fbc
00000380: 93e4 573c 8088 e23c 61f9 583c b43b a8bc
00000390: 200e 9b3c 873b 81bb e323 3a3d 1c00 733b
000003a0: 293d dfbc bceb f63b edae 21bc 12ec 183c
000003b0: 6d24 16bd d0f9 76bc 2b49 8f3c 8448 aaba
000003c0: b291 7ebc 24e2 19bb 2f3c 7c3c 22b1 403b
000003d0: ae6f cebb 93eb 10bd 0237 87bb d4a0 d13c
000003e0: 2fbe ad3b 1e13 34bc a672 843c b678 bd3b
000003f0: ddaf 3ebd 6d72 d43c c2c7 603b a31e 823c
0.004706918 0.00039276 -0.009861565 -0.0024793283 -0.035439674 -0.0125716105 0.024769315 -0.010345715
-0.0035039515 -0.038664628 -0.02088998 0.026089456 0.019872442 0.018611304 -0.0013894711 -0.012222561
0.027427014 -0.005096417 0.012318154 0.033675358 0.013930016 -0.006015374 -0.020658499 -0.004232845
0.024959764 -0.005707505 -0.003769476 -0.014412567 -0.004266252 -0.023767145 -0.015584832 -0.026299257
-0.0030997642 -0.00428769 2.0125084e-05 0.0050542364 0.036116377 0.00552739 0.010584691 0.024827613
0.0074215373 -0.012212652 0.005062661 0.0021245775 -0.027371094 -0.00870796 -0.01942159 0.003553283
0.006354308 -0.0005192799 0.012720059 -0.003987642 -0.015340208 -0.020627525 0.007956082 0.011634482
-0.012890456 0.0009920791 -0.0061284695 -0.0063630934 -0.017205179 0.018352097 -0.011965698 -0.012625577
-0.0026432166 0.014061181 -0.008823474 -0.0035554478 0.016815668 0.0050227568 0.016657224 0.020498479
-0.010242238 -0.0010649487 -0.026554354 0.030644322 0.014007069 0.0010632543 0.0052799513 0.008163322
-0.008461113 0.006861391 -0.009593672 -0.004546105 0.022192916 0.028311688 -0.03315251 -0.021110728
0.003265127 -0.015982706 -0.01667674 -0.01290729 -0.014820676 0.017421722 0.0062565384 -0.00760812
-0.0116123175 -0.006083663 -0.019497044 -0.017094327 -0.010255903 0.011695235 -0.0009851973 0.008560806
-0.029482001 -0.0057573165 0.01264249 -0.019346695 0.00013065801 -0.009314713 -0.013223494 0.009393845
0.019106189 -0.03940432 -0.050049413 -0.0078538135 0.018335517 0.0010988073 0.007541845 0.0105931
0.01571727 0.013052194 0.023219435 -0.0152008515 0.020114945 -0.022902168 0.006381238 -0.0018708926
-0.026457906 -0.006919208 -0.015049048 0.020462098 0.0063577443 0.006022736 0.005941832 -0.011554163
0.024997257 0.01569368 0.017687421 0.00088992715 0.010780629 0.00852778 -0.01049903 -0.02614016
-0.003395618 0.0019413475 0.004991602 -0.019513598 -0.020382086 0.013519567 0.0075870263 -0.01862564
-0.031182846 -0.009786168 0.0008731094 -0.017988963 -0.003973369 -0.006568603 0.0045462386 -0.014266244
0.0057227225 0.020389782 -0.016440481 0.0051728087 -0.021231784 -0.021747744 0.005558554 0.009072074
0.00837246 0.033875477 -0.019531451 0.018032465 -0.016782407 0.005523024 -0.018060163 0.009316957
-0.016803373 0.0002970946 0.017068105 -0.004282668 -0.009650648 -0.0055518984 0.027475731 -0.0028244024
0.043368097 0.007917284 -0.017700108 -0.012232401 0.011120447 -0.012883502 -0.0034414572 0.0066161896
-0.0072689676 -0.0045419377 0.026576268 0.03333029 0.028126653 -0.0018044789 -0.007562584 0.02036238
-0.004844611 0.015780691 -0.0057080444 0.01967601 -0.018450193 0.0076659364 -0.0039001096 0.014370307
0.00929802 0.011044882 0.009846053 -0.008428649 -0.0048222407 -0.017701136 0.001962127 -0.012606354
0.002001724 -0.02603666 0.005519412 -0.005654895 -0.0023877074 0.014615428 0.006605192 -0.017576193
0.013177055 0.027652979 0.01324305 -0.020536281 0.018927634 -0.003943864 0.04544438 0.0037078923
-0.027250843 0.007535426 -0.009868366 0.009333627 -0.036655832 -0.015074208 0.017490944 -0.0012991582
-0.015537666 -0.0023480738 0.015395208 0.0029402454 -0.0062999343 -0.03538091 -0.0041264305 0.025589384
0.0053022127 -0.010990886 0.01616795 0.005782212 -0.046554435 0.025933469 0.0034298752 0.01588375

encoder.4.bias f4 [64]
00000000: 9dd9 f2bc 16c7 193d 4d3c 113c b38e 0ebc
00000010: 4b26 f33c 4860 1fbc 36b8 1f3d 3433 113d
00000020: 1c85 09bd 22f2 70bb 0739 ffb9 6580 d03a
00000030: 1266 f6bc 2e9f b6bc 5d4a a83b 077d 0d3d
00000040: b393 1a3c 42f5 84bc 859a 83bc 5e27 513c
00000050: ba3a 823c 63d2 503c 19da a43c 2a17 9ebd
00000060: 0e8c 203d d095 31bd b8c8 913c f7b6 e53c
00000070: db03 61bd 5aac e13b 26f8 383c 4a01 30bd
00000080: 0eaf c23c 6457 8dbc 3038 12bd 2991 25bc
00000090: 467f 35bc cc33 d23c 6fea bdbb 14aa 3dbd
000000a0: c372 d73c e712 e1bc bbb7 3cbc 9f33 d0bc
000000b0: 3ac7 33bd a30f 113d f522 e3bc ed9f c2bc
000000c0: 9950 1dbc 4ced edbc 9b99 6a3b 88d7 b339
000000d0: f831 693a 3fac d83c fe2e 41be 3bfc 89bd
000000e0: 2dad 933c 277b e53c 8162 99bb 6f80 95bd
000000f0: 2132 693c bd78 e9bd 2262 62bc e0d2 eabc
-0.029644782 0.03754338 0.0088644745 -0.008701014 0.029681345 -0.009727545 0.038994037 0.03544922
-0.03357421 -0.0036765416 -0.0004867988 0.0015907405 -0.030077968 -0.0222927 0.005135818 0.034543063
0.009434628 -0.01623023 -0.016064892 0.0127657335 0.015897144 0.012745473 0.020123528 -0.07719262
0.039196067 -0.043355763 0.017795905 0.028041346 -0.054935317 0.006887001 0.011289632 -0.04296998
0.023765113 -0.017253585 -0.035698116 -0.01010541 -0.011077708 0.025659464 -0.005795769 -0.046304777
0.02629984 -0.027474834 -0.011518414 -0.02541524 -0.04389117 0.035415303 -0.02772663 -0.0237579
-0.0096017355 -0.029043816 0.0035797122 0.00034302124 0.00088956906 0.02644932 -0.18865582 -0.06737562
0.018026913 0.028012825 -0.004680932 -0.072998874 0.014233143 -0.11399982 -0.013817342 -0.028665006

decoder.0.weight f4 [256, 32]
00000000: cbae 203c e183 6f3c 4d56 ee3c a2f4 b6bb
00000010: 38f7 bbbb e532 02bd f376 8b3c f1dc 15bd
00000020: 7ea9 c0bc c2a2 98bb 287d 6d3c a6cc 383c
00000030: 4f55 39bc 72ac 0b3c f2e7 c439 a4fc b0bc
00000040: c391 bbbc 8d2b b0bd a614 adbc b3bd 1e3c
00000050: 75dc 70bc 9706 633c bb96 063d d956 d63e
00000060: d770 823c 6b30 03bb 1131 633b 24b9 98be
00000070: d907 883c 7c05 00bf cf49 bd3c 0940 70bc
00000080: b76a 13bd 444b 653c 571f 263b a29a bd3c
00000090: eabc a6bc fd80 36bd 2b49 a73a 7b3d 8b3e
000000a0: 394f 783d c359 9dbb 7183 02bb f0a7 0d3d
000000b0: 72a7 9e3c 9a13 87bd 39eb 1dbc cf18 31bd
000000c0: d44b 58bd 5992 183d 18b0 76bc 4197 dabc
000000d0: b7a7 993c 0860 71bd 4842 a33e 2c42 5dbc
000000e0: 9b87 2c3d 714b 86bc ee21 17bd af53 ae3e
000000f0: 1599 00bc 5153 943e 1904 203d a60a 1a3d
00000100: 34e8 813c 2fc8 c63b 1b22 873c aa2a 4abd
00000110: e177 b1bc 4511 733c 980a 33bd 6066 d2be
00000120: c5a1 943d 932a 61bc 5339 d1ba 561e 173c
00000130: 7145 c4b9 726b b03c 23fa e4bc a127 f83c
00000140: 82cb 6c3d 32bd a2bd 405d 9eba 7d0e 813c
00000150: 46c8 063c faf3 bc3c b565 b5be 4c99 d63d
00000160: 23f6 b0bc 32f2 343b e56b 85bc 6bf3 bdbd
00000170: a39d 3fbd cefb 07bf 7c91 bcb9 ce77 163b
00000180: 5ed5 c13c 1318 7fbd 9abb f0bc 5f96 75bd
00000190: a053 14bd 1a47 4e3d caa9 79bc b949 19bd
000001a0: 65a4 843d 0010 273d 96f5 433d 7a74 2e3d
000001b0: 0f44 f63c 487c 343b 3988 a63c be2e 803b
000001c0: 1e54 553d e3c8 4dbd 2531 c53d a193 163b
000001d0: d440 fbbc b5dc 543d 031b b4be c13e e6be
000001e0: f76d 243d ce09 e33c 32d6 afba ce86 a8be
000001f0: 3a9b 95bd 7398 91be 976c 42bd 34c8 133d
00000200: f6bb d73c 75cc 6cbc dd94 ed3b b4e9 343d
00000210: 856d 663c 021a 0a3c 49b9 373c 0ff7 783e
00000220: a1fb ff3c d14a eabb 3436 743c 25e0 083a
00000230: bc89 3a3d 5d52 f73a 0705 e33c cf9c 63b9
00000240: 7052 483d 76e7 1e3c 9700 b73c 19e3 d0ba
00000250: e246 d3bb 9311 2b3a 2e20 12bf 9217 0dbe
00000260: 9e62 57bc f1c5 8abc 9972 85bc a486 893e
00000270: ec50 49bb df0d 203e 54e3 843b 3879 1fbc
00000280: 36f0 31bb 2337 39bb b88d 2fbc 64ca b53b
00000290: fc41 263c 6bc9 6d3b ad17 8a3c 11a5 c3bd
000002a0: 24d2 a1bc b2a5 09bc c9ff ca3c 3065 e93b
000002b0: e239 26bc d5f1 ff3b c86c 8c3c cdda 7b3c
000002c0: 733e 6abc b193 10bd 902f 803b bb79 e8bb
000002d0: 6f3c 1dbb aafb 2f3a 5aeb d13d 4028 febe
000002e0: 55ff 313c 24a9 e13a 0e76 0e3b 31ef fbbd
000002f0: a40d 563c cded 3e3e 344c 8d3c 33e3 2e3c
00000300: 34db 7fbc 928e 033b dcfe e8bc 62de c2bb
00000310: ce5b cf3b c717 ffbb 6fa7 05bd 1dfa 32bd
00000320: ce89 c53b 6e60 98bc 2ab2 bc3c 951c 87bc
00000330: cbbf 1cbc 4e60 6cbd ac5f 1d3a 526e c43a
00000340: 2203 d23c 61d0 25be 52bc 8bbc 25dc 4fbc
00000350: b71a 143d da79 0bbd 920f 813e b985 3f3e
00000360: 8c95 61bc a0c9 d4bc 3d16 a73c 981f a93c
00000370: 1a2b 853c 73df cc3e f356 bc3c 0aef 663c
00000380: 0140 213c d39c 953c 8bf9 163c 039d 5bbc
00000390: 3554 1cbc c342 42bc 917d 87bb d6e3 413d
000003a0: 10fb d23c 4d02 923c 7cf6 8a3c 4c35 493b
000003b0: b157 8b3c 6a83 923b d49b 793b c963 173c
000003c0: 75c0 9c3b 84f2 91bd 7803 da3c 4f3c c9b9
000003d0: 884a 54bc 4393 053c 7663 81be 1ae8 dbbe
000003e0: 82c8 b03c 4d80 123c b573 94bb 70a9 4bbe
000003f0: bf04 07ba 33eb 1d3f a42c c5bb 0f24 c1bb
0.009807299 0.014618845 0.029093886 -0.0055833617 -0.005736258 -0.031786818 0.017024493 -0.03658766
-0.02351832 -0.004658074 0.014495172 0.011279261 -0.011311843 0.008525001 0.00037556846 -0.021604843
-0.022896653 -0.08602057 -0.02112801 0.0096887825 -0.014700999 0.013856552 0.03285859 0.41863135
0.015922947 -0.0020017873 0.0034666697 -0.2982875 0.016605305 -0.5000837 0.023106484 -0.014663705
-0.035990443 0.0139949955 0.002534827 0.023145024 -0.020353753 -0.044556607 0.0012762895 0.27195343
0.060622428 -0.00480196 -0.001991477 0.034583986 0.019366954 -0.065955356 -0.009638601 -0.04323655
-0.05280669 0.037248943 -0.015056632 -0.026683452 0.01875673 -0.058929473 0.31886506 -0.013504546
0.04212151 -0.016393395 -0.036897592 0.3404822 -0.007848998 0.28969815 0.039066408 0.03760781
0.015857793 0.006066344 0.016495755 -0.049357094 -0.021663608 0.01483566 -0.043711275 -0.4109373
0.072574176 -0.013743061 -0.0015962519 0.009223541 -0.0003743577 0.021535609 -0.027951306 0.030292334
0.057811268 -0.079462424 -0.0012082234 0.015753979 0.00822646 0.023065556 -0.3542916 0.10478458
-0.021601742 0.002761018 -0.0162868 -0.09274944 -0.046781193 -0.531186 -0.0003596655 0.0022959593
0.023661312 -0.06227882 -0.02938633 -0.05995786 -0.036212564 0.050360776 -0.015238235 -0.037423823
0.06476668 0.040786743 0.04784163 0.04259155 0.03006175 0.0027539898 0.020328628 0.003911822
0.052082174 -0.05024041 0.09628514 0.0022976177 -0.03067056 0.051968295 -0.35176858 -0.44969752
0.040143933 0.027714636 -0.0013415276 -0.32915348 -0.07304998 -0.28436622 -0.04746684 0.0360796
0.026334744 -0.014453043 0.007250412 0.04416819 0.014064197 0.008429052 0.011213609 0.24312995
0.031247916 -0.007150032 0.014905501 0.00052213884 0.04554151 0.0018869151 0.027712358 -0.00021706823
0.048906744 0.009698739 0.022339148 -0.0015936821 -0.006447659 0.0006525751 -0.5708035 -0.13778523
-0.013146071 -0.016940089 -0.016289996 0.26860535 -0.00307184 0.15630291 0.00405542 -0.009733491
-0.0027151234 -0.0028261624 -0.010714941 0.0055478085 0.010147568 0.0036283385 0.016856993 -0.09552968
-0.019753523 -0.008401321 0.024780171 0.007122658 -0.010145636 0.007810811 0.017141715 0.01537199
-0.014297116 -0.0352971 0.00391192 -0.0070945895 -0.002399232 0.0006713221 0.10249968 -0.49640083
0.010864099 0.0017216546 0.0021737847 -0.123014815 0.013064776 0.18645401 0.01724825 0.010674286
-0.015616227 0.0020073992 -0.028441839 -0.0059469203 0.0063280826 -0.007784817 -0.03263038 -0.043695558
0.0060283905 -0.018600669 0.023034174 -0.016493121 -0.009567211 -0.05770903 0.0006003331 0.0014986491
0.02563626 -0.16192771 -0.017057572 -0.012686764 0.03615829 -0.034051754 0.25207192 0.18703355
-0.013768565 -0.025975049 0.020396346 0.020644948 0.016255904 0.40014228 0.02299068 0.014095077
0.00984192 0.018263256 0.009214769 -0.013404134 -0.009541561 -0.011856738 -0.0041348417 0.047336422
0.025754482 0.017823363 0.016963236 0.0030701933 0.017009588 0.004471232 0.0038087266 0.009240099
0.004783685 -0.07126334 0.026612982 -0.0003838264 -0.012957223 0.008152786 -0.25271195 -0.42950517
0.021579985 0.008941722 -0.004530395 -0.19888854 -0.00051505485 0.6168701 -0.0060172845 -0.005894191

decoder.0.bias f4 [256]
00000000: 847b db3e 01f1 ee3d 8fc5 513e 9d79 44bd
00000010: f83f 253e 934e be3e 3705 e63e acf1 b0bd
00000020: 7341 e03e fc84 6f3e 0f34 373e 30cf 733d
00000030: 1d15 ea3e 2d9e b63e b3e1 c73e 335a cabc
00000040: 2dba 713e 5360 093e 99fa 403e 3085 943e
00000050: 8477 99be 3a25 903e fd7c 8a3d 681e 9c3e
00000060: 9386 3cbe b18e c03e ca57 b33e 9209 03be
00000070: 214e 653e 126d 443d 2963 1a3f 01a9 35be
00000080: cb65 db3e 027c 1c3e dc72 673e 58d3 cb3d
00000090: e3de 5f3e 5149 903e d57d e5bd d316 25bd
000000a0: 7955 e5bd 6a59 873d 9d71 0bbe d8e8 213e
000000b0: af16 803c fca4 d93e ad16 11bd d890 00be
000000c0: 7ad0 3abc 34a6 ebbd 4369 ebbd 7d59 c63e
000000d0: cb4f 0b3f 6099 d83d ab7f 4c3e c109 e43d
000000e0: f9e4 cc3e e009 263e f2ca ad3e 1fcd e83e
000000f0: b4b8 e53e f9c4 9a3e a663 b3be 9e3c e63e
00000100: fcc5 58bd 9df5 6a3e 759f 493d c6e3 003f
00000110: 244b df3e 16ef c03d c923 623e aa7f dd3e
00000120: 8d7e de3d 8ead 16be 7342 da3e 4c98 c13e
00000130: 50be 8b3e 5efa 363e 0cda 323e fdfe db3e
00000140: 338d 7b3e 9030 873e ffea 943d bc06 af3c
00000150: b14c 833e 54b9 ee3e 0cca 723e e954 133e
00000160: aeb5 09be edea 053f e483 723e 37c0 b8ba
00000170: e607 c83e 419f eabd ddc1 c7be 6b42 0a3f
00000180: e991 0ebe 8474 6ebe 29c7 e23e 38ec 333e
00000190: 4677 933e 2b97 2e3d fff5 d03b 4df1 2dbd
000001a0: a22c d4bc f0f4 883c 2206 0c3f 4e79 23be
000001b0: 6f8c bd3e e261 453e f40e a23e 47e0 ac3e
000001c0: 401e 123f 5181 fa3e ae0b 563e 8c1d 143d
000001d0: 03ef e4bd da1e 013e 1cb7 b83e dae4 e03e
000001e0: caa9 883e e927 493e d96d e23e 8939 993e
000001f0: 4d1f 9e3e e75e 36be 9522 3dbd 3ee1 6f3d
00000200: 7114 a53d 7913 903d a2d0 78be 3bef d73e
00000210: 6eb7 8cbe 78f0 ce3e 2610 d53e 9c95 2b3d
00000220: 1593 a43e 0538 c7bd 6277 f3bc 718a 83bd
00000230: 8eb8 bc3d 19e7 96be 0b39 41be 6fa8 c8bb
00000240: 8b27 4c3e c921 75bd b952 453e 6b8b c83e
00000250: 3689 603e b57d 3fbe 5aeb ae3e d945 213e
00000260: 6b42 763e 3ea7 69bd a8a0 033f b16b bf3e
00000270: d830 183f 4245 863e 8793 d2bd 06d0 e63e
00000280: 111e 723d af9d 383e 7345 223d 0214 423e
00000290: 957b 603e b865 2dbf c13b 813d 315d c03e
000002a0: ed1b 153e c440 133f 89e3 bf3e 6e56 e83e
000002b0: d0f1 2abc 3cba 9e3e 3e15 da3e 60e0 6b3d
000002c0: 3aca 56be 4e8e 1ebd 6e5d 1dbe a4c5 e13e
000002d0: f0b8 963e 178d 07be fb80 633e cb49 ec3e
000002e0: 0312 36be dc91 643e c5a1 89bc fdc0 6dbe
000002f0: 6c87 a43e 6441 4c3e 9f1b 0d3e a845 293e
00000300: feb2 813e cb88 293e 8c31 dd3e df4c 3ebe
00000310: 9422 033e 19a8 f13d 2cd4 603e a592 603d
00000320: b511 833e 9fec 283e 2881 a33e 4f03 82be
00000330: 487d 873e 881d b33e ab59 45be d576 973e
00000340: bfb7 f03c 8db5 403e ff3f bc3e 2915 7ebd
00000350: 1aa8 50bc 1f5d b13e 3f2b 9dbe d464 1b3e
00000360: 864e a53e bbfa 043d 8f6e 4cbe 1c9a e63d
00000370: 4157 633e 5b96 17bd 2060 0f3e b758 183f
00000380: c5e8 953d db9c fb3d 1e74 753d d752 79be
00000390: a977 443e ad22 1f3e f604 a73e a42a f9bd
000003a0: 6659 ee3d f7ed 8e3d 350f 1a3f 88a9 1e3e
000003b0: e6cb 9e3e bf43 3c3e f99c 283e 1d17 913e
000003c0: bb60 aa3e 74fc 56bd 989b 57be 479f 833e
000003d0: 377c 903e 2fee 2d3f be8c d23e 880d c03e
000003e0: 9c08 88bd 8560 ee3e 963a a73d 9346 323e
000003f0: e294 523e 8fdf 763e 6645 a13e 32ad eebd
0.42867672 0.116670616 0.20485519 -0.047967542 0.16137683 0.37169322 0.44925854 -0.08639845
0.43799934 0.23390573 0.17890953 0.05952376 0.45719233 0.35667554 0.39039382 -0.024701213
0.23606177 0.13415651 0.18845595 0.29007864 -0.29973996 0.28153402 0.06762121 0.30491948
-0.18410711 0.37608865 0.35027915 -0.1279662 0.22393085 0.04795558 0.60307556 -0.17740251
0.428511 0.1528168 0.22602409 0.0995242 0.21862368 0.28180936 -0.11205641 -0.04030497
-0.11197943 0.06608851 -0.13617559 0.15811479 0.015635816 0.42508686 -0.035422016 -0.12555254
-0.011402244 -0.1150631 -0.114946865 0.3874015 0.5441863 0.10576129 0.19970576 0.11134673
0.40018442 0.16214705 0.33943897 0.45468995 0.4486748 0.30228403 -0.35036963 0.44968122
-0.052923188 0.22945257 0.049224336 0.50347555 0.43612015 0.09420602 0.22083963 0.43261462
0.108639814 -0.14714643 0.42628822 0.37811506 0.27293634 0.17868945 0.17465991 0.42967978
0.24565582 0.26404238 0.072713844 0.021365516 0.25644448 0.4662577 0.23709887 0.1438786
-0.13448212 0.52311593 0.23683125 -0.001409537 0.39068526 -0.114561565 -0.39015093 0.54007596
-0.13922848 -0.23286635 0.44292572 0.17570579 0.28801936 0.042624634 0.0063769813 -0.04246645
-0.025900189 0.016718358 0.5469686 -0.15964243 0.37021205 0.1927562 0.31652033 0.3376486
0.5707741 0.48926786 0.20902893 0.03616099 -0.111784 0.12609425 0.360772 0.439246
0.2669204 0.19644131 0.44224432 0.29926708 0.30883256 -0.1780964 -0.046175558 0.058564417
0.080605395 0.07034964 -0.24298337 0.42174706 -0.27483696 0.40417838 0.41613883 0.041890725
0.32143465 -0.09727482 -0.029720012 -0.0642289 0.092148885 -0.2947319 -0.18869416 -0.0061235945
0.1993696 -0.059846673 0.19269837 0.39168867 0.21927342 -0.18700297 0.34163934 0.15749301
0.24048774 -0.05704426 0.51417017 0.3738685 0.5944953 0.26224715 -0.10282045 0.45080584
0.059110705 0.18028902 0.039617013 0.18952945 0.21922143 -0.67733335 0.06310225 0.375711
0.14561434 0.575207 0.37478283 0.4537844 -0.010433629 0.3100146 0.42594332 0.057587028
-0.20975581 -0.03870993 -0.15367672 0.440961 0.2943797 -0.13237415 0.22217171 0.4615005
-0.17780308 0.22321266 -0.01680077 -0.2321815 0.3213457 0.1994682 0.13780068 0.16530478
0.25331873 0.16556089 0.43201864 -0.18584011 0.1280616 0.1179964 0.21955937 0.05482735
0.25599447 0.16496514 0.31934476 -0.2539315 0.2646277 0.34983468 -0.19272487 0.2958285
0.029384492 0.18819256 0.36767575 -0.0620319 -0.012735391 0.34641358 -0.30697057 0.15175182
0.3228647 0.032465678 -0.1996405 0.11259863 0.22201253 -0.037008625 0.14001513 0.5951037
0.07319788 0.12285777 0.05992519 -0.24348007 0.19186272 0.15540572 0.32620972 -0.12166336
0.11638145 0.06978982 0.60179454 0.15494359 0.31014937 0.18385218 0.1646613 0.28337947
0.33276924 -0.05248685 -0.21055448 0.25707456 0.28219768 0.67941564 0.41123003 0.37510324
-0.06642267 0.46558014 0.08165471 0.17409734 0.20564607 0.24108718 0.3149826 -0.11654128
