data/lstm_model.pth (torch, 851433 bytes, 10 tensors)

lstm.weight_ih_l0 f4 [512, 22]
000000 02 56 34 bd 3d 9c aa 3c 49 23 cc bd db ce ce 3c
       -0.044027336 0.020826453 -0.099676676 0.02524512
000010 72 42 29 3d 98 da 0d bd 0d 9d 87 bd 8d ab 1a bd
       0.041323133 -0.034632295 -0.06621752 -0.03776126
000020 28 7b 97 bc 6c 3b cf bd 11 71 c0 3d 2e 37 9d 3d
       -0.018491343 -0.10118756 0.09396566 0.0767654
000030 e2 a0 34 bd 4b fc 59 bd 92 57 3c 3d 5c 95 f8 3b
       -0.044098742 -0.05321912 0.04598195 0.0075861644
000040 e1 4e a1 3c 26 03 2e 3d 68 c1 5a bd da dc 88 bd
       0.019690933 0.04248347 -0.053407103 -0.06682749
000050 84 32 2e bd bf cf 2b bc 57 7b 6b bd f4 77 9a bd
       -0.042528644 -0.010486542 -0.057490673 -0.075424105
000060 0b af 72 3a ce b0 19 bd a9 16 87 bd 24 f2 76 bd
       0.0009257651 -0.03752213 -0.06596119 -0.060289517
000070 3a 69 df 3a e0 2a 9f 3d ae 89 52 39 62 f6 34 3d
       0.001704491 0.0777185 0.0002007845 0.04418028
000080 4f e6 88 bd a2 80 0b bd bc 4a 3f bd aa cf c7 3d
       -0.06684553 -0.03405822 -0.04670213 0.09756406
000090 55 48 9d bd cc 94 09 3d d3 2a 5d 3d 7c a3 3b bc
       -0.07679812 0.03358917 0.05399592 -0.011452552
0000a0 5b b7 a2 bd dc 11 65 ba a1 19 43 3c c9 4b 9e bd
       -0.079451285 -0.0008738318 0.011907966 -0.077292986
0000b0 a9 06 05 bd 02 96 88 3d 0c 5f a4 3c 59 c7 8b 3d
       -0.032477055 0.06669237 0.020064853 0.06825132
0000c0 0f 34 d4 bc f8 5c 50 bc 02 92 45 bb e0 38 a7 3d
       -0.02590373 -0.012717478 -0.0030146842 0.08165145
0000d0 86 e9 f9 3c 4f 59 b8 bd 08 40 dc bb 95 02 1d bd
       0.03050686 -0.09001409 -0.0067215003 -0.03833254
0000e0 bf 51 ad 3d 36 72 73 bd 3b 21 5c 3d 2c b0 92 3d
       0.084628575 -0.059435092 0.05374263 0.07162508
0000f0 c6 05 31 ba f6 ed b0 bb d9 96 f2 3c 1c 1b 54 3d
       -0.00067528745 -0.005399461 0.029612945 0.051783666
000100 62 21 8f 3d 6c d5 84 bc 29 b7 ba bb 3c ce cc bc
       0.06988789 -0.016215049 -0.005698104 -0.025000684
000110 77 85 69 3c 53 9d 23 3d bb dd 82 3d 0a 50 ea 3c
       0.014253012 0.039944958 0.06389948 0.028602619
000120 3d 36 48 3d aa 57 51 bd 0d d5 50 bd 6c e7 6f bd
       0.04887985 -0.051108994 -0.05098443 -0.05857031
000130 a3 11 43 bb 30 5c f3 3b 04 50 37 3d d3 66 bc 3d
       -0.002976515 0.007426761 0.044754043 0.091993
000140 2b ca 8a bd b8 74 c5 3c b6 9e 96 3c bf 2b 58 bd
       -0.06776842 0.024103507 0.018386226 -0.052776095
000150 c0 a4 8c 3c 94 e0 93 bd 8a 55 32 b6 f2 50 8c 3c
       0.017168403 -0.07220569 -2.6573857e-06 0.017128441
000160 5e 8f e8 3c de 92 a0 ba ca 40 af bd a3 89 0e 3d
       0.028388675 -0.0012250801 -0.085572794 0.03479923
000170 3b 29 a0 bc 00 a4 41 3a 86 09 bb bc df bc a6 bd
       -0.01955091 0.00073868036 -0.02283169 -0.08141493
000180 ae c7 43 3d 2e 41 87 bd 38 73 da 3d c8 0c 4a 3b
       0.04779785 -0.06604229 0.106665075 0.0030830372
000190 3d c4 5b 3b 93 9d c1 bc 5e 56 c2 3d ad 87 c9 3d
       0.0033533715 -0.023634708 0.094891295 0.09840331
0001a0 bc f9 04 bd 1b 57 0d 3d 79 ae 8a 3d 37 81 95 3d
       -0.032464728 0.0345069 0.06771559 0.073000364
0001b0 08 4b e5 bc 64 a8 59 3c 69 44 7f 3d bd 52 18 ba
       -0.02798988 0.013284776 0.0623211 -0.0005810669
0001c0 02 74 31 bd 76 8c 40 3d 6d ad 41 bd 7f 2d 6e bb
       -0.043323524 0.047008954 -0.047284532 -0.0036343036
0001d0 f1 f0 dc bc 8c 54 31 bd dc 1c ca 3d 46 a6 6c bd
       -0.026970359 -0.04329352 0.09868786 -0.05777576
0001e0 28 3a 16 bc 25 3e bc bb fe a4 c4 3d 07 6f 8c 3d
       -0.009169139 -0.005744713 0.09601782 0.06857114
0001f0 8a 28 3b 3d a1 04 91 bd 60 d0 16 bd 25 b8 31 bd
       0.045692958 -0.07080961 -0.036819816 -0.043388505
000200 ad 03 80 bd fd 9b 0a bd 55 5e c3 bd 0d 6b 7e 3d
       -0.06250701 -0.03384017 -0.09539477 0.06211381
000210 fe 2d a9 3d 19 04 ab 3d ff ae 72 3d ed 15 cb 3b
       0.082607254 0.08350391 0.05924892 0.006197682
000220 c5 1a ba bc 7e 3e 8d bc d1 8e af 3d ce 04 ba bc
       -0.022717843 -0.017241713 0.08572162 -0.02270737
000230 f6 46 3d 3d dc ea 06 3d 3b 48 d1 3d 04 fc 4b 3d
       0.04621025 0.032938823 0.10218855 0.049800888
000240 c8 d9 04 bd df f1 07 3d 53 dc a8 bc d9 29 63 bd
       -0.032434255 0.03318965 -0.020612871 -0.05545983
000250 a7 bd b6 3d 73 fc 63 3d 81 fb fc 39 ff a0 3b 3c
       0.08922892 0.055660676 0.0004825257 0.011451959
000260 38 42 01 bd d7 76 95 bd c1 c8 fc ba 10 56 71 bd
       -0.03155729 -0.072980575 -0.0019285904 -0.058919966
000270 e2 25 d4 3d e7 a9 32 3c f1 27 b3 bb 70 c5 8a bd
       0.10358788 0.010904766 -0.005467408 -0.067759395
000280 2f 03 6b bd de b6 2a 3d 57 22 52 3d 81 ad 8c bd
       -0.057376083 0.041678302 0.05130228 -0.06869031
000290 f6 3d 20 3d 10 ee 85 bb 41 dc a1 3c 0e 9d 92 bc
       0.03912159 -0.004087217 0.019758346 -0.017897155
0002a0 02 13 8c bc 94 fb 64 bd e3 a2 73 3d f5 fc 6c 3d
       -0.017098907 -0.055903986 0.059481513 0.057858426
0002b0 fe cc 73 3c b2 bf 53 bd 83 30 19 bd 51 dc 76 3c
       0.014880417 -0.051696487 -0.03739978 0.015067176
0002c0 7a 23 ba 3c 2f 62 0b bd 3c 9a 87 bd 3c df 8e bd
       0.022721995 -0.034029182 -0.06621215 -0.06976172
0002d0 f7 5d 8b bc 39 9a 04 3c bf c0 31 3d 9f 6d ad 3a
       -0.01701258 0.00809341 0.043396708 0.0013231522
0002e0 36 0a 93 3d a4 9f 5d 3d ad e7 c5 bd 94 d2 58 3d
       0.07179682 0.054107323 -0.09663329 0.052935198
0002f0 73 ef 82 bd d1 d1 7c 3d 44 ac e4 3b fe c6 74 3d
       -0.063933276 0.061723534 0.0069785435 0.059760086
000300 5f fe 68 bc f5 40 c7 3c bf 4a 78 bd a3 6d cc 3c
       -0.014220803 0.024322966 -0.06061816 0.024954623
000310 bf 0b e9 bb 74 4e 10 3d f0 42 44 39 ad 48 be bd
       -0.007111996 0.03523107 0.00018716953 -0.092912056
000320 dc 91 17 3d 9b 1f 50 3c a9 10 18 bd 79 a4 82 3c
       0.037004337 0.012702848 -0.037125263 0.015947567
000330 b3 ec 32 3d dc 81 32 bd b5 9a f2 bb 29 34 78 3c
       0.043682765 -0.043580875 -0.0074036964 0.015149155
000340 4b 12 65 3d 96 bb 5a 3d a3 4b 82 bd f0 12 bf ba
       0.05592565 0.053401552 -0.06362083 -0.0014577787
000350 71 64 02 3d 38 8e 64 bc d1 d2 c5 bc cd cc b8 bd
       0.03183407 -0.013949923 -0.024148377 -0.09023438
000360 9c bf 13 3d 0a 86 84 bd 37 fa 31 bd 17 9e b3 bd
       0.036071405 -0.064708784 -0.043451514 -0.087703876
000370 69 02 f1 bc c1 e6 c3 3d 6d 8d 43 bc 62 2a e8 3c
       -0.029420095 0.09565497 -0.011935574 0.028340522
000380 da 8c ac 3c e4 a8 e8 3c 96 57 97 3d 67 2a 8d bd
       0.021063257 0.028400846 0.073897526 -0.06892853
000390 07 3a 87 bd 0a 5a 98 bc 07 42 5b bc 6d 4a 8e 3c
       -0.06602865 -0.018597621 -0.013382441 0.017369473
0003a0 1f f8 e5 3d 3a 2c a5 bc 80 fa cb 3d 5f 58 9e bd
       0.11228966 -0.02016269 0.099598885 -0.07731699
0003b0 fe a9 e0 bb 89 a9 09 bb b7 1d 9f 3d fe 73 a1 bc
       -0.006856202 -0.0021005592 0.077693395 -0.01970863
0003c0 b1 aa 83 3d db 06 9e 3d 55 db d5 3c cd 19 4c 3d
       0.06429041 0.07716151 0.026105562 0.049829293
0003d0 a3 b9 dd bc 0b 6a 23 bd 5d 69 3b bd ef a5 0a 3d
       -0.027066058 -0.039896052 -0.04575478 0.033849653
0003e0 5b 75 a9 bb b4 8d dd bc 51 20 2a 3d 0d 32 b2 bd
       -0.0051714606 -0.027045108 0.041534726 -0.08700953
0003f0 36 2e 02 3c 8a 0a b7 bd d4 9e a5 bd b8 c6 50 bd
       0.007945588 -0.08937557 -0.08086935 -0.050970763

lstm.weight_hh_l0 f4 [512, 128]
000000 7e 78 6c 3c 3d c9 47 3d b4 52 89 3b c5 bb 92 bd
       0.014433024 0.0487759 0.004190767 -0.071647204
000010 d9 b4 6b 3d e2 ba 45 bd b1 ed 49 bd da ca 83 bd
       0.057545517 -0.04827393 -0.049298946 -0.06435175
000020 c2 ec e2 3c f8 ef 29 3d d8 22 b2 bd 75 61 bb bb
       0.027700786 0.041488618 -0.08698052 -0.005718405
000030 8f 0b 8f bd e0 17 04 3d 3c 8e da 3c ea aa 89 3c
       -0.069846265 0.03224933 0.02667915 0.016805131
000040 9e 3b 7d bd 47 4c 76 3d f8 29 4a bd be 70 89 bc
       -0.061824434 0.060131337 -0.04935643 -0.016777392
000050 d5 a1 73 3c c2 9a ac 3c 46 d2 19 3d ed f4 0c 3d
       0.014870127 0.021069888 0.037554048 0.034413267
000060 56 34 76 3b f0 cf 84 bd 3a 8e b9 3d bd ea b1 bc
       0.0037567816 -0.064849734 0.09060331 -0.021718377
000070 02 0b 03 bd 53 b3 71 3b e1 6b 8c 3c 30 e9 75 bd
       -0.03199292 0.0036880567 0.017141284 -0.060036838
000080 44 ad 52 bc d5 e3 89 3d f8 fb aa bd 65 c5 33 bd
       -0.012858693 0.06732909 -0.083488405 -0.043889422
000090 58 68 fd 3c 2b 98 7e 3d 64 e4 c3 3c 62 2e 20 3b
       0.030933544 0.062156837 0.023912616 0.0024441709
0000a0 e5 8d 71 3d 17 35 e6 bd a6 05 62 3d 01 8d 07 3b
       0.05897321 -0.11240595 0.055181168 0.002068341
0000b0 84 e4 81 bc da 00 97 bd 25 2a 7b 3d e5 24 82 bd
       -0.015856035 -0.07373209 0.06131949 -0.06354693
0000c0 92 f8 1e bc af 82 6a 3d fe 5b b2 bc 76 7a 04 3b
       -0.0097028185 0.057253536 -0.02177238 0.0020214594
0000d0 68 56 20 3d 2b 24 5b 3d 52 df 05 bd 09 61 c6 bb
       0.039144903 0.05350129 -0.032683678 -0.006054048
0000e0 0a 89 4e 3b 89 7e ac bd a0 b5 8f bd 2f e7 59 bd
       0.0031514787 -0.08422572 -0.07017064 -0.05319899
0000f0 d7 aa 95 3d df 5a 50 bc 53 ee c8 3c fa 1e 72 bd
       0.07307976 -0.012716978 0.024527704 -0.059111573
000100 61 d6 af bd b5 fe 32 bd a4 ae 11 bd aa 8e 91 3d
       -0.085858114 -0.04369994 -0.03556694 0.07107289
000110 57 6a 28 3b a0 8d 8d bc 4a 02 6f bd 94 2b 9b 3d
       0.002569815 -0.017279446 -0.058351792 0.07576671
000120 ad e0 44 3d ae 11 08 3d e3 20 5e bd 70 e3 32 3d
       0.04806583 0.033219986 -0.054230582 0.043673933
000130 78 07 97 bb 6c 4f 0d bd 33 60 94 bc b4 e4 66 3d
       -0.0046090446 -0.03449957 -0.018112278 0.056370452
000140 20 27 42 3d 8f 9a ab bd ae 88 75 3d 06 fb 43 bd
       0.047400594 -0.08379089 0.0599448 -0.047846816
000150 91 dd 78 bd f3 a9 ce 3c 34 e0 45 bd 69 8e 66 bd
       -0.060758177 0.025227522 -0.04830952 -0.056288157
000160 36 46 97 bd fa 3c d7 3d 9b 8e 6a bd 11 88 0b bd
       -0.073864385 0.10509677 -0.057264905 -0.03406531
000170 3d 0d 8a 3d cb 13 a3 3c c1 bf 2b bd 30 b0 38 bd
       0.06740806 0.019906899 -0.041930918 -0.0450899
000180 98 8c 41 bc bf 67 8f 3c fa 6c 94 bd 70 d5 86 3c
       -0.011813305 0.017505525 -0.07247348 0.016459197
000190 73 3f a3 bd a2 8e 80 bc 5c fe 08 bc 3e 0e 87 bd
       -0.07971086 -0.015693013 -0.008361425 -0.06594513
0001a0 55 2c 4b bd b0 f0 c8 bc 01 22 5c 3d 0c dd 62 bd
       -0.049602825 -0.024528831 0.053743366 -0.055386588
0001b0 3a 19 5e bd 6e 77 2f 3c 7c f9 05 bd 22 0b ad bd
       -0.054223277 0.010709627 -0.03270863 -0.08449389
0001c0 cd d5 f2 3c 35 6a c1 bc 6a 2e 71 bd 51 31 0e bd
       0.029642964 -0.023610214 -0.058882155 -0.034715
0001d0 3b b2 a3 bd bb cc 54 bd d4 8f a3 bd f9 f3 d6 bb
       -0.07992979 -0.05195306 -0.079864174 -0.0065598455
0001e0 9b c1 9a bd df 1f 8b bd 1b 0f 6a 3d 22 84 4d bc
       -0.075564586 -0.06793188 0.057143312 -0.01254371
0001f0 37 86 08 3d 32 d4 88 3d d6 bf a9 bd 62 de a5 3c
       0.033331122 0.06681098 -0.08288543 0.020247642
000200 3e 2e ab bc 95 bd c5 3c 63 07 9f 3c a4 12 9a 3c
       -0.020896073 0.024138251 0.019412702 0.018807717
000210 da 5e 48 bd 91 dc 80 3d a0 fb bb bd 98 82 a7 3d
       -0.048918582 0.0629207 -0.09178853 0.08179206
000220 4a 8a 7d 3d 5e bd 53 bd 2b 16 9f bc 47 72 54 bb
       0.06189946 -0.051694266 -0.01941975 -0.0032416747
000230 38 49 77 bc e8 5b 1d bd 7e f5 9c bd dd f0 fa 3c
       -0.01509314 -0.038417727 -0.076640114 0.03063243
000240 60 55 a6 3d 28 0b 2e bd df c8 8d bd c5 8a d1 3c
       0.08121753 -0.04249111 -0.06923079 0.025578866
000250 7b 11 c7 3b 4c 2c 99 3d 16 4a 10 bd 98 0a 86 3d
       0.006075082 0.07479152 -0.035226904 0.06544989
000260 b6 85 85 bd 41 5e 7f bc f1 62 97 3d 99 f3 a7 bb
       -0.06519644 -0.015586437 0.073919185 -0.0051254747
000270 e3 f7 fb 3c 65 e2 e9 bc d9 7f 0b 3c 9c dc 8e 3d
       0.03075785 -0.028550336 0.008514368 0.06975672
000280 c6 ef 77 3d d2 51 88 3b 9b a2 c4 3c 56 23 f6 bc
       0.0605314 0.0041601444 0.024003318 -0.030046146
000290 12 0d 3e bc a6 0c 6d bd c6 d5 8f bd 37 a9 99 bd
       -0.011599796 -0.05787339 -0.07023196 -0.07502978
0002a0 b0 5b 54 3a e7 0f 14 bd 7d df 8c bd 2c 56 30 3d
       0.00081008207 -0.03614798 -0.068785645 0.04305093
0002b0 c6 4d 23 3c 46 2b 32 bd e7 e2 0b 3d 30 60 5e 3c
       0.009967273 -0.0434983 0.034151938 0.013572738
0002c0 5c 5e a7 bc ab d7 2a bd 5f d3 67 bd 29 15 b3 bd
       -0.020430736 -0.041709583 -0.056598064 -0.0874427
0002d0 9f 1f 81 bd 93 cf 66 3d b5 3c 9f bd 0c da 39 bb
       -0.06304859 0.056350302 -0.07775251 -0.0028358726
0002e0 6a 13 83 bd 67 8d 60 bd 18 c7 89 3c e9 ba 88 3d
       -0.06400187 -0.05482235 0.016818568 0.06676275
0002f0 b3 54 31 bd cc 59 9a 3d 32 fd a0 bd ed 86 ab 3a
       -0.043293666 0.07536659 -0.07860793 0.0013086476
000300 73 5d 97 3b 73 95 9f 3d 6c fb e8 3c 5e 3c 5f bd
       0.0046192943 0.07792177 0.0284402 -0.05450093
000310 35 4b 84 bd 74 b1 e7 ba e7 72 a6 3d a4 a8 43 3c
       -0.06459657 -0.0017676787 0.08127385 0.0119420625
000320 7d 1f 6f 3b 50 7d c8 3b 79 97 a6 3d bc f9 a4 bd
       0.0036487274 0.006118454 0.0813436 -0.080554456
000330 be 30 88 bd 2a 32 68 3d d5 1c 49 3c 0f 55 2c bc
       -0.06649922 0.056688465 0.0122749405 -0.010518326
000340 63 40 fd bb 81 8b 1e 3d 50 3e a1 3d 4a ff 71 bd
       -0.0077286228 0.03870726 0.07873213 -0.059081353
000350 ac a5 8b 3d 32 fb 29 bd a7 53 37 3c 2e 1c d1 bc
       0.06818709 -0.041499324 0.011189378 -0.025526132
000360 c8 f5 89 bd d2 81 92 3d b2 0f 27 bd d6 7e 8e 3d
       -0.06736332 0.071536675 -0.040786453 0.06957786
000370 56 41 7c bd b0 d2 74 bd d8 04 c4 3b 32 74 61 3d
       -0.061585747 -0.05977124 0.0059820227 0.055042453
000380 4d 56 97 3d ba e7 76 bd 20 60 39 bd ef 04 00 3c
       0.073895074 -0.060279585 -0.045257688 0.007813676
000390 fb 97 2d bc 85 45 b4 3d 4b 1a b9 b9 e3 5a 97 bc
       -0.010595317 0.08802322 -0.0003530554 -0.018475955
0003a0 ab 9f 5c 3d a9 c4 24 bd 89 e3 9f 3d 86 ff 91 3c
       0.05386321 -0.040226612 0.07807071 0.017822038
0003b0 8a 73 3d 3c 64 24 25 bd 86 67 e7 bc 58 0d c1 3c
       0.011563191 -0.040317908 -0.028247606 0.023565933
0003c0 d6 44 7b bd 7b 54 29 3d 62 e3 d9 3c 66 01 fa bc
       -0.061344944 0.041340332 0.026597682 -0.030518245
0003d0 30 0a e2 bb 28 0e b6 bd 89 73 a7 3d ce 65 89 3d
       -0.006898187 -0.08889419 0.081763335 0.06708871
0003e0 c0 3d 70 3d 67 db 5c bc 82 29 a1 3d af d4 b8 3d
       0.05865264 -0.013480044 0.07869245 0.09024941
0003f0 cb b3 85 3d 07 01 8e 3c 38 08 a7 bd bf 91 f3 3c
       0.065284334 0.017334474 -0.081558645 0.029732583

lstm.bias_ih_l0 f4 [512]
000000 44 12 94 3d a8 37 39 3c ac f4 12 bd a7 2d dd 3c
       0.072300464 0.011304773 -0.03587787 0.026999308
000010 29 46 60 3d f6 c5 8e 3d 7c ec 9c 3b 7d da a4 bd
       0.05475441 0.06971352 0.0047889333 -0.08049486
000020 52 a9 14 bd 24 5f c0 bd d0 6e ad 3d b0 ce a4 bd
       -0.03629429 -0.09393147 0.084684014 -0.08047235
000030 98 e6 17 3d ac f3 e3 3d 7d 58 64 3d 0f 0f 6e bd
       0.037085146 0.11130461 0.05574845 -0.05811983
000040 19 02 cb 3d bb fa 30 3d a9 8c c9 3d 72 37 00 3d
       0.099125095 0.043207865 0.09841282 0.031302877
000050 46 b1 3e 3c 43 16 b5 3d c6 80 71 bd f9 7a 78 3d
       0.011638945 0.08842137 -0.0589607 0.06066415
000060 d2 c0 87 3c bc bb e5 3d 56 75 3c 3b 0c 5d 1c bc
       0.016571436 0.11217448 0.002875646 -0.0095436685
000070 f7 ba bd 3d f6 29 c5 3c cd df aa bc b3 c3 d7 3c
       0.09264176 0.02406786 -0.02085867 0.026338434
000080 7a a2 37 bd 5f e9 9b 3d fd f7 3f ba 01 c6 91 bd
       -0.044832684 0.076128714 -0.0007323025 -0.071178444
000090 e6 57 ab 3b ff 6d f1 bc 7f 74 b4 3c 01 0c 80 3d
       0.005228984 -0.029471396 0.022028206 0.062522896
0000a0 0e 74 a9 3c d6 47 ea 3c 10 87 00 3e 9f 70 55 3d
       0.020685222 0.028598707 0.12551522 0.052109357
0000b0 07 b7 ad 3c e7 50 8c 3c 55 89 0a 3d 49 a7 82 3d
       0.021205438 0.017128421 0.033822376 0.06379563
0000c0 36 5a c4 bc 75 51 89 3d 22 2a a3 bd 81 57 be bd
       -0.023968797 0.0670499 -0.079670206 -0.09294034
0000d0 1f f7 71 3d 19 c4 1c bd 0c d7 e7 bc af b7 46 3d
       0.059073564 -0.03827295 -0.028300785 0.048515018
0000e0 60 fc 63 bc 08 27 be 3d c0 e3 a4 3d d6 38 69 bd
       -0.013915151 0.09284788 0.08051252 -0.05693897
0000f0 17 e7 be 3d cb 82 68 bd e7 56 a4 bd e8 ac 32 bd
       0.09321421 -0.05676536 -0.08024388 -0.043621927
000100 ef e2 7f bd e8 74 f7 bc e5 df cc 3c 9c ad 50 bd
       -0.06247228 -0.030207112 0.025009105 -0.050946817
000110 7f fc 04 bd 7e 5e 64 3d cf 04 e5 3c 7e 4d 33 3d
       -0.03246736 0.055754177 0.027956394 0.043775074
000120 ce 33 94 3c 09 d4 6a 3c c9 c6 22 3d de ea cb bb
       0.018091109 0.01433278 0.039740358 -0.0062230667
000130 8b 77 cc 3d 49 86 58 bd 40 c8 1f bd 69 7b c5 bc
       0.099837385 -0.05286244 -0.039009333 -0.024106698
000140 e6 68 46 3d 28 e7 3f 3d 56 13 b3 3c bd 88 71 bd
       0.048439883 0.046851307 0.021859806 -0.058968294
000150 2e 5b 89 bd 77 0e 6b bd 45 a0 eb bc a9 90 85 3c
       -0.06706844 -0.05738684 -0.028762946 0.01630433
000160 1e 04 30 bd fd 3a f2 3c e7 53 85 3d 55 14 8d bd
       -0.042972676 0.029569143 0.06510144 -0.06888644
000170 99 58 3a bd b4 46 b1 3c ad 95 a2 bd e4 8f b8 bd
       -0.04549465 0.02164016 -0.07938705 -0.0901182
000180 35 f8 ef 3d db 9c c7 3d 04 9f d6 bb c1 6b 2e ba
       0.117172636 0.09746715 -0.006549718 -0.000665363
000190 9b c5 8b 3c 46 82 80 bb 71 c1 3b bd 24 60 8d bb
       0.017061999 -0.00392178 -0.045838777 -0.0043144394
0001a0 ad c6 92 3d d5 2b f3 3c 28 12 c0 3d d8 0d a6 3c
       0.07166801 0.029683987 0.09378463 0.020270273
0001b0 11 87 2d 3d fe 33 7f bd 50 1b 1d bd d9 45 99 3d
       0.042365137 -0.062305443 -0.038356125 0.074840255
0001c0 e6 22 b6 3d d7 e0 48 bc d7 6d b0 bc b8 fe 20 bd
       0.08893375 -0.012260637 -0.02153675 -0.03930542
0001d0 e5 01 27 bd db 59 42 bb a8 66 30 3c 30 34 82 bd
       -0.04077329 -0.0029655609 0.010766663 -0.0635761
0001e0 fa c6 10 3d 73 f9 7c 3d 44 e0 ac 3d fa 94 8d 3d
       0.03534601 0.06176133 0.08441213 0.06913181
0001f0 86 e5 ec 3c db 4b 51 3d 8c 8f 9f bd 76 b5 60 bd
       0.028918039 0.051097732 -0.07791051 -0.054860555
000200 9d ea 78 3d 16 c3 c7 3c 05 67 92 3d d5 21 ad bb
       0.06077062 0.024385016 0.07148556 -0.005283574
000210 26 e5 e5 b9 67 29 93 bd 43 23 5b 3d 4a 9e 7a bd
       -0.00043849013 -0.07185631 0.053500425 -0.061186112
000220 85 1a 8c 3d 9e 21 ad bd f9 5d 86 bd 2d c6 a4 3d
       0.06840996 -0.084536776 -0.065608926 0.080456115
000230 9f 69 dc bb d2 93 96 bc 35 89 04 bd 61 39 0f bd
       -0.006726458 -0.018381033 -0.032357413 -0.03496683
000240 c8 73 04 3d b8 da 52 bd bb 89 06 bd 5b 6d 50 3d
       0.03233698 -0.051478118 -0.032846194 0.05088554
000250 8c 47 a5 3b d4 da a2 3d f8 ce a3 bd e7 52 5f 3d
       0.0050439294 0.079518944 -0.079984605 0.05452242
000260 08 ac c0 3c 47 64 34 bd 30 09 42 bd ca 06 93 3d
       0.02351953 -0.044040944 -0.047372043 0.07179029
000270 7d 05 0f 3d ed 6d e5 ba 4a 03 7a bd 7a 29 06 3d
       0.034917343 -0.0017504074 -0.061038293 0.0327544
000280 6f fc 8c bd 41 d7 86 bc c0 da 80 3d a4 ec bb 3b
       -0.068840854 -0.016460063 0.06291723 0.005734997
000290 be a1 ca 3d 4c 60 56 bc 3f 7b c3 3c 51 1a fd 3d
       0.09894131 -0.013084482 0.02386248 0.12358535
0002a0 a2 ff a3 3d 06 7a b9 3d 21 37 bd 3d f4 ec 94 bc
       0.080077425 0.09056477 0.09239031 -0.018179394
0002b0 8e 85 d9 bc 3f ab d8 bd 53 09 95 3c 87 79 93 bd
       -0.026552942 -0.105795376 0.018192923 -0.07200914
0002c0 65 4b 97 3d 87 90 89 bd 64 11 a3 bd 7c b9 a9 3b
       0.07387427 -0.067170195 -0.079623014 0.005179582
0002d0 3f a5 53 3d d6 08 6a bd 1e 1f 82 3d e5 20 74 3c
       0.051671263 -0.057137333 0.063535914 0.014900421
0002e0 f3 c1 9f 3b 73 d5 18 bd 9e 00 50 3c aa 58 79 3d
       0.0048754155 -0.037312936 0.01269546 0.060875572
0002f0 e0 bc 88 3c 79 67 91 3d 70 b8 9f bd 23 2b 6e bd
       0.016691625 0.07099814 -0.077988505 -0.058146607
000300 25 d1 b2 3c 65 c6 5a bd 7c ea ea bb bf 82 a6 3a
       0.021828244 -0.05341186 -0.007169066 0.001270376
000310 cc f5 9f 3d bf 2a 9c 3d e3 a7 7f 3d 35 e6 9d bd
       0.07810554 0.07625341 0.06241597 -0.07709924
000320 c2 99 68 bd ce e7 ba bb 51 bd 64 3d 73 a1 82 3b
       -0.05678726 -0.005703903 0.05584461 0.0039865314
000330 58 a6 e2 3d f8 4a 53 bc eb 28 79 3d 9b f9 90 bc
       0.11066884 -0.012896292 0.060830038 -0.017697146
000340 cd 36 fe 3d 47 db 3c bd 72 9f 21 bd 98 a8 c5 bc
       0.12412796 -0.046107557 -0.0394587 -0.024128243
000350 a3 05 c4 3d 7b 5f b1 bc 33 9a ae 3c e6 9d 5e bc
       0.095713876 -0.021651974 0.021313762 -0.013587451
000360 e6 c5 c2 bc 3c 95 7d 3d b4 e7 b7 3d c0 ac db bc
       -0.023776006 0.0619099 0.08979741 -0.026815772
000370 49 86 35 3d 3e 53 27 3d 31 5d 96 3d 09 94 67 bd
       0.044317517 0.04085087 0.073419936 -0.05653766
000380 94 25 b6 3c 3a c1 7a bd 10 b5 77 3d 31 dc 8f bd
       0.022234716 -0.06121943 0.06047541 -0.0702442
000390 3b 2e d3 bc da 5a bb 3d d8 e4 d0 bc 12 c5 ee bc
       -0.02577888 0.09148188 -0.025499746 -0.029146705
0003a0 02 ea cd 3d 06 8c 81 bd 2a 8f 71 bd c6 15 69 3d
       0.10054399 -0.063255355 -0.058974423 0.05690553
0003b0 6f 58 6a 3d 62 a8 cc bc 60 51 e2 bc 47 45 b8 3d
       0.057213243 -0.024982635 -0.027626693 0.089975886
0003c0 40 dd 6a bd 5d 41 2b 3c b9 43 08 bd 41 a4 b6 ba
       -0.057339907 0.010452596 -0.03326771 -0.001393445
0003d0 7f ca f4 bc 3a 5d 92 3d a3 b9 87 3d 01 ea 0e 3d
       -0.029881714 0.07146688 0.06627204 0.034891132
0003e0 a7 21 40 bd e1 85 7a bd d0 e5 16 bd d5 82 82 3d
       -0.046907093 -0.061162833 -0.03684026 0.063726105
0003f0 1e f7 8a 3d 76 55 9d 3d d1 62 91 3b 9c b6 8c bc
       0.06785415 0.07682316 0.0044368287 -0.017176919

lstm.bias_hh_l0 f4 [512]
000000 03 72 93 bc 76 e8 b2 3d 1f ac 5a bc c6 95 4e bd
       -0.017998701 0.08735745 -0.013346701 -0.050435804
000010 79 98 1e 3d 33 29 a5 3d 2b 47 b6 3d 73 e5 9d bd
       0.038719628 0.08064499 0.08900293 -0.077097796
000020 02 ff 41 bc 7f 18 c0 bd 82 f1 b1 bc ce 06 a4 bd
       -0.011840584 -0.09379672 -0.021721605 -0.080091104
000030 1f 88 aa 3c 7b 09 6f 3d 76 ce b0 bd 5d f5 60 bd
       0.02081686 0.05835865 -0.08633129 -0.054921497
000040 13 c4 02 bd d4 d2 30 bd 3f 50 1f bd a0 00 5c bc
       -0.031925272 -0.04316981 -0.038894888 -0.013427883
000050 45 c6 30 bd dd b3 b4 3c 7e 74 c3 3b 49 f3 1d bd
       -0.043157835 0.022058422 0.0059648147 -0.038562093
000060 4b 91 37 3d 77 f8 e0 3d 8f 76 3e 3d 39 87 2c bd
       0.044816297 0.10984891 0.046499785 -0.042121146
000070 66 9d b2 bc 92 c8 4c 3d f7 9b ac 3d c1 bb 9c bd
       -0.021803569 0.049995966 0.084281854 -0.07652999
000080 1a ca d7 bb 34 b9 a7 bd d0 2c 24 bd cc 93 a0 3b
       -0.0065853717 -0.081896216 -0.0400818 0.0049004313
000090 70 49 93 3b 3d c2 7b bd a6 b1 ba 3c c7 68 e3 3d
       0.0044948384 -0.061464537 0.022789788 0.11103969
0000a0 5c 38 9a bd 5f 56 10 bb d1 44 94 3c 1e a9 86 bd
       -0.07530281 -0.0022024137 0.01809922 -0.06575225
0000b0 e5 bf 29 bd a7 ad d4 bc 1e e9 6f bd 91 b5 76 3c
       -0.04144277 -0.02596171 -0.058571927 0.015057937
0000c0 b4 77 b8 3c 19 00 55 bc 95 2d 7d bd e7 5d 73 bd
       0.022518016 -0.013000512 -0.06181105 -0.059415724
0000d0 fc c0 91 bb a5 66 d6 3b f1 37 9e bd 2e b2 4b 3c
       -0.0044480544 0.006542998 -0.07725514 0.012432618
0000e0 48 e2 b4 3d 71 e2 d4 3c 04 06 a1 3d c4 8b 30 3d
       0.08832222 0.025986882 0.078624755 0.04310204
0000f0 ba 82 96 3d af 23 0b bd d8 1f 78 3d 29 b7 b1 bd
       0.07349153 -0.033969577 0.060577244 -0.08677513
000100 d1 7e 8e bd 7c f2 9d ba c2 3e 9d bd bd df 8b 3d
       -0.06957782 -0.0012050415 -0.07677986 0.06829784
000110 03 3c 42 3c 97 0c 1b bd 14 15 53 bc 45 4c fb bc
       0.011855128 -0.037853803 -0.012883443 -0.030676017
000120 9b 39 80 3c 4e 29 0e bb 82 6d 3c 3d d0 43 32 bd
       0.015652468 -0.00216921 0.046002872 -0.043521702
000130 09 a5 68 3d 4a 3d 9c bc b5 92 b8 3d b7 2f 77 3d
       0.056798015 -0.019072194 0.09012357 0.06034824
000140 26 22 06 3e 74 f2 ef 3d 36 9e 24 bd 59 2c 96 bd
       0.13098964 0.11716166 -0.040189944 -0.073326774
000150 07 32 47 3d 7e af 29 3d 69 a9 69 bd 0e 87 82 3d
       0.048631694 0.041427128 -0.057046328 0.06373416
000160 f7 9d 65 3c d3 d7 15 bd 8d 27 13 bd c5 c6 62 3d
       0.014014713 -0.03658278 -0.03592639 0.055365343
000170 86 86 65 bb d6 40 40 3d b9 77 ce 3c 2f a0 a2 3c
       -0.003502281 0.046936832 0.025203573 0.019851772
000180 46 0a bd bc 2f c2 86 3d 0b 49 0b 3d 84 4b 85 bd
       -0.023076188 0.06580006 0.034005206 -0.06508544
000190 7a d7 a2 bc b0 b7 2f bc 89 ec 9b bd 8d b1 71 bd
       -0.019878138 -0.010724947 -0.07613475 -0.059007216
0001a0 28 31 d9 3d 4a 05 07 ba 40 1e 13 3c 28 f8 a7 3c
       0.10605079 -0.00051506294 0.00897938 0.020504072
0001b0 bc 79 7e bd d8 5b 1a bd ef 91 6c 3d 09 4e 6d bd
       -0.062127814 -0.037685245 0.05775636 -0.05793575
0001c0 9f fb 7b 3d e4 e0 99 bd cc 3c 57 bc 95 39 82 3d
       0.06151926 -0.075135976 -0.013137054 0.06358639
0001d0 e9 16 4d 3d 78 1d e3 3c ba b2 b2 bd a3 df 5b bc
       0.050070677 0.027724013 -0.08725496 -0.013420018
0001e0 b1 5e 75 3c cb 3a 02 3d 35 89 de bc 7e 63 46 bd
       0.0149761895 0.03179435 -0.027165035 -0.048434727
0001f0 d4 40 58 bd 97 7b fe bc c6 1c b2 bc 05 a3 a7 bc
       -0.0527962 -0.031064792 -0.021742236 -0.020463476
000200 b9 82 2c bd 88 f9 87 3d 64 b6 1e 3d fc 3e 4f bd
       -0.042116854 0.06639391 0.03874816 -0.050597176
000210 af 80 1c 3d cc 83 04 bc b6 bb a7 bd ab 57 75 bc
       0.03820866 -0.008088063 -0.081901 -0.014974515
000220 66 6e eb 3b 9a 86 62 bd 13 b0 98 3d c1 6d 8f 3d
       0.0071847914 -0.055304147 0.074554585 0.07003356
000230 32 c0 94 3c db ee 2a 3c e5 37 bc bd 20 98 bf 3d
       0.018158052 0.010432924 -0.091903485 0.093551874
000240 61 81 82 3b fa c0 66 bd 97 ef 12 3d 7e 12 82 bd
       0.0039827083 -0.05633638 0.035873022 -0.06351183
000250 a8 f7 6d ba 23 94 64 3c a1 89 83 3d b9 fc 88 3d
       -0.0009077736 0.013951334 0.06422735 0.06688828
000260 00 f0 91 3d af 80 0b 3d 3c 3e 58 3b b7 a4 68 3c
       0.071258545 0.03405827 0.003299608 0.014199427
000270 80 0c 65 bd 33 d8 e7 3b 1a d2 01 3c 9e c2 7a 3d
       -0.055920124 0.0070753335 0.007923627 0.061220758
000280 20 aa c6 3d 2e f9 04 3d c7 77 4a bc 92 c8 a0 3c
       0.097004175 0.0324642 -0.012357659 0.01962689
000290 1c 1c 3e 3c c1 7c 23 3d 6c 39 a4 3d e6 28 17 bc
       0.0116033815 0.039913896 0.08018765 -0.00922606
0002a0 99 c9 b6 bc 74 e9 02 bd 6e aa e5 3d 99 da 51 3d
       -0.022312926 -0.03196092 0.112141475 0.05123386
0002b0 53 12 20 3d 30 40 c1 3c 72 81 56 3d 95 ba 61 bb
       0.039079975 0.023590177 0.052369542 -0.0034443487
0002c0 c0 03 88 bd 29 3a 8e 3d 04 3c 9a 3d f9 5d cb b9
       -0.0664134 0.06944687 0.07530978 -0.00038789192
0002d0 93 bb 9b 3d 8a ae 45 bd 84 5e 4f 3d ca 58 8a bd
       0.07604136 -0.048262157 0.050627246 -0.067552164
0002e0 75 b5 9c 3c 2d d1 ca 3b c0 73 70 3d ee d4 0d 3d
       0.019129494 0.0061894865 0.058704138 0.034626894
0002f0 90 c8 48 3d 73 ba 9e 3d 47 74 90 bd df 8e 25 3d
       0.049019396 0.07750406 -0.07053428 0.040419456
000300 6e 44 ac bd 51 98 15 bd 6b af b3 bd 52 99 73 3d
       -0.084114894 -0.036522213 -0.08773693 0.05947239
000310 24 76 58 bd 46 19 e3 bc 70 f1 32 3d 59 60 85 bd
       -0.052847043 -0.027722012 0.043687284 -0.065125175
000320 98 ba 62 bc 50 62 a7 bc a5 b5 3d 3d 8c c9 b1 3c
       -0.013838433 -0.020432621 0.046315808 0.02170255
000330 be 8b 02 bd ba 5b ea 3d 29 42 b4 3d b9 18 34 3d
       -0.03187155 0.11443277 0.088016815 0.04396889
000340 7b 94 6d 3c 80 38 6a 3b 1a cc 91 bd 2a 4d ad 3b
       0.0145007325 0.0035739243 -0.071190074 0.0052887397
000350 7f 06 aa 3d 67 b4 1f bd 60 c7 55 3d 14 75 08 bd
       0.0830202 -0.038990404 0.052192092 -0.03331478
000360 e1 63 57 3d 68 42 2a 3d 04 fc 21 3d 82 f9 9d bd
       0.052585486 0.041567236 0.03954698 -0.077136055
000370 87 f7 c5 3d f9 11 78 3d db fa 56 3d 86 ea 9a bd
       0.09666353 0.060564015 0.05248533 -0.07564263
000380 f1 71 6e 3d 68 24 6c 3d ab e8 8d 3d a0 1d 8b 3d
       0.05821413 0.057651907 0.069291435 0.0679276
000390 09 39 45 3b 5c 7b ba 3c 32 88 92 3d 78 37 5f 3d
       0.003009381 0.0227639 0.071548834 0.05449626
0003a0 58 93 13 3d d0 9a e1 bc c3 0f 30 3d f3 a8 33 3c
       0.03602919 -0.02753964 0.04298378 0.010965574
0003b0 d2 19 6b bc 3d 31 66 3d e5 a2 d3 3d b0 21 23 3c
       -0.014349418 0.0561993 0.10333804 0.009956762
0003c0 76 c2 49 bd b3 9d de 3a a0 98 d8 bc 1b 07 ad 3d
       -0.049257718 0.0016984254 -0.026439965 0.08448621
0003d0 4a c1 df bb 1b fd 9c 3b a7 28 f9 bc 88 db d1 bc
       -0.006828462 0.0047909147 -0.030414892 -0.025617376
0003e0 c5 cc bf 3d 42 be c2 3c 4a 7b 97 ba 79 89 80 bd
       0.093652286 0.023772363 -0.0011557129 -0.06276221
0003f0 0a 7e 14 bd 8f 9d b5 bb 5a d6 d8 3b bf 7a bc 3d
       -0.036253013 -0.005542464 0.0066173496 0.092030995

lstm.weight_ih_l1 f4 [512, 128]
000000 35 cf 5e 3d 55 74 32 3c a7 74 a9 3c 8f b6 8e bc
       0.054396827 0.0108919935 0.020685507 -0.017421035
000010 b0 63 9b 3d 36 6f 2f bd b0 55 2a 3d 0e 9e 47 3d
       0.07587373 -0.04283067 0.041585624 0.048734717
000020 5d e8 5b 3c 1b 18 95 3d 71 8b 9b 3d 7a 22 f9 bc
       0.013422099 0.072799884 0.07594956 -0.030411948
000030 c0 2f c3 3d c6 da 60 bc 93 47 b5 bd 25 fa 1e bb
       0.09530592 -0.013724035 -0.08851542 -0.0024257984
000040 52 ef e3 3c 73 02 d7 bc f2 6f 6d 3d 2b a4 74 bd
       0.027824078 -0.026246285 0.057968087 -0.059726875
000050 de 18 a3 bd f4 5f bb 3c ea 18 0e bd 8b 8d d6 3d
       -0.079637274 0.022872902 -0.03469173 0.10476216
000060 47 c5 6a 3d 70 60 e6 bc b5 29 3b 3d b0 ff 27 bd
       0.057317045 -0.028122157 0.04569407 -0.041015327
000070 e9 38 8c 3d 98 ad 4d bc f6 d9 83 bd 06 fc 8a 3d
       0.06846792 -0.012553595 -0.06438057 0.06786351
000080 dc ef 11 be 49 e1 55 3c bd 9c 12 bd 4b 63 dc 3c
       -0.14251655 0.0130542 -0.03579401 0.026902815
000090 19 bd f6 bd ae 17 73 3d 1c e6 85 bd 31 7c 09 3d
       -0.12047786 0.059348755 -0.065380305 0.033565704
0000a0 a0 04 d3 3c 25 2a 6a 3d 06 3b c4 3d a3 5f 2c bc
       0.025759041 0.0571691 0.0958157 -0.010520848
0000b0 f1 bd 99 bd 6c 74 94 bd 99 50 c9 bc bb a7 40 3d
       -0.075069316 -0.07248768 -0.024574565 0.04703496
0000c0 fd 9b 39 3c 76 0f 77 3d 76 12 a3 bd 6b ea 67 bd
       0.011328694 0.06031748 -0.079625055 -0.056620043
0000d0 8d ca 7b bd a1 ac 93 bd 8e 2e 06 bd 78 87 c0 3c
       -0.061472464 -0.07210661 -0.03275924 0.023502097
0000e0 61 7d a5 3d 22 42 ba 3d 99 f9 c6 3a d6 90 ce bc
       0.08080555 0.09094645 0.0015180587 -0.025215548
0000f0 1f ad d3 3d d2 f5 52 3d 08 28 c7 3c f8 a9 b8 3b
       0.103357546 0.051503964 0.02431108 0.005635496
000100 63 ab ae bd af ed 91 3d fe 81 98 3d de ac 02 3d
       -0.08528783 0.07125413 0.07446669 0.03190314
000110 a2 50 af 3d 51 18 7a 3c d1 61 95 bc 3f 05 c2 bc
       0.08560301 0.015264587 -0.018235119 -0.023684142
000120 39 5d 4f 3c 0f ab 13 bd b7 b2 95 3d de f8 76 bd
       0.012656503 -0.036051806 0.07309478 -0.060295932
000130 3f 84 78 3d 28 58 24 bd c9 14 40 bd 7a 1c 23 3d
       0.060672995 -0.040123135 -0.046894822 0.03982208
000140 e6 b7 79 3a 49 39 f9 bc 52 4d e7 bb bb ee e4 3d
       0.0009525999 -0.030422824 -0.007058778 0.11178347
000150 a6 11 51 3d e3 45 02 bd 47 29 a9 3d 6f e2 f0 bd
       0.05104222 -0.03180493 0.08259826 -0.11761939
000160 c6 4d b1 3d 6f e8 a4 bd 2e 09 00 bd 4c 5a 5f bd
       0.08657412 -0.08052146 -0.031258754 -0.054529473
000170 8f f2 42 3d b6 3b 23 bd 82 44 3f bd 75 d3 a7 3d
       0.047594603 -0.039851867 -0.046696194 0.08194629
000180 ba dd ef bb 84 7c 5d 3d b5 47 5d bd 7f 86 16 bd
       -0.007320133 0.054073825 -0.054023463 -0.03674936
000190 2f f7 7d 3c d4 e6 8d bd eb 6b 1c 3d d4 66 81 bd
       0.015500828 -0.069287926 0.038188856 -0.06318441
0001a0 d2 09 1e 3d 5e bd 65 3d aa 9c 1d be df da 15 bc
       0.038583584 0.056088798 -0.15391794 -0.009146421
0001b0 da 64 e7 bd cc 9b b5 bd cc 4b dc 3b db dc bc bd
       -0.11298533 -0.088676065 0.006722903 -0.09221812
0001c0 d6 3e dd bd bc 95 a7 3a 95 6d b7 3c e3 48 43 bd
       -0.10803001 0.0012785713 0.02239112 -0.047676932
0001d0 aa aa 6f 3d 3d 80 01 3d 4d 11 40 3c 62 ee 3f 3d
       0.058512367 0.03161644 0.011722875 0.0468582
0001e0 02 e7 bb bd 80 96 ac bd 77 d2 fe 3c 3e 15 bc 3d
       -0.091749206 -0.08427143 0.031106217 0.09183739
0001f0 08 71 ad bd aa 4a a6 3d 76 df 0c bc 0c 54 41 bd
       -0.084688246 0.0811971 -0.008598199 -0.047199294
000200 f9 4b 1a bc d3 e8 94 bc e0 73 5b 3c 82 0f bb bd
       -0.009417527 -0.018177425 0.013394326 -0.09133817
000210 2b 69 d9 bd 1f d5 7d 3d 61 48 9d 3b 6d a2 e2 3c
       -0.10615762 0.061970826 0.004799888 0.027665341
000220 f7 9e da bc 88 e1 86 3b fa 1b 33 bd 5c d9 34 bc
       -0.026687128 0.004116241 -0.043727852 -0.011038151
000230 2a 4d 94 3d 2b 47 e1 3c e1 44 c9 3c 54 6f 8a 3d
       0.072412804 0.027499756 0.024568977 0.067595154
000240 12 9f 4a 3a ad e2 d9 3b 36 93 4a bd 02 4e 8d 3d
       0.0007729392 0.0066493363 -0.049456798 0.068996444
000250 69 ac ef 3c 7b d1 6d bd e5 34 58 bd 10 22 b8 3d
       0.029257016 -0.058061104 -0.05278482 0.08990872
000260 17 14 03 bb eb 67 0d bc f0 db a6 3c 4d 58 25 3d
       -0.0020000988 -0.008630733 0.020368546 0.040367413
000270 5f 51 84 bc 28 58 4e bc 69 26 86 3c cd 40 9f 3d
       -0.016152082 -0.01259426 0.016375737 0.07776032
000280 12 4e 8e bd 95 7f 8e 3b 2e 8f 83 3d c3 60 08 3d
       -0.069484845 0.004348705 0.06423794 0.033295404
000290 15 92 a3 bd 8b cc f0 bc 06 ac 8d bc b7 29 59 3d
       -0.07986847 -0.029394409 -0.017293941 0.053018298
0002a0 fe df 93 3d 43 5e ac bd cf fa 5d bd d0 56 1b bc
       0.072204575 -0.084164165 -0.054194268 -0.009481147
0002b0 ea c9 90 3d 1f af 3c bd 7d 21 c8 bc d1 38 98 bc
       0.07069762 -0.046065446 -0.024430031 -0.01858178
0002c0 2c 31 cf 3d c7 bd db 3b 0b 35 bf bd 7a 90 68 bd
       0.10116801 0.006705973 -0.09336289 -0.05677841
0002d0 51 ec b2 bc 1d 59 cf bd 9f f8 a3 3d 6e ec 86 3d
       -0.0218412 -0.10124419 0.08006405 0.06588064
0002e0 28 d8 4b 3d 4a a4 aa 3c b7 a2 1b 3d 8c 04 85 bd
       0.04976669 0.020830292 0.037996974 -0.06495008
0002f0 39 ef 8e bd 92 fb 25 3d 62 a3 8e 3d 3a 8a a7 3d
       -0.06979222 0.04052312 0.069647565 0.081806615
000300 fe 37 53 bd 58 81 c7 3d de 9b 9c bd 99 a3 46 3d
       -0.05156707 0.09741467 -0.07646917 0.048495863
000310 0d dd a1 3c 26 d1 98 3d 04 7e ae 3d b1 88 53 bd
       0.019758726 0.07461767 0.08520129 -0.05164403
000320 54 96 81 3d ee e2 29 bd 41 fb 50 3d 78 82 c9 3c
       0.06327501 -0.041476183 0.051020864 0.024598345
000330 48 c9 3e bd 8a d4 a3 bd 5b 41 a4 bd 8c 52 f9 bc
       -0.046578676 -0.07999523 -0.08020278 -0.03043487
000340 ad f5 82 bd ea ad e7 3c 60 42 20 3d ee 50 af 3c
       -0.06394515 0.02828117 0.0391258 0.021400895
000350 68 73 89 bc 01 86 b3 bc 27 55 99 3d 06 80 32 bd
       -0.016778663 -0.021914484 0.07486945 -0.043579124
000360 2e fa 50 bd 99 27 23 3c d4 1c 28 bd f8 19 78 bb
       -0.05101984 0.009958171 -0.041043118 -0.0037857275
000370 b3 b0 9b bd ea 5d de 3d c4 ad 53 3d 14 5f b6 3d
       -0.07602062 0.108577564 0.051679388 0.089048535
000380 57 b1 b6 3b f2 02 13 bc 5e 75 b9 bc ba 44 80 3d
       0.00557534 -0.00897287 -0.022638973 0.062631086
000390 fb da ae bd 6a 32 9e 3d e0 42 29 3d 8f 58 85 3d
       -0.08537861 0.077244595 0.041323543 0.06511032
0003a0 e3 e7 7c bd d6 93 00 bd 78 97 05 3d f6 d0 66 b9
       -0.061744582 -0.031390987 0.032615155 -0.00022012353
0003b0 2f 7d 01 bc 1a ed 98 3d 95 b0 c9 3c a5 4c f3 3c
       -0.007903381 0.074670985 0.024620334 0.029699633
0003c0 a7 09 9b bd ed 18 12 bd 72 0f 88 3d 71 a0 b4 3d
       -0.075702004 -0.035668302 0.06643571 0.08819664
0003d0 8c 6d 6b 3d 65 a7 9c bd c3 64 65 3d 6d 55 c9 3c
       0.05747752 -0.076491155 0.056004297 0.024576867
0003e0 46 15 3d bd 2c 23 48 bd 18 de ac 3c 31 29 6a bd
       -0.046162866 -0.048861668 0.021101996 -0.05716819
0003f0 e3 4c e9 bb ce 3d bd bd 71 b5 6f 3d 8a c7 78 bd
       -0.0071197613 -0.09240304 0.058522645 -0.06073717

lstm.weight_hh_l1 f4 [512, 128]
000000 bc dd 04 ba 39 74 1e 3d 9e 4f 41 bd df d1 0f 3b
       -0.00050684414 0.038685057 -0.04719507 0.0021945161
000010 d0 38 7e bd 7d 85 82 3a b7 ec d3 bc 47 f1 ea bc
       -0.0620659 0.0009957995 -0.02586971 -0.028679503
000020 f2 74 31 3c a8 e7 85 3b eb 7b b7 3c b7 8e af bd
       0.010831105 0.0040864535 0.022397956 -0.085721426
000030 08 7c 20 bd 8c 15 1a bd e3 57 73 3d 9c 7d 92 3d
       -0.039180785 -0.037618205 0.059409987 0.07152864
000040 4d 7b 5d bd 91 91 8a 3d ad 2e a1 3d 5a 02 87 bb
       -0.054072667 0.06766046 0.07870231 -0.0041201534
000050 25 62 8c bd d3 eb 4d 3d c9 01 3e bd 27 54 43 bd
       -0.06854657 0.050273728 -0.04638842 -0.047687676
000060 ae aa 7f bc 8b 4f 9e bd 88 66 63 bc 62 e0 94 3d
       -0.015604658 -0.07730015 -0.013879426 0.0726936
000070 d1 15 15 3d de 00 7b bd 58 2a 59 3d fb 3f 1d bd
       0.03639776 -0.061280124 0.053018898 -0.038391095
000080 b7 49 8b bd c6 fd 8a 3d a1 a6 5a bd 14 cf 7e 3d
       -0.06801169 0.06786685 -0.053381566 0.062209204
000090 b3 b5 91 bd e3 e3 99 3c 28 4c ee bc 78 06 a0 bc
       -0.071147345 0.018785423 -0.029089049 -0.019534335
0000a0 19 70 8b bd b5 d0 98 3d e4 1b a0 3c 53 b0 f4 3c
       -0.0680849 0.07461683 0.01954455 0.029869234
0000b0 fd 9f 9b 3d f8 9e 17 3d 37 2d 44 bd f3 b6 6d 3d
       0.07598875 0.03701684 -0.047894683 0.058035802
0000c0 b9 9b 91 bd 65 38 0d bd dc 35 3e 3c 3a 33 89 bd
       -0.0710978 -0.03447761 0.011609521 -0.06699224
0000d0 2d 27 b1 3d eb b7 80 bd ab 99 3f bd aa 1e a9 3c
       0.0865005 -0.062850796 -0.04677741 0.020644505
0000e0 3a 4c 6f bd 3e a9 64 bc 19 8a 9f bd 8b dc 78 3c
       -0.058422305 -0.013956366 -0.07790012 0.0151893
0000f0 df 5e 56 3d ba b9 9d 3d 57 07 4a bd 24 83 f7 3c
       0.05233657 0.0770144 -0.049323406 0.0302139
000100 56 e2 b5 3c e4 d4 b8 3c 16 d3 7f bb dc a0 14 3d
       0.022202652 0.022562452 -0.003903573 0.03628622
000110 21 be 87 3c 21 4c 5f bd f0 e2 46 3a cb 99 7e 3d
       0.016570153 -0.05451596 0.0007586917 0.062158387
000120 6c 55 14 bd c0 f0 6c bd 59 be 82 3d ab 2d 4d 3d
       -0.036214277 -0.057846785 0.06383962 0.05009238
000130 c1 25 96 3d 50 f3 a4 3d 24 3e 91 bd ab 93 aa 3c
       0.0733142 0.08054221 -0.070919305 0.020822367
000140 84 8a 49 bd 36 4e b1 bd 05 3b 37 3d 84 a2 54 3d
       -0.049204364 -0.08657496 0.04473402 0.0519128
000150 29 ef 46 3d 92 be 87 bd 93 91 6a 3c 13 cd 19 3d
       0.048567925 -0.06628145 0.014316934 0.03754909
000160 2d 70 6a 3d be 2e 2e 3d 3d 9c 95 3d 7e e6 0e bd
       0.057235885 0.042525046 0.07305191 -0.034887783
000170 7b 09 cf bb f4 a5 fd 3c 5e a9 1a 3d 30 9e 78 3d
       -0.006318269 0.030962922 0.037759177 0.060697734
000180 f7 fc f3 bc 7e 9b 89 bd 50 51 fb bc 68 4c d2 3b
       -0.029783709 -0.06719111 -0.030678421 0.0064177997
000190 b2 db 5f 3c 22 92 a0 bd 4d 80 00 3d c2 37 73 3c
       0.013663219 -0.078403726 0.031372357 0.014844837
0001a0 ed b3 1f bd 30 c2 8e bd 4f cf a5 bd 9c 47 1c 3c
       -0.03898995 -0.06970632 -0.080961816 0.009538557
0001b0 a9 58 a9 bd ca d2 23 3d 68 76 bd 3d f1 08 66 3d
       -0.08268864 0.039995946 0.092511 0.05616087
0001c0 e4 f5 84 bd a0 d5 9a bd bb 38 5b bd 79 b7 11 bd
       -0.064922124 -0.07560277 -0.0535209 -0.035575364
0001d0 70 d0 f4 bb f9 b8 a5 bd 7f c0 09 3d 2a c9 b1 bd
       -0.0074711367 -0.08091921 0.033630844 -0.08680947
0001e0 ef 11 c6 3d d3 ac 99 3c ab ca 1a 3d 5d 97 7b 3d
       0.09671389 0.018759167 0.037790935 0.06142365
0001f0 c3 5b e6 3d aa 31 7c bd cc 95 2a bd a2 17 91 bd
       0.11247971 -0.0615708 -0.041646764 -0.07084586
000200 ca 47 cc 3d da 34 0d 3d d3 b3 68 bc 97 d7 9e bd
       0.0997463 0.03447423 -0.01420303 -0.07755964
000210 9e 70 67 bd 19 20 ad 3c d2 d1 a8 bd 32 83 13 3d
       -0.056503884 0.02113347 -0.08243145 0.03601379
000220 01 4e 46 bd 2e cc dc 3c 6a 60 68 3d 0a c2 c7 3c
       -0.048414234 0.02695283 0.056732573 0.024384517
000230 3b 8c ca 3d 17 a6 8e bd 84 93 9a bd fc 1e 33 bb
       0.09890028 -0.06965273 -0.075476676 -0.00273317
000240 49 dd 04 3d 8f f9 ac bb 80 18 be bc 25 fb 29 bd
       0.032437596 -0.005278773 -0.023205042 -0.041499276
000250 ad ab ac 3d c0 48 94 bd 4c 9c 73 bd 24 50 50 3d
       0.08431182 -0.072404385 -0.05947523 0.050857678
000260 68 7c 84 bd fd dc 91 3b 41 eb 5c bd b9 d5 b3 bd
       -0.06469041 0.0044513927 -0.053935293 -0.08780999
000270 2b 21 de bc 74 55 ab bd 12 d5 a9 bd c2 5c 4d 3d
       -0.027115425 -0.08365908 -0.08292593 0.05013729
000280 22 77 de 3c 56 f2 57 bd 4b f4 6b 3d 93 03 2d bd
       0.027156416 -0.052721344 0.057606023 -0.042239737
000290 a0 f4 3c bd 29 e1 8e bb a6 ae 5b 3a 33 41 1f ba
       -0.04613173 -0.0043603373 0.00083802117 -0.0006075084
0002a0 2a 0b 1a bd a8 9f 60 bd 55 fe 89 3d d6 57 4a 3d
       -0.037608303 -0.05483976 0.06737963 0.049400173
0002b0 48 5a 8c 3d 58 d6 67 bd 08 0d 63 bd 8d 15 7c bd
       0.06853157 -0.0566009 -0.05543235 -0.06154399
0002c0 1b 30 55 3d 50 bf 91 bd 13 96 45 3d 0d c5 7a 3c
       0.05204783 -0.07116568 0.048238825 0.01530577
0002d0 3e 52 a3 3d d7 f5 34 3d 88 c2 a5 3c 67 ae 11 bd
       0.07974671 0.044179764 0.020234361 -0.035566714
0002e0 d1 ab ac 3c 38 dc 98 3b 8a e8 c4 3d 2b 7a 70 bd
       0.021078022 0.004664924 0.09614666 -0.05871026
0002f0 e8 4e 8b bd 06 05 93 bd f1 1e 5a 3d 1a 50 6f 3d
       -0.068021595 -0.071786925 0.053252164 0.058426
000300 c2 cc 03 3d a7 b2 93 bc 43 7d 92 3d 2a a4 67 3b
       0.032177694 -0.018029524 0.07152798 0.0035345652
000310 1f 65 40 3a 41 78 7b bc 22 26 9f bd 4e 1c a2 bd
       0.0007339287 -0.015348495 -0.07770945 -0.07915555
000320 6d 9e ae 3d b1 0f 4e bd c8 f6 10 bd 90 9c 41 bc
       0.08526311 -0.050307933 -0.0353916 -0.011817113
000330 c5 4b 62 3c 6f 22 b1 bc ab 03 8c 3c 55 71 2d 3d
       0.01381201 -0.021622865 0.017091593 0.04234441
000340 8f d2 94 bc d1 ef c1 bd d1 b1 10 bd 01 d0 a8 bd
       -0.018166808 -0.094695695 -0.03532583 -0.082427986
000350 4e 7f 9a 3d bb 80 7d 3d 04 70 90 bd 10 71 7a bd
       0.07543813 0.061890345 -0.07052615 -0.06114298
000360 a6 44 96 bd bc 6c 66 bd 8c f1 87 3b c5 25 f2 3c
       -0.073373124 -0.05625604 0.0041486677 0.029559026
000370 de 8f 84 3b 5f 89 cf 3c d6 40 6a bd c6 4d 9b bd
       0.0040454706 0.025334058 -0.05719074 -0.075831935
000380 89 a6 b3 3c 3c 4e 03 bd 63 ce a1 bc 05 da 8f 3d
       0.021929996 -0.032057032 -0.019751733 0.07024006
000390 53 91 50 3d 26 88 bd 3d 13 41 2a bd 86 7a c4 bc
       0.050919842 0.09254484 -0.041565966 -0.023984205
0003a0 d2 47 9a 3c 6b d6 99 bd c6 f5 28 3d cb 03 a5 3d
       0.018833075 -0.075116 0.041250013 0.08057364
0003b0 23 7e b2 bc a6 4a 04 3d f9 1e 27 3b 50 da 23 3d
       -0.021788662 0.032297753 0.002550064 0.04000312
0003c0 3c b1 36 3c 63 69 ec 38 67 90 b7 3c 29 a2 fc bc
       0.011150654 0.00011272987 0.022407724 -0.030839043
0003d0 8b 5e e5 bb fc 0c 11 bd 9e fd 61 3d 69 26 35 3d
       -0.006999796 -0.035412773 0.05517351 0.044226084
0003e0 dc 4d cb bc 50 a7 27 3c 02 eb 0b 3c 66 35 cd bc
       -0.0248174 0.0102327615 0.008539917 -0.025049876
0003f0 75 1d 30 37 d1 27 71 bd bd 14 e4 3c ba d4 9f bd
       1.0497276e-05 -0.058875863 0.02784192 -0.07804246

lstm.bias_ih_l1 f4 [512]
000000 3d 70 99 3d 5d 27 1c bc 53 9e 00 bd 29 42 56 3d
       0.07492111 -0.009530869 -0.03140099 0.05230919
000010 29 88 92 bd c7 22 b9 bd c4 39 32 bd 6f 3b f7 3c
       -0.07154877 -0.090398364 -0.04351212 0.030179707
000020 f8 38 62 3c 07 e0 32 bd 3d 1a 16 3d d8 e7 8b bd
       0.013807528 -0.04367068 0.036646117 -0.0683133
000030 a2 c4 70 3d d6 ce 5e bc 25 9c 69 3c 6e 6b 92 bc
       0.058781274 -0.013599118 0.014258419 -0.017873492
000040 fd b2 2e ba 31 8b c2 3d 46 c7 8a 3d c1 fa 13 3d
       -0.00066642446 0.09499205 0.0677629 0.03612781
000050 89 3e d0 bc 5c db 5e bc ed 28 56 bd 02 e8 80 bb
       -0.025420444 -0.013602104 -0.052285124 -0.0039339075
000060 6f c3 49 3d 97 36 74 3d 70 cc a4 3c fc 06 cd 3d
       0.049258646 0.059622373 0.020117015 0.10011098
000070 b6 1a 2d 3d 30 dd c5 3c eb 3b 84 bd 21 f9 93 3d
       0.0422618 0.024153322 -0.06456741 0.07225252
000080 bf f8 2a bd fc 0c 52 bc 28 5d a4 bd ae 01 7c bd
       -0.04174113 -0.0128204785 -0.08025581 -0.06152504
000090 74 bd 9f 3c 48 b1 99 bc 84 b9 25 3c 02 59 2b bd
       0.019499518 -0.018761292 0.010115031 -0.04183293
0000a0 7d e4 df bc a1 44 90 3d 4c 71 6b 3c bf 90 f7 3c
       -0.027330631 0.0704434 0.014370274 0.030220388
0000b0 cc 0d 65 bd 3a 99 81 bd b1 4f c1 bd 39 43 17 3b
       -0.05592136 -0.06328054 -0.09439028 0.002308084
0000c0 02 33 2f bd 05 86 c3 bc c5 5d 99 3c 06 40 92 3c
       -0.042773254 -0.023867616 0.01872147 0.017852794
0000d0 36 5c 8e bc d7 2e e4 bc 55 58 53 3d 0e bd a6 3d
       -0.017377954 -0.027854366 0.051597912 0.08141528
0000e0 f7 2f a9 bc 7f e6 82 bc 9e 82 37 bd 4b 50 02 bb
       -0.020652754 -0.01597905 -0.0448023 -0.0019884284
0000f0 e6 e1 fd bb 9a a7 2a 3d ef ba c6 3d 56 ae ec 39
       -0.0077478765 0.041663744 0.097036235 0.00045143318
000100 e2 a2 8c 3c 74 25 ac 3d 6c 73 11 3d f4 f0 38 bd
       0.017167512 0.08405581 0.035510466 -0.045151666
000110 ea e5 8d 3d ab 58 95 bd 37 8f ba 3c 34 03 80 bc
       0.06928618 -0.07292303 0.022773368 -0.015626527
000120 87 44 6f 3d 06 43 8d 3d fe c0 67 3d 7d 45 2f 3d
       0.058414962 0.06897549 0.056580536 0.04279088
000130 00 1e 52 3d cd 64 ce 3c 00 06 9d bc f6 0f 0c bc
       0.05129814 0.02519455 -0.0191679 -0.008548727
000140 3f e8 9b 3d 45 b6 4e bd 08 7c 2f 3d bf 95 92 3d
       0.07612657 -0.050466795 0.042842895 0.07157468
000150 14 04 d4 3c 67 2a 9d bd 47 4e c7 3c b3 04 22 bd
       0.02588085 -0.07674103 0.024329318 -0.039555263
000160 45 44 77 3d 48 55 15 3d 60 de b1 3d 5d b0 60 3b
       0.06036784 0.036458284 0.08684993 0.0034284808
000170 89 bd 04 bd 41 c4 92 3d be 03 89 bd da 6f 9d 3d
       -0.032407317 0.07166339 -0.06690167 0.076873496
000180 05 3f a8 3c 34 a2 69 bd ba 9e 7e bc 3f 72 84 3d
       0.020537863 -0.057039455 -0.015540773 0.06467103
000190 65 d4 54 3d 79 0f 8b 3d 16 01 00 bd b3 5e 80 bc
       0.051960368 0.067900605 -0.031251036 -0.015670156
0001a0 cb 72 d3 3c 43 4f 67 bd 50 42 94 3d 7c 1e 10 3c
       0.025811573 -0.056472074 0.072392106 0.008796331
0001b0 8c c0 51 3d f9 96 8f 3d 08 14 9a bd d0 fd 10 bd
       0.051209018 0.070112176 -0.07523352 -0.035398304
0001c0 23 cb 0e 3d 8e 83 05 3d 4e 10 3d 3c c9 e0 1e bd
       0.034861695 0.032596163 0.011539532 -0.03878859
0001d0 c1 3e a4 bc 44 4b 11 3d 05 95 e7 3c d0 d4 97 3d
       -0.020049455 0.03547217 0.0282693 0.07413638
0001e0 89 e3 91 bd 32 44 92 3d 34 8f 7b 3d d2 4a 44 bd
       -0.07123477 0.071419135 0.061415866 -0.047922917
0001f0 e8 b0 84 bd 79 48 54 3d f0 d7 b6 3c 9d 0f 82 3d
       -0.06479055 0.051826928 0.022319764 0.06350634
000200 21 ae 05 bd 9f cd a0 3d 92 79 b3 3d 25 7d 4f 3d
       -0.032636765 0.07851719 0.08763422 0.050656457
000210 9f ff a4 3d 7e 4c 83 bb 81 d0 41 bc 73 de ac 3c
       0.08056568 -0.0040069213 -0.011829496 0.021102166
000220 9f 88 b7 3c a0 e0 60 bc 6d 06 12 bd 82 77 4b bd
       0.022404013 -0.01372543 -0.03565066 -0.04967452
000230 90 bf 62 bc 9b 42 ec bc 61 a9 cb bd ba e7 d5 bb
       -0.013839617 -0.028840354 -0.09944416 -0.006527868
000240 3d c8 39 bb fc 10 d5 bc 6e 32 b2 bd 36 5b 8b bd
       -0.002834811 -0.026009075 -0.08701025 -0.068045065
000250 8f 75 b0 bc 8e 16 e3 bc 6d 78 6a 3c 18 d5 3a bc
       -0.021540431 -0.027720716 0.014310938 -0.011403345
000260 f8 86 51 bc 04 07 82 3c 3c 09 5a bd a4 a4 b9 bc
       -0.012788527 0.015872486 -0.053231463 -0.022661515
000270 8d 10 2a 3d 48 60 aa 3b ad 4c 36 bd 91 49 80 3d
       0.04151969 0.005199466 -0.044506717 0.06264032
000280 24 dd 36 bd f6 23 1d 3d f4 87 80 3c a7 ef 8e 3d
       -0.04464449 0.038364373 0.015689828 0.06979304
000290 bf 4e af bd 23 e9 27 bd 86 5d bf 3c a5 84 b3 bd
       -0.085599415 -0.04099382 0.023360025 -0.08765534
0002a0 20 3d a3 bd 0b 76 30 3d c5 3d b1 3b 3f 75 d1 3c
       -0.07970643 0.043081325 0.005408975 0.025568603
0002b0 38 a0 a6 bd 0e de 52 3d e7 3b 1f 3d 46 f2 92 bc
       -0.08136028 0.0514813 0.038875487 -0.01793779
0002c0 5e 15 69 3b ca c3 78 3d 5a 0f b0 bd a9 70 bb bc
       0.0035565714 0.060733594 -0.08596678 -0.022880869
0002d0 6a fd 48 bd 03 d0 40 bd 0c 0a 4f 3d 2d 63 84 3c
       -0.0490698 -0.047073375 0.05054669 0.016160572
0002e0 62 bc 43 3d dd 24 10 3d a3 d7 c7 3c 4c e5 67 3d
       0.047787078 0.035191406 0.024394816 0.05661516
0002f0 50 5c 50 3d e4 64 9e 3c 39 aa 6d bd 56 e9 33 3b
       0.050869286 0.019335218 -0.058023665 0.0027452311
000300 33 ce 5b bd 32 8e 97 bd 72 55 8c 3b 0c 90 81 bd
       -0.053663444 -0.074001685 0.004282647 -0.06326303
000310 2f c2 82 bd a4 f4 8c 3c 6b c9 f9 3b d3 f7 14 3d
       -0.06384694 0.017206497 0.007622888 0.036369156
000320 21 60 fc bc 7d 60 b6 3c 13 69 2a 3d 23 5f 5e bd
       -0.030807557 0.022262806 0.041604113 -0.05428995
000330 1f 56 13 3c 30 7f 40 3d eb 31 65 3d 82 6b 37 3d
       0.008992701 0.046996295 0.05595581 0.04478026
000340 8e 31 f9 3c c9 3e 8d 3d 20 1f af 3c ed 81 7c 3d
       0.030419137 0.06896741 0.021377146 0.061647344
000350 c4 8a 0b ba a3 6d bb bc db 55 84 bd 5f c2 8f 3d
       -0.0005323107 -0.022879427 -0.06461688 0.07019495
000360 7f be a4 3d 54 5a 21 bd 02 aa 61 3c 5a 42 d2 3d
       0.08044147 -0.039392784 0.013773443 0.10266562
000370 6a 27 78 bd 59 2f e1 3b 1e c8 a1 bd d3 6c 2b bd
       -0.060584463 0.0068720994 -0.078994974 -0.04185183
000380 9e e9 41 bd 14 5f 8b bd 87 34 d0 bc e4 01 7e 3d
       -0.047341935 -0.06805244 -0.025415672 0.06201352
000390 92 4b 8a bd 73 90 6c 3a 98 7e c5 3c 75 9f 67 3c
       -0.06752695 0.000902421 0.024108216 0.014137139
0003a0 1d a8 01 bd 69 18 6d bd 9e 4e 5c 3b 16 a6 af 3d
       -0.031654466 -0.057884607 0.0033616195 0.085766
0003b0 60 33 ea bc b4 3e 3c 3c ca b9 0c bd 57 c8 e8 bb
       -0.02858895 0.011489559 -0.03435687 -0.0071039605
0003c0 dc 1a bb 3d eb 0a 2a bd 2a 83 8b bd 29 c5 32 3d
       0.091359824 -0.04151432 -0.06812127 0.043645058
0003d0 86 08 85 3d 9d da 98 bd 45 de 8c 3d a9 8d c6 3b
       0.06495766 -0.07463572 0.06878332 0.0060593677
0003e0 fd cb 48 bd 51 c0 b6 3d 17 e1 55 bd 94 c7 54 bc
       -0.049022663 0.089234 -0.052216616 -0.012987036
0003f0 04 f8 24 3d 3a ca 9f 3d bd 94 a1 3d 39 71 42 bc
       0.04027559 0.078022435 0.07889698 -0.011867815
